src/Games/hex/Models/example.pt (torch, 160292 bytes, 143 tensors)

weight f4 [3, 3, 3, 3]
00000000: 822d 0bbd 6b50 713b 4a25 36be d25b 283e
00000010: f0b5 2a3e 9ab7 df3d 807e e8bc 01ad f23d
00000020: f4aa cbbd 0456 1c3e 5d52 11be f54a 22be
00000030: 2b91 fcbc 793f 303e 8b07 dbbd 940c e7bd
00000040: 16f8 143e d7d4 99bc 7b98 4fbd acbc 5e3c
00000050: a3df f93d 997d dabd 9656 c93d 0646 bfbc
00000060: 8c21 d9bd 5eb8 693d c3a9 fdbd e413 c5bc
00000070: 360d 3d3e 9803 913d d843 bdbd bacd 953d
00000080: e460 ba3d 7e7d 243e 727c 2cbe 3b70 22be
00000090: 2c49 a53d 5566 2b3e 9961 41bd 484a d1bd
000000a0: 242e d13d b2d8 463d 0059 dcbd 520a 973d
000000b0: 998f 303e 1189 28be 14a2 6ebd 60ad 27be
000000c0: 133e 963d 85bf a83c 97f2 3bbe 5be1 063e
000000d0: af1b c13b 8d84 9f3a f5e6 12be 1a14 a7bd
000000e0: 4435 163c 9b23 083e 3e70 033e fc70 eebd
000000f0: 2d1b 423d 1008 843d f0de 9abc 9828 e63a
00000100: 4af9 e93d 59e8 053d 8202 8a3c 7937 ddbc
00000110: de8d 96bd 82e3 853d 48ff 0fbc 2907 ccbc
00000120: 916b 953d 8be8 973d cf61 013d 4689 f7bd
00000130: 0443 303d 6a39 273d 1349 a23d e1dd 0f3e
00000140: f6c6 2a3e
-0.033978947 0.0036821614 -0.17787662 0.16441277 0.16670966 0.10923691 -0.028380632 0.11849404
-0.09944716 0.15267187 -0.14191575 -0.15848906 -0.03083094 0.17211713 -0.10694798 -0.11281696
0.14547762 -0.018778248 -0.050682526 0.013594788 0.122008584 -0.10668487 0.09830968 -0.02334882
-0.10602102 0.057060592 -0.12385895 -0.024057336 0.18462071 0.070807636 -0.09241456 0.0731463
0.09100512 0.16063496 -0.16844347 -0.15863125 0.08070597 0.16738255 -0.047212217 -0.10219246
0.10213879 0.0485465 -0.10759163 0.07375015 0.17242278 -0.16458537 -0.05826004 -0.16374731
0.073360585 0.020599136 -0.1835426 0.13171904 0.0058931927 0.001217024 -0.14345916 -0.08158131
0.009167973 0.13294832 0.12835786 -0.11642644 0.047389198 0.0644685 -0.018905133 0.0017559705
0.11424501 0.032692287 0.016846899 -0.02700399 -0.07351278 0.06537534 -0.008788891 -0.024905758
0.07295907 0.07417401 0.03158742 -0.1208673 0.04303266 0.04082624 0.07924094 0.14049484
0.1667746

bias f4 [3]
00000000: ba02 353e e421 db3d 629f e4bb
0.17676821 0.106998235 -0.0069770077

weight f4 [3]
00000000: 4bb8 7e3f 89b8 7e3f 47b8 7e3f
0.9949996 0.9950033 0.99499935

bias f4 [3]
00000000: 4425 47bb 75d0 8cbb 797d 10bb
-0.0030387202 -0.004297311 -0.0022047444

running_mean f4 [3]
00000000: 62b6 c03d 5eaf c83c ee94 f53d
0.09409787 0.024497684 0.11991297

running_var f4 [3]
00000000: ad51 0c3f 685f 113f 8269 0d3f
0.5481213 0.56786203 0.5523912

weight f4 [3, 3, 3, 3]
00000000: 2047 38be d261 cd3d 2ecd 0a3e 3210 ea3d
00000010: 033e 723d be3f 42bd a2ec 43bd 3808 b53c
00000020: 575c b0bd e6ba a93d 2207 38be 4a3f d33d
00000030: b860 09be 6dda 173e e245 19be 27f4 34be
00000040: 0524 303e bd15 1c3e 50b3 03be 16e6 543d
00000050: fd58 03bd c1fc a73d 13fb 79bd 28ab d0bd
00000060: c7de a5bd 6202 22be 8af5 48bd 91af c6bd
00000070: b8f2 2e3d e254 d73d e914 e23d f6ca 13be
00000080: 0459 66bd c4b0 25be e1f7 84bc dd8c 21be
00000090: 3309 c53d a5dc d33d 6080 e8bd 9c26 343e
000000a0: 3ab2 a3bd b1c3 29bc af65 49bd 6a10 843d
000000b0: d378 0dbe 2c54 ba3d 1479 7a3d f191 f93d
000000c0: 7cd4 10be 058e 92bc 8072 b03c 9236 04be
000000d0: d3c8 c1bc c9c5 efbd 041e a43c 1f02 2abd
000000e0: 1b87 0ebd 97d8 48ba e45c c5bd 9d8d 8b3c
000000f0: 3365 bbbc 53e1 0abe bbbe b93d fa19 c5bd
00000100: 8164 043c 4c05 1c3d 14b3 3fbe 52ea 263b
00000110: f74f 67bd 7a78 b5bd 3fd8 b5bd 78a1 31bd
00000120: 5ce8 d73d 117f b83c 8b0f 0fbe a383 1abd
00000130: 325a 1cbd 1a24 b63d d460 33bd b330 48bc
00000140: 0cfb 06be
-0.17995882 0.10028423 0.13554832 0.1142887 0.05914117 -0.04742407 -0.047833093 0.022098646
-0.086113624 0.08287601 -0.17971471 0.10314806 -0.13415802 0.14829417 -0.14968064 -0.17671262
0.1720124 0.15242667 -0.12861371 0.05197724 -0.032067288 0.08202506 -0.06103046 -0.101888955
-0.08099132 -0.15821221 -0.04906229 -0.097014554 0.042711943 0.10514237 0.110391445 -0.14432892
-0.056237236 -0.16180712 -0.01623148 -0.15776391 0.09620895 0.10344819 -0.113526106 0.17592853
-0.079929784 -0.010361598 -0.04916924 0.06448443 -0.13815622 0.09098086 0.061150625 0.12186039
-0.14143556 -0.017889986 0.021538973 -0.12911442 -0.02365533 -0.117076464 0.020033844 -0.04150593
-0.034796815 -0.0007661669 -0.09636858 0.0170353 -0.022875404 -0.13562517 0.09069582 -0.09624095
0.008080603 0.03809099 -0.18720657 0.0025469256 -0.056472745 -0.0886087 -0.08879136 -0.04336688
0.10542366 0.022521527 -0.13970773 -0.037723195 -0.038171954 0.088936046 -0.043793514 -0.012218642
-0.13181704

bias f4 [3]
00000000: 707a d83d b807 0bbe 8b58 d3bd
0.10570228 -0.13577163 -0.103196226

weight f4 [3, 3, 3, 3]
00000000: ee3f 263e ed9a f23d e978 39be 0604 ebbd
00000010: fcec 303e 15ce 2ebe 7f3b 8ebb 32d6 d33d
00000020: 53ac 31bc cf45 6cbd 60ae 15be ed8f 033e
00000030: 1be8 adbd 9b1f 2abc 65a2 bebd 12ee 6f3d
00000040: 6bf8 1c3e 8f50 c7bd e6b6 023e 9cd3 b0bd
00000050: 7e18 38be 423f d3bd ff54 95bd 3bdf 473b
00000060: 5c27 df3d ff51 54bd 41e9 4a3d c316 153e
00000070: aed2 2a3e ebd7 a4bd 1bd3 99bd cf87 b5bd
00000080: b0d0 883c 9d10 323e 46c7 eb3c 5d6a a43a
00000090: f37b a33c 7319 08be e7ae 06be 515e d43d
000000a0: f5c7 d83d 0a89 fe3d 0ed3 11be 4fff b2bd
000000b0: 7cf2 a83d a32e fbbd b845 933d ad4e 3bbd
000000c0: 00ea 0f3d bd56 b6bd 3bfe 44bd b324 373b
000000d0: 4094 0fbe bdd9 02be 16db c1bd 7fd0 d83d
000000e0: 5e01 813c aca8 cbbc ada2 ec3b abac fbbc
000000f0: e07f 26be 0b19 91bc d991 2bbe 9842 2e3e
00000100: da27 dabd b2cf 1f3e d772 32be 7d45 d6bd
00000110: 4a6e 37be b071 073e c2c7 35bc 5092 683d
00000120: 7bce 33be f98e e8bd 4141 1bbe 2eb7 1d3d
00000130: da96 ba3d bd91 793c 4f47 33be 4b12 1b3e
00000140: e44e 26be
0.16235325 0.11845956 -0.1811253 -0.11475377 0.17277902 -0.17070802 -0.0043405886 0.10343589
-0.010844308 -0.057683762 -0.146173 0.12847872 -0.08491536 -0.010383512 -0.09308318 0.05857665
0.15329139 -0.09732162 0.12765083 -0.08634111 -0.17978093 -0.103148 -0.07291602 0.0030498046
0.10896179 -0.05183601 0.049538855 0.14559464 0.1668193 -0.080489956 -0.07510968 -0.08863794
0.016701072 0.1738915 0.028781544 0.0012543906 0.019956565 -0.13290958 -0.13152657 0.10369552
0.10585014 0.12428482 -0.14240667 -0.087401025 0.08249375 -0.122647546 0.07191032 -0.045729328
0.03513527 -0.08903263 -0.048094016 0.0027945458 -0.14021397 -0.12778373 -0.094656155 0.105866425
0.015747722 -0.024860702 0.007221541 -0.030721983 -0.16259718 -0.017712137 -0.16754855 0.17017591
-0.10652132 0.15606573 -0.1742662 -0.104624726 -0.17913166 0.13226962 -0.011094989 0.05678016
-0.17559235 -0.11355395 -0.15161611 0.038504772 0.09110804 0.015232501 -0.17507671 0.15143697
-0.16241032

bias f4 [3]
00000000: d2d8 67bc 1a43 023e c654 1d3e
-0.014150815 0.1272091 0.1536437

weight f4 [3]
00000000: 59b8 7e3f 56b8 7e3f 61b8 7e3f
0.9950004 0.99500024 0.9950009

bias f4 [3]
00000000: 2640 eeb8 b0d9 18ba a57f 813b
-0.00011360673 -0.0005830778 0.003951984

running_mean f4 [3]
00000000: e929 88bc b12d 5e3d ba42 873c
-0.016621547 0.054242793 0.01651131

running_var f4 [3]
00000000: 7f7c 0a3f 7633 0a3f 011a 0a3f
0.54096216 0.53984773 0.5394593

weight f4 [3, 3, 3, 3]
00000000: 433f 9e3d ccff 29be b798 dc3c af85 b0bd
00000010: 7a54 22bc b2c8 243d 625f 03be 07c4 ebbd
00000020: 7367 093e 3ed7 ddbd 585d 2fbb 8c4e 29be
00000030: 0f9d eebd 0825 303e 4faa e8bd 8de5 65bd
00000040: ac0c d1bd 3145 f5bd c0ba d2bd 83a8 08be
00000050: cde0 133e 4110 3f3e 4c8d 9cbd b141 a73b
00000060: aef0 20be 1d04 00bc 4d00 c9bd 76de de3d
00000070: efa1 253e 0689 343e 8558 c13b 78ef 55bd
00000080: 6b35 f8bd 83e9 a33d b2c7 323e fc78 c7bd
00000090: 5573 023e 636a 263d 72b3 873d e445 2c3d
000000a0: 4448 ad3d 077a c03d 6421 503d 8b5b 353e
000000b0: 59e5 c7bd 96db 133e ee38 343e 97c2 f03d
000000c0: cfbb 0f3e be12 1dbe 4727 c23d 709b 05be
000000d0: cab3 69bd 52aa d3bd 9d50 173e 9da6 1c3d
000000e0: 8d15 dcbd 266c 22bc 9895 0b3e 6559 2b3d
000000f0: 5d4e c03c 3796 cdbd 9888 de3c 2ffe c3bd
00000100: aabd 023e 8e34 293e 86a6 213e 4599 073e
00000110: 1cbe c1bd 2f6e 19be c11f 203e 0f7c d53d
00000120: 6939 febd 0ab6 143e 8cf1 da3d d8a9 31be
00000130: e457 e0bd f37b 90bc 9494 fcbd f826 103e
00000140: 9585 51bd
0.0772691 -0.16601485 0.026928289 -0.08619248 -0.009907836 0.04023046 -0.12829354 -0.115119986
0.13418369 -0.1083207 -0.0026758518 -0.1653387 -0.1165105 0.17201626 -0.11360609 -0.05612712
-0.10207495 -0.11976088 -0.10289526 -0.13345532 0.14441223 0.18658544 -0.07644138 0.0051042666
-0.15716812 -0.007813481 -0.098145105 0.10882275 0.16175054 0.17630395 0.005900445 -0.05223033
-0.12119564 0.08003523 0.1745899 -0.09739873 0.12739308 0.040628802 0.06626023 0.04205884
0.08461049 0.09398275 0.050813094 0.17710702 -0.097605415 0.14439234 0.17599842 0.11755865
0.14036487 -0.15339181 0.09480148 -0.13047576 -0.057056226 -0.103352204 0.14776845 0.038244832
-0.10746298 -0.00991348 0.13631284 0.0418333 0.023474867 -0.10038417 0.027164742 -0.09569966
0.12767664 0.16523954 0.1578618 0.13242061 -0.094600886 -0.14983438 0.15637113 0.10424053
-0.12413294 0.14522567 0.10690603 -0.17349946 -0.10954264 -0.017637229 -0.123330265 0.14077365
-0.051152784

bias f4 [3]
00000000: 7432 663d 4d04 1fbe 03a4 4fbd
0.05620046 -0.15528984 -0.050693523

weight f4 [3]
00000000: 5db8 7e3f 60b8 7e3f 40b8 7e3f
0.99500066 0.99500084 0.99499893

bias f4 [3]
00000000: 2d39 393a e0e9 be3a 2b31 823b
0.000706571 0.001456555 0.0039731464

running_mean f4 [3]
00000000: a81c e3bd a3d4 ab3d ea87 643d
-0.1108945 0.083901666 0.05579368

running_var f4 [3]
00000000: 4b7c 143f 71c3 183f af5b 163f
0.58002156 0.5967322 0.5873365

weight f4 [3, 3, 3, 3]
00000000: d586 bbbd 1582 b43d e1b4 d73d 563d 2b3d
00000010: 1da8 37bd 3ed8 053c 3967 ec3d eeb1 13be
00000020: 22a9 92bb 5b9c 36be 3072 b2bd d6d4 2b3e
00000030: ae7a 9f3d ad23 a7bd b9b6 e93d f107 1bbe
00000040: 1742 74bd 7e4f b43c d615 153c 49a6 0e3e
00000050: b0a3 2ebe 3727 b03c 0631 e43d d2ee b63d
00000060: 037b 323e 259f e7bd 3c97 e2bb 08a4 313d
00000070: e0af dabd 15bd 053d d6b5 d13d 4952 99bd
00000080: 7693 b8bd f743 37be b7bc a7bd 94ad 043e
00000090: 8f47 32be 595b 393d 21e5 61bd 3d84 1fbe
000000a0: 5320 03be 327a fcbd 12e7 d63d 8ef0 003d
000000b0: 6ac8 e1bd 203e 07be 4300 523b 775c ac3c
000000c0: d250 083e 478d b33d 2175 2dbe 1410 d63d
000000d0: 5a09 3b3e d539 e53d e3ca 1b3e 6725 2d3e
000000e0: 61a8 c43d adf5 2b3d 852f 1a3e e078 d13d
000000f0: 7fc0 8b3d aecc e83c d3b3 8b3c f66d 2cbe
00000100: ef34 0fbe 26a4 1dbe 517c ce3b 4295 f2bd
00000110: ad3f e73c 8990 05be e771 30be fdf5 e1bd
00000120: d4ce 7e3d b1f0 343c ce1b a93d c708 19be
00000130: e316 d33a 2084 89bc 6f7e f83d a14d 2fbe
00000140: e7f5 afbd
-0.091565765 0.08813874 0.10532547 0.04180654 -0.04483806 0.008169232 0.11543126 -0.14423344
-0.0044757286 -0.17833082 -0.08713186 0.16780409 0.07787071 -0.081611015 0.11411805 -0.15139748
-0.05963334 0.022010561 0.009099444 0.1393062 -0.1705463 0.021503074 0.11142163 0.0893227
0.17429738 -0.11309651 -0.006915001 0.043369323 -0.10678077 0.032651026 0.102397606 -0.07486398
-0.09012501 -0.1789702 -0.081902914 0.1295684 -0.1741011 0.04525313 -0.055150155 -0.15577789
-0.128053 -0.123279944 0.10493292 0.03147941 -0.11024554 -0.13207293 0.0032043613 0.021040184
0.1331208 0.08767181 -0.16939212 0.104522854 0.18265286 0.11192671 0.15214114 0.16908799
0.09602428 0.04198234 0.1505719 0.10228133 0.06823825 0.028417911 0.01705352 -0.16838822
-0.13985036 -0.15394649 0.0063014408 -0.11844875 0.028228605 -0.13043417 -0.1723095 -0.11033247
0.062208965 0.011043713 0.082572564 -0.14944755 0.0016104843 -0.016786635 0.1213349 -0.17119457
-0.08591824

bias f4 [3]
00000000: 1158 f13c f25b f53d fce1 f33d
0.029460939 0.11980428 0.119083375

weight f4 [3]
00000000: 5ab8 7e3f 4db8 7e3f 67b8 7e3f
0.9950005 0.9949997 0.99500126

bias f4 [3]
00000000: ac0a 7b3b 3d2a 6a3a 895d 82b8
0.0038305921 0.00089326856 -6.216305e-05

running_mean f4 [3]
00000000: 696b 3c3d b4b6 dabc d297 79b9
0.04600087 -0.026698448 -0.00023803048

running_var f4 [3]
00000000: b6e8 153f b964 183f 6740 2b3f
0.58558214 0.5952869 0.66895145

weight f4 [3, 3, 3, 3]
00000000: a78a 013e 6b8f b03c 7624 323e ee30 4bbd
00000010: 3510 2cbe da84 bdbd c754 813d cb43 d1bd
00000020: e8d4 75bd 353f 78bd eaa1 ba3c ec32 2e3e
00000030: bf7a 97bd aaae 35be d38b c0bd 7d42 013e
00000040: 8a9c 1e3e e709 033e 9a05 db3c 57cc 9d3c
00000050: db9a 2ebd dcc1 d83d 20a4 15be 16e5 02be
00000060: c5f9 a03d 6fca 57bd 5660 9e3c f974 11be
00000070: 01dd 503d 3e53 6cbd 2cec b9bd 6bc2 df3d
00000080: e218 82bd e3b8 ecbc 3c72 38be c296 093d
00000090: 473f 95bd 8827 33be db41 b83d 5250 96bd
000000a0: f5b2 febc c8f2 33bd 5375 33be 0ee8 3b3e
000000b0: 3c2f 8e3c 76df 05be ad3a 00bc dcbf f23c
000000c0: 15c9 03be 76c5 8fbd f763 2c3d 88c2 41bd
000000d0: b476 6fbd 9a8a f33c 76eb 9e3d c88b 883b
000000e0: 50fb 1bbd c2ac 1a3e aaf6 3abe 9bf3 31ba
000000f0: 22e2 0e3e c7c6 1cbe fc65 ef3d 1756 ba3b
00000100: d7ad e93d 196a 273e 74e9 d7bd 7a83 213d
00000110: e702 b53d 3678 043e 40cc 163d dda6 01be
00000120: 8b58 0c3e 254d b2bd 938c 023e d96c fe3d
00000130: cbfc 5bba 5966 14bb 2d56 c2bc ff14 1fbd
00000140: 3e8f d83c
0.12650548 0.021552762 0.17396721 -0.04960721 -0.16803057 -0.09253855 0.06314998 -0.102180086
-0.060017496 -0.060607154 0.022782285 0.17011613 -0.07396459 -0.1774241 -0.09401669 0.1262302
0.15489402 0.12796746 0.02673607 0.019262476 -0.04262815 0.10583851 -0.1461339 -0.12782702
0.0786014 -0.05268329 0.019333046 -0.14204778 0.050992016 -0.057696573 -0.09078249 0.10925754
-0.06352402 -0.028896755 -0.18012327 0.03359104 -0.0728746 -0.17495549 0.08996936 -0.07339539
-0.031091193 -0.043932706 -0.17525224 0.1835024 0.017356507 -0.13073525 -0.007826489 0.029632501
-0.12869675 -0.070200846 0.04208752 -0.04730466 -0.058462813 0.029729176 0.07759754 0.004167054
-0.038081467 0.15104964 -0.18258157 -0.0006788314 0.1395345 -0.15310203 0.11689374 0.0056865322
0.114101104 0.16349067 -0.105425745 0.039432026 0.08838444 0.12936482 0.03681588 -0.1266131
0.13705651 -0.087061204 0.12748937 0.12423105 -0.0008391856 -0.0022644012 -0.023722732 -0.038838383
0.02643549

bias f4 [3]
00000000: a18b 363d 894c 35be 4356 7c3d
0.044566754 -0.17704977 0.061605703

weight f4 [3]
00000000: 49b8 7e3f 57b8 7e3f 73b8 7e3f
0.99499947 0.9950003 0.995002

bias f4 [3]
00000000: 30f1 883b 6757 8e3b 8f53 813b
0.0041791424 0.0043439153 0.0039467285

running_mean f4 [3]
00000000: 22e2 97bc f9b2 60be 90c4 f73d
-0.018540446 -0.21943273 0.12098038

running_var f4 [3]
00000000: 369f 0e3f 7ecc 113f 6551 123f
0.55711687 0.56952655 0.5715545

weight f4 [3, 3, 3, 3]
00000000: 3f3d 513d b363 1bbd ab69 203e 4cff 303e
00000010: 6116 953c 637d d9bc 0f11 afbd 689c f43d
00000020: 5bff ecbd c64a 093e c989 b7bd 80c9 e63d
00000030: 59bf 06bd 212c 643d 0609 1cbe 75f0 2f3e
00000040: fc59 7b3d 0d8e 36be 24e0 043e 8ac6 c03d
00000050: 9a15 fd3d fc68 533d b9fa 2abe b8ed 16be
00000060: e48f 35bd febb cabc eac7 7bbd eb3e 2d3d
00000070: 785b d63b 63a9 a63d fa6e 8cbd 2eda 3f3c
00000080: 2bac 043d 3cbb fd3d 05c1 a63d da2a 34be
00000090: 5697 a03b 8684 5ebd 5c94 333e 68ad bd3d
000000a0: b326 f8bb 1616 34be 6896 aabd 7db9 2f3e
000000b0: d2bc febd 26d0 1ebe 7054 15bd dc49 383c
000000c0: b7b2 8cbd 749e 9bbc 6300 273e dfee 703c
000000d0: 629f dcbc dbae 9abd 69c0 fa3d 1e97 b03b
000000e0: 3937 3abe 0b27 26be fffb 16be 6c1e 8fbd
000000f0: 66d5 2b3e d79c 21bd 285b 8d3d 9a9d ecbd
00000100: 34a4 533d 04f9 98bd 3517 b5bd cf18 713d
00000110: 4d04 e9bd 1a28 fc3d 5ab1 36be 4538 0d3d
00000120: d744 99bd c69d 39be 8658 39be f70a 3dbd
00000130: 1226 3b3e 0084 d63d 8553 8dbb 1cc3 8abd
00000140: 523e 2d3e
0.0510838 -0.037936877 0.15665309 0.17284888 0.018199148 -0.026549047 -0.085481755 0.119438946
-0.11572143 0.1340743 -0.08961827 0.11268902 -0.032897327 0.055706147 -0.15237817 0.17181571
0.061365113 -0.17827626 0.12976128 0.09412868 0.12357636 0.051613793 -0.16697206 -0.1473912
-0.044326678 -0.024747845 -0.06146995 0.04229633 0.0065416656 0.08137777 -0.068571046 0.011709733
0.032390755 0.12389228 0.08142284 -0.17594472 0.004900853 -0.054325603 0.17537063 0.0926159
-0.0075729727 -0.1758655 -0.08329469 0.17160602 -0.12438358 -0.1550909 -0.03645748 0.011248078
-0.06870025 -0.018996455 0.16308741 0.014705389 -0.026931468 -0.07552882 0.122437306 0.0053891083
-0.18185128 -0.16225831 -0.14744566 -0.069882244 0.16780624 -0.039456215 0.06902152 -0.115534976
0.05167027 -0.07469371 -0.08842317 0.05886155 -0.113777734 0.12312336 -0.17841092 0.03447749
-0.07483833 -0.18126592 -0.18100175 -0.046153035 0.18276241 0.10474396 -0.004312935 -0.067754954
0.16918305

bias f4 [3]
00000000: 7033 50bd 9558 a63a 849f c839
-0.050830305 0.0012691194 0.0003826582

weight f4 [3]
00000000: 64b8 7e3f 44b8 7e3f 67b8 7e3f
0.9950011 0.9949992 0.99500126

bias f4 [3]
00000000: 9898 563b 6865 053a 1a37 d7b9
0.0032744762 0.0005088658 -0.0004104905

running_mean f4 [3]
00000000: a141 6a3c 1c74 ccbb 27a3 28be
0.014297874 -0.0062394273 -0.16468488

running_var f4 [3]
00000000: d3bb 243f c19d 1b3f 1fcc 2c3f
0.64349097 0.6078759 0.67498964

weight f4 [3, 3, 3, 3]
00000000: c223 33be 6623 3a3e d711 243e d749 863c
00000010: 3a7b 03be 3b68 35be 2f03 b7bd 128d c53d
00000020: 7f76 9d3d d110 103e 5556 f33c fc7c 9ebd
00000030: 830b 80bd 3888 163e 4c69 2f3e c2dc e0bd
00000040: f3e8 373e 2047 c7bd 0ec4 dcbc 0a92 fc3d
00000050: 4191 c9bd 4bd8 85bc 2cf7 24be 2b5e 31bb
00000060: 4f91 c13d 740b 81bd 8327 58bd 821b 3dbe
00000070: 05ee c73d 9b60 053d 0afa 273e 502c a3bd
00000080: abd4 eb3d d7b0 d9bc eb33 433d 01c0 f63d
00000090: 0545 ba3d 308a 8ebd 5e30 5a3d df8c dbbd
000000a0: ef3b c33c ea63 c73d db5b 22bd 0d58 303e
000000b0: 9f40 ddbd 344a aa3d 01c9 12be 57da ef3d
000000c0: 8c22 e53c 22d6 2d3e d2f1 a13c 7c7d fd3d
000000d0: bba0 9a3c 36f3 39bd 6ae4 3d3c 1628 19bb
000000e0: f527 22be 569d 38be 865e 28bd 7e4a eabd
000000f0: 5110 84bd a4fc 503d 091f 923d f357 98bd
00000100: 3a2a 1a3e 93bd 053e a05a 3a3e d6f7 fbbd
00000110: a99b 29be 9a5d 95bd 80bd abbd a1a7 e0bd
00000120: c1ca 9b3c 3106 0d3e 3fa1 3b3d c3c8 9abc
00000130: 7d3d 9bbc 1d89 08be d620 31be 617e eebd
00000140: 805b cebd
-0.1749411 0.18177566 0.1602243 0.016392631 -0.12839976 -0.17715542 -0.08936154 0.09646048
0.07688617 0.14068915 0.029704252 -0.07738683 -0.06252196 0.14700401 0.17130011 -0.10979606
0.17959957 -0.09730363 -0.026948955 0.12332542 -0.09842158 -0.016338488 -0.16109914 -0.0027064185
0.094515435 -0.06301013 -0.052772056 -0.18467525 0.097621955 0.032562833 0.16403976 -0.07967436
0.115151726 -0.026573582 0.047656935 0.120483406 0.09095196 -0.06959951 0.053268783 -0.107202284
0.02383229 0.09735854 -0.03963838 0.17221089 -0.10803341 0.083149344 -0.1433449 0.11711567
0.027970575 0.16976216 0.01976863 0.1237745 0.01887547 -0.04539796 0.011590103 -0.002336984
-0.15835555 -0.18028769 -0.04110577 -0.114399895 -0.064484246 0.051022187 0.07134826 -0.0743865
0.1505517 0.13060598 0.18198633 -0.1230313 -0.16563286 -0.07293244 -0.08385754 -0.10969473
0.019017579 0.13771893 0.045808073 -0.018894559 -0.018950218 -0.13333555 -0.17297682 -0.116451986
-0.10076046

bias f4 [3]
00000000: 3689 423d a1b6 3d3d 30c1 613b
0.047494136 0.046316747 0.0034447424

weight f4 [3]
00000000: 52b8 7e3f 52b8 7e3f 57b8 7e3f
0.995 0.995 0.9950003

bias f4 [3]
00000000: 083a 9b3b 137d 2b3b a295 fc3a
0.0047371425 0.002616708 0.0019270668

running_mean f4 [3]
00000000: ccd7 1b3d 1690 103e e24d e0bd
0.038047597 0.14117464 -0.10952355

running_var f4 [3]
00000000: d6d6 143f 010f 0f3f 4043 143f
0.58140314 0.5588227 0.57915115

weight f4 [3, 3, 3, 3]
00000000: 7686 de3c f26e 163d 584e 273e 45b4 a63d
00000010: 407f e43d c38b e83c 0c97 1bbb 23b5 f53d
00000020: 0451 2c3c 901c 66bb 3907 6e3c 73bf ddbb
00000030: 6faa 763d f1d1 4039 b55d 663d fbc3 15be
00000040: b109 203e 0cea debc 955e 83bd 5628 173e
00000050: a9e0 39be e442 1abe cb21 093d 39cd 24bd
00000060: 547a fbbc 8bef 75bb ae5a 0dbe b190 8bbc
00000070: c4c3 073e f6f6 493d 0c90 db3d d9a6 333e
00000080: 4b0b a7bd 358e 9ebc 400e 8d3b 4ce1 a03d
00000090: 5ae0 f63d d966 903d de4f d73d 09d7 25be
000000a0: 11c2 e5bd 3959 23be e199 28bc 7139 be3d
000000b0: 2ee8 38be 8425 b2bd 2e14 4e3b a42c 0a3e
000000c0: d1fc 12bd 63a2 073e bec3 0a3e bd67 1e3e
000000d0: 8f96 953d 4c41 cfbb dfba fe3d df27 1d3e
000000e0: 1eae 473d 7d0e 8cbd 4f6a 193e ad6f 13be
000000f0: e04f 0f3e 0777 2abd 758e 20be 529c 673c
00000100: 988f 7b3d 65ad 823d d9c1 90bd 5730 f53d
00000110: 1d3b 2c3e 2bf1 a43d 56b9 22be 66ec 5d3d
00000120: f8b2 3ebe 02b8 0fbe cbaf c1bd b0f4 1ebe
00000130: 7afa 083e 2846 81b9 dfce 00be 91fd 423a
00000140: cdb9 26be
0.027163725 0.0367269 0.1633848 0.081398524 0.111570835 0.028386956 -0.0023741154 0.1199744
0.0105173625 -0.003511224 0.014528089 -0.0067672073 0.060221132 0.00018388756 0.05624171 -0.14625542
0.15628697 -0.027211212 -0.064145245 0.1476148 -0.18152107 -0.15064579 0.033479493 -0.040234778
-0.030697979 -0.0037526812 -0.13804123 -0.017036768 0.13258272 0.049307786 0.10720834 0.17544116
-0.08156451 -0.019354919 0.0043046772 0.07855472 0.120545104 0.07050867 0.1051328 -0.1619531
-0.11218656 -0.15952004 -0.010290594 0.092883 -0.1805732 -0.08698562 0.0031445133 0.13493592
-0.035885636 0.1324554 0.13551232 0.1546926 0.073041074 -0.0063249227 0.124379866 0.15347241
0.048750035 -0.06838701 0.1498196 -0.1439807 0.13995314 -0.04161742 -0.15679343 0.014136391
0.06141624 0.06380729 -0.070682235 0.11972111 0.16819425 0.08053812 -0.15891013 0.054180525
-0.18622959 -0.14035037 -0.09457358 -0.15523028 0.13376799 -0.00024657068 -0.12578915 0.0007438297
-0.16281815

bias f4 [3]
00000000: 6afb d7bc 5c63 51bc a987 3c3e
-0.026365 -0.012780037 0.18411125

weight f4 [3]
00000000: 55b8 7e3f 60b8 7e3f 57b8 7e3f
0.9950002 0.99500084 0.9950003

bias f4 [3]
00000000: 5bc5 9c3a 3f9c ca39 6e4a b0ba
0.0011960672 0.00038644855 -0.0013449916

running_mean f4 [3]
00000000: 701d a93d bdc3 883e 6287 ac3c
0.08257568 0.26711836 0.02106065

running_var f4 [3]
00000000: 33a0 213f 949b 3b3f 1795 2b3f
0.6313507 0.7328427 0.6702437

weight f4 [3, 3, 3, 3]
00000000: 5809 17be d48f 1a3e 8e4f 813d 35eb dbbd
00000010: f1c9 94bd c494 3fbe d7de 113d f11e 30be
00000020: 62ed 22be 66fd 633d 3ab4 313e aaf7 0b3e
00000030: a04b 2939 3b8c b1bd 97bf cd3c fd27 3cbe
00000040: 6434 35be fd14 e0bc 9b2d cd3c 459c 96bd
00000050: fefe 33be 112c 32be 9e2d 063e 88c5 b1bd
00000060: c3bb e8bd 7c0a 5c3d 77c6 823d 1eb5 b2bd
00000070: 6671 393e 82bf 143e a1c4 263e fce8 7f3c
00000080: 8451 7f3b c46b 2b3e f6ec 1aba 6dad 87bd
00000090: 81e3 fe3c 0c0d 7a3d 8bcf a93d ab55 30be
000000a0: f809 4d3c 330d b73d 1955 b83d 8b1c 34be
000000b0: b322 983d 5f1c 523d 206f 763d 1e1f d3bc
000000c0: 71c1 2bbd 5898 8cbd 7633 05bd f4eb 14be
000000d0: 7d47 f2bb 4019 2f3e 4fb7 84bd 1313 85bd
000000e0: c71c 063e 7075 323d c961 323e 04e1 283e
000000f0: e7ef 08be 1477 c23c 80e0 8abd e788 07be
00000100: 2389 2fbe 12ca cabd 5366 c23d 39cc 303e
00000110: 3cef a73d a119 c83c 80ab 8fbd 2857 eabd
00000120: a064 0d3e 6992 01be f0d6 02bd 1197 e5bd
00000130: 9988 d53d cc08 04be ffa0 d73d 89da 10be
00000140: 82bc 44bc
-0.14749658 0.15093929 0.06314002 -0.107382216 -0.0726508 -0.18709093 0.035612907 -0.17199303
-0.15910867 0.05566158 0.17353907 0.13668695 0.00016145268 -0.08669325 0.025115771 -0.1837463
-0.17695767 -0.027353758 0.02504616 -0.07354025 -0.1757774 -0.17399622 0.13103339 -0.08680254
-0.11363938 0.053720936 0.063855104 -0.087259516 0.18109664 0.1452618 0.16285945 0.015619513
0.00389585 0.16740328 -0.0005909944 -0.06624875 0.031114342 0.0610476 0.08291539 -0.1722018
0.012514584 0.089380644 0.09000606 -0.17589013 0.07428493 0.051296588 0.06016457 -0.025771674
-0.041932527 -0.06864995 -0.03251978 -0.14543134 -0.007393776 0.17099476 -0.06480276 -0.06497779
0.13096915 0.04356903 0.17420115 0.16492087 -0.13372765 0.023738421 -0.06781101 -0.13235818
-0.17142157 -0.09901823 0.09492173 0.17265405 0.08199927 0.024426283 -0.07015133 -0.11442405
0.13807917 -0.12653507 -0.03194326 -0.11210454 0.104264446 -0.1289398 0.105287544 -0.14145865
-0.012007834

bias f4 [3]
00000000: f598 363d 3536 b7bd dc8f ef3d
0.044579465 -0.08945886 0.11697361

weight f4 [3]
00000000: 68b8 7e3f 4db8 7e3f 59b8 7e3f
0.9950013 0.9949997 0.9950004

bias f4 [3]
00000000: 879f 983b 7b1b 093b e387 6d3b
0.004657689 0.002092092 0.0036244325

running_mean f4 [3]
00000000: 9c67 f4bd 66f3 ce3c 1120 173d
-0.119338244 0.025262546 0.036895815

running_var f4 [3]
00000000: 73a9 1d3f 188c 113f 7265 123f
0.61586684 0.5685439 0.57186043

weight f4 [3, 3, 3, 3]
00000000: e710 80bd 85e6 2e3e e8a6 8bbd 379c 123e
00000010: ddb2 91bc f47a 2a3d 0885 74bd f1b3 2ebe
00000020: dea8 113e 8770 03be 5e1f 583d e762 1cbe
00000030: 951f 33be c63e f1bd a94c cb3d 069b 96bd
00000040: 7054 323d 816b 0a3c f80b 99bd 4046 2e3e
00000050: 12a9 34be 66f9 3ebe d7c3 b8bd 8445 b8bc
00000060: fb7e 13be 3bd7 b6bc 46cc a3bd 04ba 0e3e
00000070: e8a4 31be a6d8 27bd 3067 09bd 9fdd b93c
00000080: 0a8b b8bc 5de4 573d f652 1bbe 18b6 f1ba
00000090: 8a98 99bd 0e7a aabd fd78 57bd 14be debd
000000a0: af79 003e e85a e43d 99eb 9fbd bb32 fdbd
000000b0: ab56 d83c 0af4 51bd 1158 103e f86f b43d
000000c0: 5562 b4bd bf95 193e 0610 a0bd 88da 383e
000000d0: f1ce a83d 4a46 12bb 2de6 433d b907 1e3e
000000e0: 1fd3 33be 46a2 a83c 20b2 c8bd b065 443c
000000f0: b88f 07be 9639 173c 27cf 69bb 2dd2 e5bd
00000100: b651 cd3d 57b8 883d 62fa b9bd d464 8dbc
00000110: 55ed cabc 9aca 9f3d 160f 3abd ea48 883d
00000120: dc21 c03b eccb b73b ff8c 9e3d a8fb f63d
00000130: 1db3 503d 5f0b d13d 7dd0 813d 2ef1 e1bd
00000140: 4232 bdbd
-0.06253224 0.17080124 -0.06818944 0.14317404 -0.017785484 0.041621163 -0.05969718 -0.1706083
0.14224574 -0.12835895 0.05276429 -0.15272103 -0.17492516 -0.11779551 0.09926731 -0.07353787
0.043537557 0.0084484825 -0.07472986 0.17018986 -0.1764262 -0.18649825 -0.090217285 -0.022494085
-0.14403908 -0.022319427 -0.079979464 0.13938147 -0.17348063 -0.040978096 -0.033545673 0.022688685
-0.022527236 0.05270802 -0.15168366 -0.0018441109 -0.07499798 -0.08324061 -0.052605618 -0.10876098
0.12546419 0.111501515 -0.078086086 -0.12363192 0.026408514 -0.051258124 0.14096095 0.08810419
-0.08807818 0.1499853 -0.07815556 0.18052113 0.08242596 -0.0022319728 0.047826935 0.15432633
-0.17561005 0.02058519 -0.097996 0.011987135 -0.13238418 0.009230038 -0.003567645 -0.112217285
0.10025351 0.06675785 -0.0908096 -0.017259993 -0.024771372 0.07802315 -0.045424543 0.06654532
0.0058634114 0.005609026 0.077417366 0.12059718 0.050952066 0.10207247 0.06338594 -0.110323295
-0.092381015

bias f4 [3]
00000000: 9bcc 19bd 1fa8 593d 2523 c83d
-0.037548643 0.05313885 0.09772328

weight f4 [3]
00000000: 66b8 7e3f 5bb8 7e3f 4eb8 7e3f
0.9950012 0.99500054 0.99499977

bias f4 [3]
00000000: f548 4b3b 2037 6bba f6c3 f3ba
0.0031018828 -0.0008972753 -0.001859783

running_mean f4 [3]
00000000: a80f ddbe 3f06 4c3d ea98 a13d
-0.43176007 0.049810644 0.07890494

running_var f4 [3]
00000000: 20ed 623f 4a8a 493f 6ff4 2d3f
0.88643074 0.7872664 0.679511

weight f4 [3, 3, 3, 3]
00000000: 88b0 83bb 3319 13be 86c8 2d3e 24b4 0a3e
00000010: 066b b1bd 63b7 513d 7721 27be bb3f b93c
00000020: 71ca 003e 2f11 38be dc17 e43c 428a 10be
00000030: cb63 173e 95da 33be 95ef 2c3e 0dc8 ef3b
00000040: e823 0dbe b272 07bd d4db ca3d afdc 3d3e
00000050: cf5a 113c d5d6 193d fe35 f0bd 2d3a 84bd
00000060: cde6 51bd d32c 09be e0a3 1f3e ff10 7b3d
00000070: 295b f43d 3e56 193d fc02 5cbd 6faa c2bd
00000080: 26c6 24bd 4908 dabd 1f76 e43c 4103 af3c
00000090: 183d 7abd b97a 013e 0720 8abd d77f 0c3e
000000a0: cf80 5c3d 327e 123e 83ab 33be 20ff 453c
000000b0: 769e 42bc b3e0 65bd 5e6c f63d 40f7 b43b
000000c0: 146b ffbd 7667 e2bd 1bed 023e 7a1a a43b
000000d0: a4bd ff3c 42a6 133e 07d7 e73c f69b e93d
000000e0: 4fc3 2d3d bb0c b2bd 7dc1 32be 0653 b4bd
000000f0: 3532 8b3d b306 e0bd 942f 3c3e b9e8 dfbd
00000100: 2032 89bd 4c41 cd3c 8ca8 2fbc b6dd 9abd
00000110: 094b 5bbd 0696 ddbd 0349 a6bb e9eb 523d
00000120: 63f1 4ebd 2d73 b0bd 86c3 a7bc fc05 e63d
00000130: ae03 fabc 8370 c43d 8e20 153d 7bc3 bbbd
00000140: 378d c4bd
-0.004018847 -0.14365081 0.16971025 0.1354528 -0.08662991 0.05120028 -0.1632136 0.022613397
0.12577225 -0.17975305 0.027843408 -0.14115241 0.14784162 -0.17563851 0.16888268 0.007317549
-0.13783228 -0.033068366 0.0990521 0.18541215 0.008871748 0.037558395 -0.11729048 -0.06456409
-0.0512455 -0.13396005 0.15589857 0.061295506 0.1193145 0.037435763 -0.053713784 -0.09505164
-0.04022803 -0.106461115 0.027888356 0.021363856 -0.06109342 0.12644471 -0.0674439 0.13720642
0.05383378 0.14305952 -0.17545895 0.012084752 -0.0118786 -0.056122493 0.12032388 0.0055226386
-0.124715954 -0.1105489 0.12785761 0.005008039 0.031218357 0.14418891 0.028300775 0.114067
0.04242259 -0.086938344 -0.17456622 -0.08804898 0.067966856 -0.10938778 0.18377525 -0.1093306
-0.06699014 0.02505555 -0.010721337 -0.07561819 -0.053538356 -0.1081963 -0.0050746216 0.051494513
-0.050523173 -0.08615718 -0.020478975 0.1123161 -0.030519333 0.095917724 0.036408 -0.09168144
-0.09597247

bias f4 [3]
00000000: 7be5 89bc 51db bfbc d75e d33d
-0.016833058 -0.023420008 0.10320824

weight f4 [3]
00000000: 58b8 7e3f 51b8 7e3f 6eb8 7e3f
0.99500036 0.99499995 0.9950017

bias f4 [3]
00000000: 84a2 9d3b 77ec 383b 291b 083b
0.004810633 0.0028217116 0.0020768142

running_mean f4 [3]
00000000: 2d7b 40bd 7b2c e73c 3da2 30bd
-0.04699247 0.028219452 -0.043123472

running_var f4 [3]
00000000: 7a9b 163f 4920 123f 0120 0e3f
0.5883099 0.57080513 0.55517584

weight f4 [3, 3, 3, 3]
00000000: a813 dabd d1b4 323d be37 2bbe 8bb6 10bd
00000010: f1b3 e73d 68b6 8ebd 2d11 283d 207a 4e3d
00000020: 215d 183e bd7d 62bb 6a6a 763c ab52 90bd
00000030: 17f4 383e 23ee 353e fbe5 2bbe 67d2 49bc
00000040: 6622 0ebe 2c7f f3bd 8c46 f23c 794a 973c
00000050: f0c0 e7ba ebea 5e3b 3015 2d3e 61a6 94bd
00000060: e027 28bc 45d2 c23d a6c9 dabd 77c1 06be
00000070: 8a93 b9bd 2689 e0bb 2628 003e f334 443d
00000080: 2fda 6f3d 153a 9cbc 08ed 06be e2c6 e23d
00000090: 9d2b 953b 785f e1bd cc42 37be 378e fdbd
000000a0: d866 3a3e 2a21 b13d ad82 73bd 6a33 17be
000000b0: afa1 b33b 7a3b cdbd 4033 263d 1d92 093e
000000c0: e80c c03d e1c1 d7b9 3190 04be 09c1 77bd
000000d0: 1daa 01be c5b3 85bd 7b74 edbd fa2f 8dbb
000000e0: f11d 10be 76fc 3d3e 0379 0abe 168c 9a3d
000000f0: 1bef 393a bd85 93bd 60e2 33be 5642 ffbb
00000100: 2192 e7bb ac86 debd 877a 323e ba56 fa3d
00000110: c241 a9bd e157 12be 133c 2c3e f1b9 c33d
00000120: 9e9c 7b3d 6eb0 c23d cd96 2cbe 61dd 0c3e
00000130: 4d5c 153e a0f5 0abe 5db8 9bbd ce30 313d
00000140: dd8a 09be
-0.106482804 0.04362947 -0.16720483 -0.035330337 0.11313618 -0.06968385 0.041032005 0.050409436
0.14879276 -0.003455981 0.0150400195 -0.07047018 0.18061863 0.17766623 -0.1678695 -0.01231823
-0.1388031 -0.118894905 0.029574655 0.018468129 -0.0017681401 0.0034014534 0.16902614 -0.07258297
-0.010263413 0.09512762 -0.10682993 -0.13159738 -0.09061344 -0.006852287 0.12515315 0.04790206
0.058557685 -0.019070664 -0.13176358 0.1107309 0.0045523182 -0.11004537 -0.17896575 -0.12380641
0.18203294 0.08648904 -0.059450794 -0.14765707 0.0054819207 -0.1002111 0.04057622 0.13434644
0.09377462 -0.00041152447 -0.1294563 -0.060486827 -0.1266255 -0.06528429 -0.115944825 -0.004308698
-0.14073922 0.18553337 -0.13522725 0.075462505 0.00070928194 -0.07203243 -0.17566824 -0.0077898903
-0.0070669805 -0.1086553 0.17429553 0.12223573 -0.082644954 -0.14291336 0.16819791 0.0955695
0.06142866 0.095063075 -0.16854401 0.13756324 0.14585991 -0.13570261 -0.07603524 0.043259434
-0.13431878

bias f4 [3]
00000000: 6e34 17be 352d fe3c f501 75bd
-0.14766094 0.031027416 -0.05981632

weight f4 [3]
00000000: 65b8 7e3f 53b8 7e3f 54b8 7e3f
0.99500114 0.99500006 0.9950001

bias f4 [3]
00000000: 3a03 bc38 5ae5 293b e043 80ba
8.9651396e-05 0.0025924058 -0.0009785853

running_mean f4 [3]
00000000: 0e7f 283d 9ca8 85be dfa0 3ebd
0.041136794 -0.261052 -0.046540137

running_var f4 [3]
00000000: 5198 5a3f 15bf 743f e3a0 623f
0.85388666 0.9560407 0.88526744

weight f4 [3, 3, 3, 3]
00000000: e5cf 2a3e 150c 92bc cf0d 06be d375 353e
00000010: d073 26be d878 05bd 7cc9 0fbb f5be 3ebe
00000020: bf1e 9abd 3c68 cabd 1b0d 263e 5fd8 75bd
00000030: 1495 0b3e 27df 75bd 5b11 a03d fe99 b9bd
00000040: 5dd9 2ebd 752b 2f3e 33da bebd 50cf 233e
00000050: fcad 86bd dd3d 3ebe 0f13 c53a a9ac f63b
00000060: d06c 903d 34bf a83d e73a 1bbd 864a a23d
00000070: 9536 173d 701a f1bc ece5 cdbd b586 943c
00000080: 9761 a3ba 95a9 713c e500 fabd 92c5 c33b
00000090: 019f 0b3d aa0e 3b3c 5c5d 88bb 1697 40bc
000000a0: fb8f 383e bd85 17be 3d00 36be 1f6d 02be
000000b0: 7967 ed3d 6082 69bd 51ec 30be afec 563d
000000c0: 0518 3a3d 5288 0abe 67aa c3bd 92e9 1e3d
000000d0: e9e3 9ebd 2f5d 9e3d fc85 acbd d75f 1bbe
000000e0: c075 fb3c c3e1 013e 58f2 13bd ee45 3d3e
000000f0: 76d8 3b3d fc9d df3d b709 0fbc d890 ef3c
00000100: 3816 2fbd 031f 3cbd 2ca0 393e 702d da3d
00000110: fd88 06be 415a 393e f3e1 c13d d10e 30be
00000120: 1dec 863d 93d6 073e aad8 5a3d 857f 62bc
00000130: 45c3 32be 46ed 1a3e d270 c1bd 8f35 c4bd
00000140: bdae fbbc
0.16680868 -0.017828027 -0.13091205 0.17720728 -0.16255116 -0.03258595 -0.0021940162 -0.18627532
-0.075253956 -0.098831624 0.16215937 -0.0600208 0.13631088 -0.060027268 0.0781581 -0.09062575
-0.042687763 0.17106421 -0.09318962 0.15997052 -0.06576154 -0.18578286 0.0015035587 0.007527907
0.07052004 0.08239594 -0.03789797 0.079243705 0.036917288 -0.029431552 -0.1005362 0.01813064
-0.0012464997 0.014749904 -0.12207202 0.00597448 0.034087185 0.01141707 -0.00416152 -0.011754772
0.18023674 -0.14797111 -0.17773528 -0.12736939 0.115920015 -0.0570091 -0.17277648 0.052471813
0.045433063 -0.13528565 -0.09553986 0.03879697 -0.07758314 0.07732617 -0.08423993 -0.15173279
0.030695796 0.12683778 -0.03611979 0.18483707 0.04586073 0.10918805 -0.008730344 0.029243872
-0.0427458 -0.045928013 0.18127507 0.10653198 -0.13138194 0.18100835 0.094669245 -0.17193152
0.06588004 0.13265447 0.053429283 -0.013824348 -0.17457302 0.15129575 -0.09445347 -0.09580528
-0.03072297

bias f4 [3]
00000000: 636a cbbc 80b6 c9bd 9c94 95bd
-0.024831003 -0.09849262 -0.073037356

weight f4 [3]
00000000: 5fb8 7e3f 54b8 7e3f 57b8 7e3f
0.9950008 0.9950001 0.9950003

bias f4 [3]
00000000: 720f 8e3b d4ab 873a 04f6 623b
0.0043353373 0.0010350891 0.00346315

running_mean f4 [3]
00000000: 6dfa 78bd b568 0bbe 5867 2a3d
-0.0607857 -0.13614161 0.041602463

running_var f4 [3]
00000000: 27ab 123f 02e1 113f fd9d 123f
0.5729241 0.5698396 0.5727232

weight f4 [3, 3, 3, 3]
00000000: b0b4 9a3d def9 23bc 5bb7 39be 4612 03be
00000010: 3872 2c3e 8571 de3d 7ced 8bbd 8f79 ac3d
00000020: daa1 223d 1e6a 18be 43c2 39bd 354c f1bc
00000030: ba59 d33d 6f70 0dbe 0cfd 2ebe 9b2b 32be
00000040: 41f1 05bd b0f2 2a3e c8b6 d2bc 48c5 453d
00000050: 3726 933d 7209 04be 1df8 37bd 6c49 823d
00000060: e161 3a3e 9d00 55bd c624 02bd 1e84 173e
00000070: 4ea8 36be ca1c fb3d 9c8a 8a3c a392 0dbe
00000080: 31b2 543d 0398 88bd 6e0f cf3d fbb8 dd3d
00000090: ef86 95ba 09ff 8bbd a541 9ebd 2c8a 54bd
000000a0: 9a55 cf3d b122 d0bd 33e4 e5bd aead 30be
000000b0: 3996 813d 3bd7 cdbc 0b21 9b3d b809 2ebe
000000c0: 570d ad3d 6d11 8fbd 66af bc3b e7ec 9dbd
000000d0: c025 ffbc c166 0abe e3f5 cbbd 79b4 a2bd
000000e0: 75e8 39be 5907 8dbd 7424 90bd 2015 263d
000000f0: da11 fe3d 5c30 a8bd 1f36 c83c f4ae 48bd
00000100: efcf 1abe ca43 11be 8499 33bd 227b 263e
00000110: ddbe 0d3e 8ba8 013e a773 02be 9c36 013e
00000120: 81ff 33bd 26c8 1b3b 230d 3a3e 44cf c7bd
00000130: fd31 c2bc 7bd0 7bbd a0cf ab3d 4926 fabd
00000140: 4f8d 9f3d
0.07553995 -0.010008303 -0.18136351 -0.1279994 0.16840446 0.10861496 -0.06832406 0.08421623
0.039705135 -0.1488423 -0.045351278 -0.029455284 0.10319848 -0.13812421 -0.17088717 -0.17399447
-0.03270078 0.1669414 -0.025721923 0.048283845 0.07185023 -0.12894228 -0.044914354 0.0636166
0.182014 -0.052002538 -0.03177335 0.14796492 -0.1783764 0.122613505 0.016911797 -0.13825469
0.05192775 -0.06669619 0.10110365 0.10826298 -0.0011408011 -0.068357535 -0.077273645 -0.051889583
0.10123749 -0.10162867 -0.11225166 -0.17253754 0.06327481 -0.025127044 0.07574662 -0.16995895
0.0844981 -0.069857456 0.005758214 -0.07711201 -0.03114593 -0.1351576 -0.099590085 -0.07944579
-0.18155082 -0.06886167 -0.07038203 0.04054749 0.12405749 -0.08212349 0.02443987 -0.048994973
-0.15118383 -0.14186016 -0.043847576 0.16257909 0.1384234 0.1266195 -0.1273943 0.12618488
-0.04394484 0.002377042 0.18169074 -0.0975633 -0.023705477 -0.06147812 0.08389211 -0.122143336
0.07790624

bias f4 [3]
00000000: aa9f 3dbe 7850 20be 7581 d53d
-0.18517938 -0.15655696 0.104250826

weight f4 [3]
00000000: 5ab8 7e3f 5cb8 7e3f 58b8 7e3f
0.9950005 0.9950006 0.99500036

bias f4 [3]
00000000: 2a5b eb3a fe70 3a3b 4973 14b9
0.0017956246 0.0028448696 -0.00014157327

running_mean f4 [3]
00000000: 0d8d 6abe 7d51 f8be 0621 01be
-0.22905369 -0.4849967 -0.12610254

running_var f4 [3]
00000000: c5ed 733f c79a 583f f260 833f
0.9528468 0.8461117 1.026396

weight f4 [3, 3, 3, 3]
00000000: db2e 28ba 9f1b 833d 223b f23d 62ff e4bd
00000010: ca37 96bd 67ef c6bc 66f0 ebbd a9f6 20bd
00000020: b720 383e c95a 2ebe dbd0 c73d fcf8 cebb
00000030: 7170 1e3e fa30 1b3e 9354 c8bc 45db 683c
00000040: 704f 353d f99f 283e 1a1c 9b3d 39f8 34be
00000050: e805 093e 6242 683b 37c4 02be e682 38be
00000060: e059 3d3d 9f36 a9bd d613 f5bd 4c11 0c3e
00000070: 43f6 afbd 8b6f 9abd 2bee 073e a5f5 ff3d
00000080: 9ad8 233e b54b 69bc ae43 b3bd 6fea f83d
00000090: 468c 11bb 82a0 babd b874 4abd ae71 dfbd
000000a0: f57b 84bd 869d 2e3e e181 823d 5e95 593b
000000b0: eec8 903b bda9 f4bd 8b23 ccbd 0f96 f2bd
000000c0: 7ad3 b43d e099 a43d 19ed 0dbe eea9 0f3d
000000d0: 756a 89bc 9955 e3bd 8e65 86bd bda8 373e
000000e0: 348d 143d e7da 1e3d a78e a53d fad5 643d
000000f0: 21fa 39bd d2e2 eeba 84af 29be 65fd 1cbe
00000100: 4d5a e83d a8a5 2ebe 0f6b 27be 1b95 243e
00000110: 8e41 e53d c255 78bd 250d 20bd 27ce 21bc
00000120: 5266 8e3d 0f7c 2f3e 0059 a6bd d9ef 10be
00000130: aded b8bd a829 04be 04c5 15bd c553 f23d
00000140: 5db7 833c
-0.00064156734 0.06401753 0.11827685 -0.11181523 -0.0733486 -0.024284078 -0.11520462 -0.039297733
0.1798123 -0.1702682 0.09756633 -0.0063163023 0.1547258 0.15155402 -0.02445439 0.014212434
0.04426521 0.16467275 0.07573719 -0.17672814 0.1338116 0.0035439958 -0.12770163 -0.18018684
0.04622829 -0.08262371 -0.11966674 0.13678473 -0.085918926 -0.075408064 0.13274448 0.12498025
0.16000596 -0.014239241 -0.08753143 0.1215409 -0.0022208854 -0.09112646 -0.049427718 -0.109103546
-0.064689554 0.17052278 0.06372429 0.0033200602 0.004418484 -0.119464375 -0.09967717 -0.11845028
0.088293985 0.08037162 -0.13859977 0.035074167 -0.016774395 -0.11100311 -0.06562339 0.17935462
0.036267474 0.03878298 0.080838494 0.055868126 -0.045404557 -0.0018225557 -0.1657086 -0.15331037
0.113453485 -0.1705538 -0.16349433 0.16072504 0.11194144 -0.06062866 -0.039075036 -0.009875811
0.0695311 0.17137168 -0.08122444 -0.14153995 -0.09029708 -0.12906516 -0.036564842 0.11832384
0.016078645

bias f4 [3]
00000000: 6133 3d3d bb0a 40bb 112d 0ebe
0.046191577 -0.002930327 -0.13884379

weight f4 [3]
00000000: 67b8 7e3f 55b8 7e3f 5ab8 7e3f
0.99500126 0.9950002 0.9950005

bias f4 [3]
00000000: a012 923b 393f 133b 9813 853b
0.0044577867 0.0022468104 0.0040611736

running_mean f4 [3]
00000000: c3ce af3c ba9d f1ba 6461 81bd
0.021460896 -0.0018433847 -0.06317404

running_var f4 [3]
00000000: f91e 113f 327d 133f 578d 133f
0.56687886 0.5761291 0.5763754

weight f4 [3, 3, 3, 3]
00000000: 40fa 713d a882 183e c67d b4ba 0ec5 373e
00000010: a2b1 06bd 2d67 113e fc36 093b a427 093e
00000020: b5a7 afbd 2fd8 00be c1ca 0a3e 9b2f bbbd
00000030: 58f4 75bd 365d 05bd 3a09 91bd 5c5f 213e
00000040: 48b0 3b3e 4c83 0c3e f17e 4f3d 9db3 d7bd
00000050: d43a 273d b743 3ebe bf86 cc3b 856a 133e
00000060: 2495 eebd 4e8c 31be 5e1e 253e c460 783d
00000070: 18c1 9c3c 9fa0 eabd 3b87 07be d976 3e3d
00000080: ff4d 26bc c749 a23b b3ee 1e3e 304a 2f3e
00000090: fda8 9bbd e740 3ebd 949a a5bd bb51 3ebe
000000a0: 88ff 043e d5b6 133d 5f74 503d 9d34 e73d
000000b0: 1fd5 183d 4b7d a3bd ad6f 303e 7f90 333d
000000c0: 01ad e73d e1fd 003e 3b99 95bd ea27 823c
000000d0: b8e0 be3d edd5 033d e7d0 40bd 2b1a e0bd
000000e0: fa73 b439 45e5 fd3d bdf5 51bd 30c2 783d
000000f0: de2a c93d c753 c03c f7a0 b23d 956e 1ebe
00000100: 6a46 1bbd 4792 863c 1c5c 18be 1ad2 1dbe
00000110: 1750 8bbd ad10 053e c098 e2bd 7d46 1d3e
00000120: f668 d63d a255 5c3d 53ee 383c 22aa 86bd
00000130: 7ebb c43c 198f 3f3d 6612 d43d 1e56 32be
00000140: 9bdd 8ebd
0.059076548 0.14893591 -0.0013770394 0.17946264 -0.032884248 0.14199515 0.0020937314 0.13394028
-0.085769095 -0.12582467 0.13553907 -0.091399394 -0.060047477 -0.032559596 -0.07081838 0.15759033
0.18328965 0.13721961 0.05065817 -0.105323054 0.040827587 -0.18580519 0.006241649 0.14396103
-0.1164954 -0.17338678 0.16124865 0.060639158 0.019135043 -0.11456417 -0.1323518 0.04650006
-0.010150432 0.0049526426 0.15520744 0.17118144 -0.07600591 -0.046448614 -0.08086124 -0.18585865
0.12988102 0.036063034 0.05089223 0.11289332 0.037312623 -0.07982882 0.17230101 0.043838974
0.11312295 0.12596847 -0.07304617 0.015888173 0.093202055 0.032186437 -0.047074225 -0.10942491
0.00034418685 0.12397245 -0.051259745 0.060732067 0.098226294 0.023477448 0.08722108 -0.15471871
-0.03790895 0.016427172 -0.14878887 -0.15412179 -0.06802385 0.12994643 -0.11064291 0.1535892
0.104692385 0.053792603 0.01128729 -0.06575419 0.024015184 0.046767328 0.10355072 -0.17415664
-0.06975862

bias f4 [3]
00000000: 9aa6 313e bcf5 f6bd bdbe f93d
0.1734871 -0.12058589 0.121945836

weight f4 [3]
00000000: 5bb8 7e3f 53b8 7e3f 5db8 7e3f
0.99500054 0.99500006 0.99500066

bias f4 [3]
00000000: 8a0d 623b 3010 963a 8b12 9fba
0.0034492933 0.0011448916 -0.0012136264

running_mean f4 [3]
00000000: f520 c03e 76ee dd3e 18b6 09be
0.37525144 0.43345994 -0.1344837

running_var f4 [3]
00000000: 24a6 a43f 509e 983f 6020 613f
1.2863202 1.1923313 0.87940025

weight f4 [3, 3, 3, 3]
00000000: babd 17bc 0ba4 b03c 51c2 0cbc 78e9 443d
00000010: 487f 6abc d635 913d d4c8 453d e05e 893c
00000020: c659 2f3e e360 183e adfb 043e c1d1 ca3c
00000030: 2837 25bd f5dd 32be 934b 44bd 44bb a73d
00000040: aa18 b83d c9ca 303d e1dd 273e c953 90bd
00000050: 7935 893d 8154 cb3d 1ebc 883d 3bdc cfbd
00000060: 97af 95bd 17c5 0fbd 46d7 c5ba 879b debd
00000070: 3d24 c5ba c3ad 023e 4307 a2bc dacd 0fbe
00000080: e5a2 343e c2ff 1a3e 3bad 903d a6e4 193c
00000090: 2f56 d23d 2dcb 443d 0d7e a53d 1ccc 5d3d
000000a0: 58ee d83d b8fe 083d 411e 47bd cb6f 9a3d
000000b0: f38e fbbb 2e54 02be 11cf c13d 5c76 15be
000000c0: 12fa 173b 6ff6 9b3d ed71 34be 4657 3cbe
000000d0: a19b b6bd 2a3b 64bd 4acd 833d 852a 433b
000000e0: 9b70 253d b6cf a1bd 1207 263d eb51 963c
000000f0: b429 10be c5a9 dc3d 0813 0bbe af18 4a3d
00000100: d19d bcbd 0371 3abe a49d 1abe a13d 4b3c
00000110: 9e16 c53d e54d 28bd 94ef 09be a4f0 e0bc
00000120: a5f1 32bd e7c2 90bd e0c9 183d ac78 1dbe
00000130: 358a b1bd ed2b 0fbe 6dfd c3ba f900 063e
00000140: aac2 24be
-0.009261543 0.021562597 -0.0085912505 0.048074216 -0.014312573 0.070903465 0.048287228 0.016768873
0.1712409 0.1488071 0.12986632 0.024758222 -0.040335804 -0.17467482 -0.047923636 0.08190015
0.08989079 0.04316214 0.16393234 -0.07047231 0.06699652 0.09928227 0.066765055 -0.101494275
-0.07308882 -0.03510007 -0.0015094064 -0.10869508 -0.0015040707 0.12761597 -0.019778853 -0.1404337
0.17640264 0.15136626 0.07064291 0.009392893 0.102703445 0.048045326 0.08080683 0.054149732
0.105923355 0.033446044 -0.048612837 0.07540854 -0.007676953 -0.12727425 0.09463323 -0.14595932
0.0023189825 0.07615363 -0.17621584 -0.18392667 -0.089164026 -0.055720486 0.0643564 0.0029779982
0.040390592 -0.07900946 0.040534087 0.018349608 -0.14078408 0.107745685 -0.13581479 0.049339946
-0.092097886 -0.18207173 -0.15099198 0.01240483 0.096234545 -0.04108991 -0.13470298 -0.027458496
-0.04368748 -0.07068425 0.037301898 -0.15378064 -0.08668939 -0.139816 -0.0014952846 0.13086309
-0.16089883

bias f4 [3]
00000000: 531d 3b3e 56da b13d 3a0f 3a3e
0.18272905 0.086842224 0.18169871

weight f4 [3]
00000000: 56b8 7e3f 58b8 7e3f 59b8 7e3f
0.99500024 0.99500036 0.9950004

bias f4 [3]
00000000: 78c5 183b b970 d73a 14d1 873b
0.002331106 0.0016436792 0.004144797

running_mean f4 [3]
00000000: 68f6 433e 7515 8b3d a0a8 91bd
0.19136965 0.06791202 -0.07112241

running_var f4 [3]
00000000: 4ace 0f3f 617c 0e3f d024 123f
0.5617415 0.5565854 0.5708742

weight f4 [3, 3, 3, 3]
00000000: 2c11 0b3d d728 a53c d525 2fbe f9f7 e83c
00000010: c2bf 643d 0347 103e 598c 76bd 8446 3abd
00000020: 310c 1a3c 1ec8 91bd 45dd 813d 1c2c 373e
00000030: 2fde a5bd d98f 173e 974e bfbd ef05 1cbe
00000040: c44b 46bb 3837 1bbd 8f12 b33d 012c 28bd
00000050: 028e 233e 9e6a 6b3d 0f7a 1a3e eb7a 13be
00000060: ab5a f2bd 0717 91bd 0185 253d be4b 6bbd
00000070: 92e6 ddbd 540e 8fbd 4993 d1bd 1dbc 853d
00000080: c9b8 31be eb8d 2e3c 2c80 dfbd e6a6 fb3a
00000090: 3447 5a3b 867f 4939 81d7 a13c fcc5 333d
000000a0: 14f4 923d 6eaf 0ebe 4df1 383d aab2 113e
000000b0: 1820 983b 79da 47bc 93d3 6e3d ed52 2abe
000000c0: c2b0 6fbd 768c 843d 2d7c f1bb 56f1 7e3c
000000d0: 6a88 08be 1ee0 303d 3091 7abd bc25 80bd
000000e0: b24c 1dbe 6e25 1cbd 75d6 2b3e 9d8f 773d
000000f0: adaf ea3d 0b5e 05be df6b bebd 3f74 f2bd
00000100: c6f7 3ebe 09f2 3f3d 14e7 1c3e 08d3 bb3d
00000110: 3a36 b23d dc4d cdbd 5a5e 32bd 1b02 3bbe
00000120: 0c65 10be 1865 b1bd 8b85 0cbe bd6a 413d
00000130: c306 373e d15a 3e3e e853 5bbb e6c9 163d
00000140: 51a5 2e3e
0.033951923 0.020161076 -0.17104276 0.028438555 0.055846937 0.14089589 -0.06019244 -0.045477405
0.009402321 -0.071182474 0.06341032 0.1788792 -0.08099019 0.14800967 -0.09341162 -0.15236638
-0.0030257562 -0.037894458 0.08743774 -0.04105759 0.1597214 0.057474725 0.15085624 -0.14402358
-0.118337 -0.0708447 0.040410046 -0.05744528 -0.108349934 -0.06985155 -0.102331705 0.065300204
-0.17355646 0.010653953 -0.10913119 0.001919952 0.00333066 0.0001921636 0.01975608 0.043889984
0.071754605 -0.13934109 0.045151997 0.14228311 0.0046424977 -0.012198084 0.05830724 -0.16633196
-0.05851818 0.06472103 -0.0073695392 0.015560469 -0.13333288 0.043182485 -0.061173618 -0.06257197
-0.15361288 -0.038121633 0.16781028 0.060439695 0.11459289 -0.13024156 -0.092979185 -0.118385784
-0.18649206 0.046861682 0.15322524 0.091711104 0.08701749 -0.10024616 -0.043547012 -0.18262522
-0.14101046 -0.0866186 -0.13722818 0.047220934 0.17873673 0.18589331 -0.003346676 0.03681364
0.1705525

bias f4 [3]
00000000: bb8e 37be 8a50 09be 4244 883d
-0.17925541 -0.1340963 0.06653644

weight f4 [3]
00000000: 55b8 7e3f 56b8 7e3f 60b8 7e3f
0.9950002 0.99500024 0.99500084

bias f4 [3]
00000000: f742 743a 1996 99b8 943e 3a3b
0.000931784 -7.3235664e-05 0.0028418647

running_mean f4 [3]
00000000: 4b5e af3c 4f38 bcbe bb5f c63d
0.021407267 -0.3676171 0.09686228

running_var f4 [3]
00000000: e2ba 773f ded4 6e3f e3c0 a03f
0.96769536 0.9329356 1.2558864

weight f4 [3, 3, 3, 3]
00000000: 91f9 c93d 5bde 9ebd 4b3b 153e 8d16 2a3e
00000010: 7ccc 973d 6640 1fbe 9862 1abd 2f80 313e
00000020: 3b3e 2a3e e4e0 ffbd b11b b43d ae86 bb3d
00000030: ea4d 0d3d d03e ee3d c745 05bd f90f 3cbc
00000040: b13e 80bd 5b2b 99bc c7c5 07be 4a97 efbd
00000050: 29a1 ea3d 0c4f cd3d d04f d43d d664 153e
00000060: 299b 0dbe 3642 353e 2c51 e33d b011 3d3e
00000070: b16a 063d 5907 9b3d e14b 233e cca3 273e
00000080: d097 02be 35f3 d43c f2af 073c 1950 32be
00000090: 5776 f13d baa4 613d af95 b2bd 8a2a ad3a
000000a0: a0cf 1ebe 1565 a43c f035 3e3e 7933 36be
000000b0: 08e7 2cbe 57b8 1c3e d1d4 803c d656 e53d
000000c0: 5578 5bbd 0af1 b83d 18be 073e 995d db3c
000000d0: 0b4d 0abe 4820 83bd 2d87 493d be35 363d
000000e0: 01e6 a23c b0ff 0b3e b962 f93d 3028 d13d
000000f0: fa98 49bd ed84 e93d 1cee 5fbd 3592 3ebe
00000100: d40c b43d 9813 983d 97a0 763d d7ec 973d
00000110: df07 483d 1c3a 16bd c384 323e b7db 87bd
00000120: cb85 09be 06a5 f5bb ed06 ffb9 e20e 36be
00000130: fddb 293c 0b68 393e aa6e 20be d524 ea3c
00000140: 58cc 1f3e
0.09862054 -0.07757255 0.145734 0.16610165 0.07412049 -0.1555191 -0.037691683 0.17334054
0.16625302 -0.12494066 0.08794344 0.091565475 0.034498133 0.11633074 -0.032537248 -0.011478418
-0.062619574 -0.018697431 -0.1325904 -0.11698778 0.1145652 0.100248426 0.103667855 0.14589247
-0.1382872 0.17701039 0.11099467 0.18463778 0.032816593 0.07569761 0.15946914 0.16371077
-0.12753224 0.025994876 0.008281695 -0.17413367 0.1179015 0.055088736 -0.08719956 0.001321153
-0.1550889 0.02006773 0.18575263 -0.17793073 -0.16885006 0.15304695 0.015726479 0.11198203
-0.053581554 0.090303496 0.13256109 0.02677803 -0.13505952 -0.064026415 0.04920118 0.044484846
0.019885065 0.13671756 0.12177033 0.10212743 -0.049218155 0.11402307 -0.05467044 -0.18610461
0.08791509 0.07425612 0.060211744 0.074182205 0.04883563 -0.03667651 0.17433457 -0.06633704
-0.13429944 -0.007496479 -0.0004864255 -0.17779115 0.010367391 0.18106095 -0.15667215 0.028582016
0.15605295

bias f4 [3]
00000000: fca7 2fbd c6bf 38be 6544 81bc
-0.04288481 -0.18041906 -0.015779683

weight f4 [3]
00000000: 50b8 7e3f 59b8 7e3f 4eb8 7e3f
0.9949999 0.9950004 0.99499977

bias f4 [3]
00000000: 0077 3f3b 50dc ae39 c381 613b
0.0029215217 0.00033352012 0.003440962

running_mean f4 [3]
00000000: 6004 013e 89de e9bc 6730 b93d
0.12599325 -0.028548496 0.09042435

running_var f4 [3]
00000000: 071b 173f 095f 1a3f f5d0 133f
0.59025615 0.6030126 0.5774072

weight f4 [3, 3, 3, 3]
00000000: 4cc3 dbbd 024d 903d 29ae db3d 0584 bb3d
00000010: f04c a3bd 87db 0dbd 02a0 e2bd 76ff 32be
00000020: 0e5b 513d f1ed f83d 1698 38be af2b bc3d
00000030: 2a9f 433c 77b8 e9bb 5e4b e0bd 52d5 e6bd
00000040: 175d 14be c56a fcbb 55e1 24bd e48f 873c
00000050: e28f 0c3e 3d03 a6bc 546c 4e3b 86eb 6dbd
00000060: 043c 7abd 2d8f ff3d 60c4 f0bd f356 1abd
00000070: c2a3 a5bd 2cde 973d dba7 e43d c9d7 b83c
00000080: 563f 0c3d d836 613d 2056 2e3e bafb 7f3d
00000090: af0e 3dbd d89e c73c af08 07be 747f bf3d
000000a0: beca d0bd d03b f83d 4e94 b4bc 6ce9 b83d
000000b0: 48e3 af3c 6440 073d d718 a53d d7a3 213e
000000c0: b4e9 c93d 4379 b7bd d572 453d dba2 73bd
000000d0: f876 673c afa0 8e3d a2fb 17bd f451 20bd
000000e0: 5ea2 16bb c676 57bb 0b89 e1bd a41a 3c3e
000000f0: 5c71 72bd a2e7 ae3c 676c 913d 2c50 2ebe
00000100: 71dc 0f3e c13b 19be f89e 073e ae88 283e
00000110: ee75 2bbc 1a14 9e3d 34a5 6b3c 7d1d 7f3d
00000120: 9023 c43d f22b 0fbe 80d2 033e 783e 4ebd
00000130: 57d4 bfbc 2fae 233e 2c7e d63d 83ed 00be
00000140: ec58 373c
-0.10730609 0.07045938 0.10726578 0.0915604 -0.07973659 -0.034633186 -0.11065675 -0.17480263
0.051112227 0.12154759 -0.18026766 0.091880195 0.011939803 -0.0071325856 -0.10951875 -0.11271156
-0.14488636 -0.0077031576 -0.040253956 0.016548105 0.13726762 -0.020265216 0.0031497674 -0.05808594
-0.06109239 0.124784805 -0.117562056 -0.037680577 -0.08087875 0.07415423 0.111648284 0.022563832
0.03424009 0.054983944 0.17025042 0.062495925 -0.04615658 0.024367735 -0.13186906 0.09350482
-0.1019492 0.12120783 -0.022043373 0.09028897 0.02147068 0.033020392 0.080613784 0.15785156
0.098590285 -0.08958676 0.048205215 -0.059481483 0.014127485 0.06964242 -0.03710521 -0.039140657
-0.0022984962 -0.003287719 -0.11012467 0.18369538 -0.05919014 0.021350686 0.07100754 -0.1702277
0.14048935 -0.149642 0.13244236 0.16458389 -0.010465128 0.07718678 0.014382649 0.06228398
0.095770955 -0.13981608 0.12873268 -0.050352544 -0.023416681 0.15984415 0.10473284 -0.12590604
0.011190634

bias f4 [3]
00000000: 0d8f fd3d d75f d9bd 651d 0c3e
0.123808004 -0.10613983 0.13683088

weight f4 [3]
00000000: 56b8 7e3f 62b8 7e3f 56b8 7e3f
0.99500024 0.99500096 0.99500024

bias f4 [3]
00000000: 267d 3eb8 dd54 1a3b 01b9 333a
-4.5416084e-05 0.0023549118 0.0006855876

running_mean f4 [3]
00000000: 587a d1be 502b 0b3f ca31 d13e
-0.40913653 0.54362965 0.408583

running_var f4 [3]
00000000: 6518 a53f 6cc9 873f b4a3 8b3f
1.289807 1.0608344 1.0909333
