value_head.pt (torch, 160677 bytes, 143 tensors)

weight f4 [3, 3, 3, 3]
0	0x3a6a7338	0.00089435605
1	0x399ea497	0.00030258737
2	0xb9151393	-0.0001421704
3	0x39107ac8	0.0001377865
4	0xba612bdd	-0.0008589605
5	0xb932fe39	-0.00017070108
6	0x39364917	0.000173841
7	0x37261f09	9.901597e-06
8	0xba382db0	-0.0007025851
9	0xb8c1eb45	-9.2467795e-05
10	0x39aba2bf	0.00032736917
11	0x3a2cc14c	0.0006590083
12	0xb9cd9abd	-0.00039215936
13	0x3a28aa90	0.0006434107
14	0xb98aa28e	-0.00026442524
15	0x3956ac29	0.00020472765
16	0x39ed7d75	0.00045297635
17	0x3a100ce6	0.0005495086
18	0xb98cc98b	-0.00026853042
19	0xb820f0a1	-3.8371076e-05
20	0x3a44acd6	0.0007502561
21	0x3927454b	0.00015952175
22	0xba3b9ce1	-0.00071568607
23	0x3921625d	0.000153908
24	0x397b7c7b	0.00023983598
25	0x3a190a11	0.0005837987
26	0xba2dfb90	-0.0006636912
27	0xba15445a	-0.0005694084
28	0x39e3d980	0.00043458864
29	0x39e05581	0.00042788315
30	0x3a8af8a1	0.0010602662
31	0x3a3bec81	0.0007168726
32	0x39e05b9d	0.00042792867
33	0x3a4d3b36	0.00078289525
34	0x38855fed	6.359802e-05
35	0x397f57f0	0.00024351454
36	0x37b981c7	2.211415e-05
37	0xb8752a9f	-5.8452246e-05
38	0xb9923389	-0.00027885687
39	0x3964c17a	0.0002181585
40	0x391c546c	0.00014908769
41	0x393d67cf	0.00018063116
42	0x391c3ac5	0.00014899213
43	0x37fa8c59	2.9867677e-05
44	0xba068ddd	-0.00051328336
45	0xb8c30a60	-9.300257e-05
46	0x39c36bbe	0.00037273573
47	0x3a12e630	0.00056037586
48	0x396b44dd	0.00022437
49	0xb97e9b88	-0.00024281268
50	0xb9d392e3	-0.00040354495
51	0x3aa1f3f9	0.0012356035
52	0x3906a225	0.0001283964
53	0x36abbe63	5.118361e-06
54	0xb9835fa3	-0.00025057522
55	0xb9494d23	-0.0001919759
56	0xb99c0aaa	-0.00029762584
57	0x39578ac4	0.00020555692
58	0xba7a2fef	-0.0009543886
59	0xb9aa82fa	-0.00032522512
60	0xb93ce038	-0.00018012605
61	0xba726731	-0.0009246944
62	0xb90392d6	-0.00012547834
63	0xba7810fd	-0.00094629807
64	0xb9baff69	-0.0003566698
65	0x39d81ca2	0.00041220064
66	0xb9e68dcc	-0.00043974665
67	0xb9b265b5	-0.00034026583
68	0x3a35a07d	0.00069285167
69	0x39fbe60d	0.00048045852
70	0x39327d2f	0.00017022037
71	0x36e06662	6.687639e-06
72	0xb88d69d0	-6.743113e-05
73	0x388457ef	6.3106294e-05
74	0x3a21d17b	0.00061728776
75	0x3975047b	0.0002336669
76	0xb97ad230	-0.00023920159
77	0x3a356007	0.0006918911
78	0x39451696	0.00018795798
79	0xb907172b	-0.00012883234
80	0xb83048c7	-4.202945e-05

bias f4 [3]
0	0x38e305d5	0.0001082529
1	0xb61b8e2c	-2.3179555e-06
2	0x38f3e409	0.00011629618

weight f4 [3]
0	0xba674a7a	-0.00088230486
1	0xba9c00ae	-0.0011902058
2	0xb9c0e88f	-0.00036794363

bias f4 [3]
0	0x395ee448	0.00021256611
1	0x3a012178	0.00049259467
2	0xb9c4efe4	-0.00037562766

running_mean f4 [3]
0	0x39106ea2	0.00013774124
1	0x3a8e5a68	0.0010860683
2	0x398b9560	0.0002662344

running_var f4 [3]
0	0x353d3177	7.047997e-07
1	0x3580ad14	9.587116e-07
2	0x3571e5fa	9.0114156e-07

weight f4 [3, 3, 3, 3]
0	0xba34418a	-0.0006876221
1	0xba23157a	-0.0006221157
2	0xb9f4bcf6	-0.00046680094
3	0xba061dce	-0.00051161356
4	0x3a88fb00	0.001045078
5	0xb9d08886	-0.0003977457
6	0xb986f658	-0.00025742012
7	0xb9c84ed1	-0.00038205695
8	0x3984e919	0.00025350673
9	0xb98c778c	-0.0002679195
10	0xb946cceb	-0.0001895909
11	0x3a29bb59	0.00064747554
12	0x39fa8c42	0.00047788216
13	0x39b7328c	0.0003494214
14	0x3984cc0b	0.00025329026
15	0xb97ca8d4	-0.00024095486
16	0xb988d249	-0.00026096616
17	0x3a6ad42f	0.00089580094
18	0xb94ccc88	-0.0001953115
19	0x38df6ab2	0.00010653342
20	0xba12f743	-0.0005606303
21	0x3a01f3dd	0.0004957298
22	0x38d96062	0.00010365319
23	0xba542d96	-0.0008093951
24	0xba1018ba	-0.00054968486
25	0x3a40f0d7	0.00073601067
26	0x3a1725ce	0.0005765826
27	0x397b9f7b	0.00023996636
28	0xb9d2c1cc	-0.0004019871
29	0x39e609b4	0.00043876248
30	0x38de0fd9	0.00010588737
31	0xba14a49a	-0.00056702795
32	0xb95da83c	-0.00021138875
33	0xb9f1706d	-0.00046050866
34	0x3a52572f	0.00080238556
35	0xb9703e18	-0.00022911315
36	0x39c89df6	0.00038264663
37	0xb8e490d9	-0.00010898867
38	0x3a277542	0.0006388017
39	0xba69c65c	-0.00089178025
40	0xba3fff04	-0.0007324072
41	0x3857c700	5.1445328e-05
42	0xba090e0d	-0.0005228229
43	0x392adfcc	0.00016295834
44	0x392c9367	0.0001645811
45	0xba8fcfed	-0.0010972001
46	0xba51a63e	-0.00079974893
47	0x3a874d14	0.0010322654
48	0xb98a77e7	-0.00026410745
49	0xba88c803	-0.0010435585
50	0x3a61fdc5	0.00086208835
51	0xb8842b7f	-6.302352e-05
52	0x3907612e	0.00012910806
53	0x398c8578	0.00026802323
54	0x39ed6950	0.00045282627
55	0xba16c67c	-0.00057516224
56	0x3a0cca83	0.0005370753
57	0x3a7942ca	0.00095085485
58	0xba74c929	-0.00093378365
59	0x3a56cf4b	0.0008194341
60	0x3992397d	0.00027890122
61	0x38a5b667	7.901788e-05
62	0x3a80d310	0.0009828527
63	0xb8a7f5df	-8.0089776e-05
64	0xb9181b95	-0.00014506125
65	0x3a15c645	0.00057134434
66	0x37a6b551	1.9873174e-05
67	0xb9f06cba	-0.00045857375
68	0xb98cdc82	-0.00026867172
69	0xb719ec26	-9.174493e-06
70	0xba1febfb	-0.00061005325
71	0x392f8353	0.00016738223
72	0xb994539f	-0.00028291062
73	0x391c7a32	0.0001492284
74	0xba01179e	-0.00049244787
75	0x398821f4	0.00025965238
76	0xb99c73ed	-0.0002984101
77	0xba065938	-0.0005124989
78	0x39384090	0.00017571659
79	0x39c7f9e9	0.00038142435
80	0x39d69214	0.00040926097

bias f4 [3]
0	0x3a72945d	0.0009253675
1	0xba5da625	-0.00084552384
2	0x399fdf51	0.00030493227

weight f4 [3, 3, 3, 3]
0	0xba19f458	-0.0005872897
1	0xb9f6788b	-0.00047010588
2	0xb9dd11fd	-0.00042165807
3	0xb8417b36	-4.6129535e-05
4	0x391484ab	0.00014163803
5	0x3a34e39f	0.0006900373
6	0xb9633a2c	-0.00021670078
7	0xb7816bc2	-1.5428177e-05
8	0x3a1f29ed	0.0006071616
9	0xb8c9ee63	-9.62883e-05
10	0xba46ab47	-0.0007578623
11	0x3a1d6106	0.00060035323
12	0xb7bd4270	-2.2561493e-05
13	0x39bddf75	0.00036215378
14	0x3a30105f	0.00067163067
15	0xb9c2f4cd	-0.00037184954
16	0xb9a594c8	-0.00031582103
17	0xb9b53769	-0.00034564294
18	0xb7b95c9f	-2.2096849e-05
19	0xba6955a7	-0.0008901008
20	0x3a815b4f	0.0009869131
21	0x38a3d8ab	7.812803e-05
22	0x39831db7	0.00025008406
23	0xb9e3db3d	-0.0004346016
24	0xb987a2a4	-0.00025870383
25	0xb9b571ee	-0.00034607894
26	0xb9c55d2c	-0.00037644187
27	0x39ece1b0	0.00045181578
28	0xba1f9fcc	-0.000608918
29	0xb75e9933	-1.3267901e-05
30	0x388eba0a	6.80574e-05
31	0xb9c7aeb7	-0.0003808641
32	0xba04f399	-0.0005071699
33	0xb86ee22d	-5.6954264e-05
34	0xb98e1874	-0.0002710257
35	0xb9d7b91d	-0.00041145916
36	0xb99b978f	-0.00029676824
37	0x3a0de1ef	0.000541239
38	0xba23c8e5	-0.0006247892
39	0x395f3e79	0.0002129021
40	0x3914ff85	0.00014209568
41	0xba02fdba	-0.00049969146
42	0x39ec75bb	0.00045101144
43	0x39ee396d	0.00045437683
44	0xba3634db	-0.0006950625
45	0xb94ea3eb	-0.00019706755
46	0xba50998a	-0.00079574494
47	0x39fc7660	0.00048153382
48	0x391f52fc	0.00015194336
49	0x3a0dd54d	0.00054105074
50	0x39826b42	0.00024875446
51	0xb99754c4	-0.0002886412
52	0x39afb0a7	0.00033510217
53	0x3988d00e	0.00026094954
54	0x39e94d1b	0.0004449867
55	0xba384a83	-0.0007030146
56	0x39dc1322	0.00041975925
57	0xba430e39	-0.0007440779
58	0x392a4334	0.00016237498
59	0xb9872619	-0.00025777592
60	0x38262324	3.961021e-05
61	0x39a499cd	0.00031395108
62	0x3958a6a4	0.00020661444
63	0xb93a0860	-0.00017741462
64	0xb9f7f67c	-0.00047295156
65	0x388ca7f8	6.707007e-05
66	0x3a71b663	0.0009220598
67	0x391d13bd	0.0001498004
68	0xb9639674	-0.00021704455
69	0x3a42d3d0	0.0007432075
70	0xbac23c72	-0.001481904
71	0x3937d451	0.00017531334
72	0x3a1bbf86	0.000594132
73	0xba8112cc	-0.0009847521
74	0xba09d139	-0.0005257312
75	0xb9ffdab3	-0.00048800334
76	0x3a342e4f	0.00068733556
77	0x38d6e451	0.000102468424
78	0x3a275947	0.0006383848
79	0x3998578d	0.0002905693
80	0x3a80b363	0.0009819086

bias f4 [3]
0	0x380c5ca7	3.346489e-05
1	0x38b95b05	8.838441e-05
2	0x390c4962	0.00013378778

weight f4 [3]
0	0x38e89779	0.00011090836
1	0xba525d8a	-0.00080248027
2	0xba320cd3	-0.0006792072

bias f4 [3]
0	0x3a5e3336	0.0008476259
1	0xb977eb29	-0.0002364336
2	0xb9fc140e	-0.00048080127

running_mean f4 [3]
0	0x38288e7b	4.0187017e-05
1	0x3845928e	4.710495e-05
2	0x3883650e	6.26539e-05

running_var f4 [3]
0	0x2aecc6ac	4.2059878e-13
1	0x2a492736	1.786599e-13
2	0x2a5e42b9	1.974071e-13

weight f4 [3, 3, 3, 3]
0	0xb8e92c04	-0.00011118504
1	0xb9f4bc8c	-0.00046679785
2	0x38c85c4c	9.553935e-05
3	0x3a1ac014	0.00059032557
4	0x3a175110	0.0005772272
5	0x38518188	4.995012e-05
6	0xb8e0d94f	-0.00010721629
7	0x3a12e9b6	0.00056042837
8	0xb956ae0e	-0.00020473471
9	0x39d3eb3e	0.00040420325
10	0xb9d3a041	-0.00040364455
11	0x396e2ac8	0.00022713386
12	0xb9fd57c0	-0.000483213
13	0xb8ba9a78	-8.897943e-05
14	0x39943174	0.00028265605
15	0x3759052d	1.2935413e-05
16	0xb98f027d	-0.0002727694
17	0x39ff7ab4	0.0004872881
18	0xb7138347	-8.792448e-06
19	0x3a05ee42	0.00051090505
20	0xba167aa3	-0.000574032
21	0xb8f5531c	-0.00011697991
22	0x39668564	0.00021984201
23	0xb8e4c279	-0.000109081106
24	0xb9d176bf	-0.0003995206
25	0x3a48ec87	0.000766464
26	0xb9d42ced	-0.00040469263
27	0xba49d5de	-0.000769941
28	0x39d2a6b3	0.00040178522
29	0x38c841a9	9.548973e-05
30	0x3a084b6b	0.00051992264
31	0x3a6fccf1	0.0009147665
32	0x395b8457	0.00020934768
33	0xb925cd01	-0.00015811996
34	0x39a11c57	0.00030729428
35	0xb8b6525b	-8.693776e-05
36	0x3a7cc2ed	0.00096420833
37	0x380b67ca	3.3236844e-05
38	0xba2df12f	-0.00066353654
39	0xba26559f	-0.0006345156
40	0x39b28031	0.00034046316
41	0x3a5d8914	0.0008450907
42	0xb9b1770f	-0.00033848776
43	0xba517cb1	-0.0007991298
44	0xba4ebe8b	-0.00078866695
45	0x3a000cc9	0.00048847176
46	0x385c1692	5.2473108e-05
47	0xba1cb90c	-0.0005978502
48	0x38788846	5.9254722e-05
49	0x39866d7e	0.0002564005
50	0x38d51818	0.00010161119
51	0x3996c44c	0.00028756482
52	0x398ef5dd	0.00027267533
53	0x39a47d76	0.00031373993
54	0xb913abed	-0.0001408306
55	0x392b629e	0.00016344569
56	0x39166fec	0.00014346809
57	0x3a22700b	0.0006196505
58	0x363fb4e8	2.856652e-06
59	0xba6ff0dd	-0.0009153018
60	0x3a7bcffc	0.0009605882
61	0x3981cc12	0.00024756842
62	0x3a25c86d	0.0006324116
63	0xb8bc397f	-8.975248e-05
64	0x38f694fa	0.00011757943
65	0xba853129	-0.0010161746
66	0xba0bbc40	-0.00053304806
67	0x39690ce2	0.00022225411
68	0xba58d2f2	-0.00082711794
69	0xba360512	-0.00069435046
70	0x3912ff35	0.00014018717
71	0xb9b61593	-0.0003472982
72	0x399c2d5e	0.0002978844
73	0x38f534dd	0.00011692357
74	0xb9c14015	-0.00036859573
75	0xba246f80	-0.00062727183
76	0x393c3eb3	0.00017952434
77	0x39942c06	0.0002826156
78	0x39830e35	0.00024996852
79	0x3a304fbf	0.000672575
80	0x3a459187	0.0007536639

bias f4 [3]
0	0xb89f3156	-7.5909e-05
1	0xb8a265f3	-7.7437515e-05
2	0xb88e29c9	-6.778871e-05

weight f4 [3]
0	0x3900b04a	0.00012272704
1	0xbab0d8a4	-0.0013492298
2	0x39ad56ae	0.00033061713

bias f4 [3]
0	0x394a6557	0.00019301973
1	0xba672c59	-0.0008818559
2	0xba4b0143	-0.00077440235

running_mean f4 [3]
0	0xb889cbc8	-6.570626e-05
1	0xb7efff0c	-2.8609786e-05
2	0xb881a72f	-6.18234e-05

running_var f4 [3]
0	0x296db15e	5.2778413e-14
1	0x29258b3d	3.675813e-14
2	0x2ad859e1	3.8431674e-13

weight f4 [3, 3, 3, 3]
0	0x39178367	0.00014449433
1	0x3a00114c	0.000488539
2	0x3a0f6ef5	0.0005471551
3	0xb95e6efe	-0.00021212918
4	0xb94d82bb	-0.00019599024
5	0x3946a716	0.00018944996
6	0x39ac34dd	0.00032845783
7	0xb9937193	-0.00028122644
8	0x38215095	3.846044e-05
9	0x3830a9b3	4.2119715e-05
10	0xb93ec11e	-0.00018191754
11	0x38d901f8	0.00010347733
12	0xb99ee273	-0.00030304826
13	0x3a3c0fd5	0.000717399
14	0xb9d34bba	-0.00040301477
15	0x3a407b95	0.0007342634
16	0xb963ef03	-0.00021737446
17	0xb8fd9bb1	-0.0001209298
18	0x39b28ff1	0.0003405805
19	0xba072da9	-0.0005156645
20	0xba081c5b	-0.00051922136
21	0xb9b05a93	-0.0003363682
22	0xb9238cc3	-0.00015597329
23	0xb98655b1	-0.00025622317
24	0xb93cc644	-0.00018002937
25	0xba8fe8bb	-0.0010979393
26	0x397f54f5	0.00024350344
27	0x3809bf7a	3.284167e-05
28	0xb991f98f	-0.0002784249
29	0xba04fa50	-0.00050727
30	0xb9a80bb3	-0.00032052174
31	0xb92536d1	-0.00015756047
32	0x38e7e236	0.000110570734
33	0x39e52e92	0.0004371298
34	0x39bf948f	0.00036541044
35	0x39cc3826	0.00038951746
36	0xb9944af5	-0.00028284607
37	0xb880aa02	-6.135182e-05
38	0xb99b2e83	-0.00029598558
39	0x3826d75d	3.9778057e-05
40	0x3a2f5544	0.0006688426
41	0x3a1734f9	0.00057680864
42	0x36b8affc	5.5041146e-06
43	0xb9b2915b	-0.00034059104
44	0x399b534e	0.0002962597
45	0x38e5a43d	0.00010950163
46	0xb9414182	-0.00018430318
47	0xb9457350	-0.00018830341
48	0x39ca268a	0.00038557156
49	0x3a266b68	0.0006348402
50	0x389795ad	7.2281204e-05
51	0xb8115d57	-3.4657623e-05
52	0x3a32e48d	0.0006824218
53	0xba1b5bdc	-0.0005926469
54	0x395d2534	0.00021090062
55	0xba2e93c1	-0.000665959
56	0x391a0cfc	0.00014691422
57	0x39fd52cd	0.00048317612
58	0xba13b1a2	-0.00056340743
59	0xb9cb2834	-0.0003874913
60	0x39fdf3cd	0.00048437566
61	0x39943ce1	0.00028274118
62	0x38a2ceca	7.7632794e-05
63	0x39c3d5a9	0.00037352488
64	0x3a517889	0.00079906784
65	0xb8af0be8	-8.346868e-05
66	0x3806cf95	3.2141415e-05
67	0xb9b6568f	-0.00034778236
68	0x399ce6c7	0.0002992658
69	0x3a431134	0.0007441223
70	0x3911f5ca	0.00013919841
71	0x399a90b9	0.00029480996
72	0x3a23c71e	0.00062476273
73	0xb9e797d5	-0.00044172877
74	0x3925c26a	0.00015808051
75	0xb977ef2f	-0.00023644858
76	0xb91c786e	-0.00014922183
77	0x385ba684	5.236875e-05
78	0x3885d531	6.381644e-05
79	0xb8554849	-5.0850478e-05
80	0xb9ae21ae	-0.0003321296

bias f4 [3]
0	0x38638a9c	5.4250107e-05
1	0x38c850fd	9.5518284e-05
2	0x388c78a0	6.6981884e-05

weight f4 [3]
0	0xba59ba26	-0.00083056313
1	0xba22524c	-0.0006192073
2	0x3a8853df	0.0010400972

bias f4 [3]
0	0xba58573c	-0.0008252745
1	0xb9fb40ce	-0.00047922734
2	0xb9705e9b	-0.00022923427

running_mean f4 [3]
0	0x38695d28	5.5638287e-05
1	0x3849a247	4.8073267e-05
2	0x3806cbab	3.213777e-05

running_var f4 [3]
0	0x2ad70493	3.8194846e-13
1	0x2abe48b1	3.380122e-13
2	0x2b373716	6.509111e-13

weight f4 [3, 3, 3, 3]
0	0x3899c108	7.3315634e-05
1	0xba0a8fa3	-0.0005285686
2	0x3a2ccbbe	0.0006591639
3	0x39316c06	0.00016920277
4	0xba4ca1ef	-0.00078061124
5	0xb9b78b12	-0.00035008095
6	0x39bee44a	0.00036409713
7	0x38243c5e	3.915687e-05
8	0x3a27af06	0.0006396625
9	0xb9faaf55	-0.00047814348
10	0x39106d86	0.00013773711
11	0xb8c7dce7	-9.530206e-05
12	0x3930c6f8	0.0001685879
13	0x39cae391	0.00038697993
14	0xba1f4548	-0.00060756924
15	0x3a11233b	0.0005536561
16	0x38d68351	0.00010228775
17	0x39c1079f	0.00036817507
18	0xb8903a8f	-6.8773625e-05
19	0x3a0dc881	0.00054086006
20	0xb79f73ed	-1.900826e-05
21	0xb98206f6	-0.00024800719
22	0x381ba300	3.7106685e-05
23	0x3a0490b1	0.0005056961
24	0xb8b2eb0c	-8.531482e-05
25	0xb9d51fe7	-0.00040650295
26	0x39916522	0.00027731905
27	0xba147fc8	-0.0005664793
28	0x3a05aa15	0.00050988916
29	0x39b7b4a6	0.00035039074
30	0x391b0f03	0.00014787544
31	0xb89f8f51	-7.6084056e-05
32	0x39984e59	0.00029050073
33	0xba33fc34	-0.00068658893
34	0x39062af8	0.00012795243
35	0x3a441073	0.0007479258
36	0xb8cdbbce	-9.810143e-05
37	0xb9c7e726	-0.00038128457
38	0xb9bffeec	-0.0003662029
39	0xba413c8a	-0.0007371387
40	0xb918ac84	-0.00014560117
41	0xba04b455	-0.0005062272
42	0xb9a49a96	-0.00031395693
43	0xb8b194fc	-8.467768e-05
44	0x39e807aa	0.00044256198
45	0x39a3f637	0.00031273227
46	0xb8fb435a	-0.00011981158
47	0x3a3e82d9	0.00072674226
48	0x3985a040	0.00025487132
49	0xba702a32	-0.0009161561
50	0x39801bd7	0.00024434805
51	0x399d7fa9	0.00030040488
52	0x39168a41	0.00014356618
53	0xb92eacc8	-0.00016658299
54	0xb93cf418	-0.00018020009
55	0xb9063b81	-0.00012801403
56	0x386859f0	5.539687e-05
57	0x3a0086ed	0.0004902918
58	0xb8ca28f5	-9.6397394e-05
59	0x39f4a929	0.0004666534
60	0x3887811b	6.4613494e-05
61	0x39475afd	0.00019012015
62	0xb99c9816	-0.00029867952
63	0xb9ba0927	-0.00035483504
64	0x37fef05b	3.0391084e-05
65	0xb817dde8	-3.620787e-05
66	0x38a06624	7.64842e-05
67	0x3984a006	0.0002529623
68	0xb8d09216	-9.9454235e-05
69	0x391245f7	0.00013949709
70	0xba053f90	-0.0005083019
71	0xba20ebcb	-0.00061386515
72	0xba161313	-0.0005724888
73	0x3990d01c	0.00027620874
74	0xb9df8c35	-0.00042638337
75	0xba34bc0b	-0.00068944757
76	0x389d7574	7.508221e-05
77	0x3a5894c7	0.00082619156
78	0x3a29ed00	0.0006482154
79	0x39b12dda	0.00033794233
80	0xb959941c	-0.00020749908

bias f4 [3]
0	0xb6b09ccf	-5.2634637e-06
1	0xb8f7871f	-0.00011803046
2	0x3895da50	7.1455375e-05

weight f4 [3]
0	0xbab0cec3	-0.0013489354
1	0x392d779a	0.00016543121
2	0x3a5902e0	0.00082783215

bias f4 [3]
0	0xb97a826c	-0.00023890444
1	0x394462d0	0.00018728827
2	0x39cc3b04	0.00038953882

running_mean f4 [3]
0	0xb79c5017	-1.8633944e-05
1	0xb8b0182a	-8.396835e-05
2	0x38847653	6.31629e-05

running_var f4 [3]
0	0x27ce4e37	5.7261286e-15
1	0x2804613c	7.348556e-15
2	0x2828f33f	9.378619e-15

weight f4 [3, 3, 3, 3]
0	0x39b1787e	0.00033849844
1	0x39f554a3	0.000467931
2	0xb7ecb14e	-2.8215956e-05
3	0x3a691b80	0.00088923424
4	0xb825b378	-3.950621e-05
5	0xba0c6474	-0.0005355545
6	0x39d6dbb0	0.0004098094
7	0xb95f5270	-0.00021297648
8	0xb9806080	-0.0002448596
9	0xb836146f	-4.341121e-05
10	0xba2b9f15	-0.00065468374
11	0x3908e493	0.00013055121
12	0x3a890cc2	0.0010456073
13	0x3a414d2f	0.0007373867
14	0x39b25820	0.00034016464
15	0x3943c914	0.00018671557
16	0x38e547d6	0.000109329514
17	0x39b8de5a	0.0003526088
18	0x39e277bb	0.00043195285
19	0xba737e76	-0.00092885585
20	0xb9778ed3	-0.00023608962
21	0xba181d40	-0.00058026984
22	0xb851b34c	-4.9996466e-05
23	0x3a3551bf	0.0006916783
24	0xba36aa19	-0.00069680955
25	0x37c41c6d	2.3378258e-05
26	0xb9b0a065	-0.0003368884
27	0x3a14b893	0.00056732557
28	0x392d6cab	0.00016539048
29	0xb9172bc2	-0.00014416783
30	0xb911360b	-0.0001384841
31	0xb985c3f1	-0.00025513725
32	0x3a0ca772	0.00053655275
33	0x396906a9	0.00022223093
34	0x399cbadf	0.00029893868
35	0xb97188f4	-0.0002303457
36	0xb937bb3b	-0.00017521989
37	0xb98ac429	-0.00026467562
38	0xb9225580	-0.00015481375
39	0x38c3625b	9.316645e-05
40	0x39c8c11c	0.0003829085
41	0xb997fd16	-0.00028989528
42	0xb958d305	-0.00020677976
43	0xba1bc417	-0.00059420004
44	0xb955c8d9	-0.00020388085
45	0x39b5014f	0.00034523985
46	0xb887ba0a	-6.471954e-05
47	0xb9bf2760	-0.00036459696
48	0x38833e49	6.258168e-05
49	0xb96fb64c	-0.00022860727
50	0x3a2394be	0.0006240121
51	0xb8edd67d	-0.00011340992
52	0xb83f0462	-4.554203e-05
53	0x3940889c	0.00018361438
54	0x390e5caa	0.00013576695
55	0xb946f5e1	-0.00018974348
56	0x39ac93d0	0.00032916525
57	0x381617c4	3.578492e-05
58	0x39f58e4c	0.0004683606
59	0xb9f9949e	-0.0004760371
60	0x396a05e5	0.00022318175
61	0xb9cc058b	-0.00038914042
62	0xb8bfa68f	-9.138614e-05
63	0xb98870a0	-0.00026023854
64	0x3a078f64	0.0005171208
65	0xb9ae79eb	-0.00033278702
66	0xb9b75b35	-0.00034972435
67	0x39dcf27a	0.0004214233
68	0x38ef7b2f	0.00011419353
69	0x3906d901	0.00012860076
70	0x383335ce	4.2727035e-05
71	0x3a428f09	0.00074218266
72	0xba281db8	-0.000641312
73	0x39cc8959	0.00039012244
74	0xb92470a9	-0.00015682228
75	0xb9145e14	-0.00014149427
76	0x39ca6a21	0.00038607515
77	0xb966fe95	-0.00022029348
78	0x3980b178	0.00024546287
79	0x3a2400f1	0.0006256244
80	0x3a4e45c7	0.0007868674

bias f4 [3]
0	0xb885b8ff	-6.3763924e-05
1	0x375c2a20	1.312283e-05
2	0xb90ba611	-0.00013317938

weight f4 [3]
0	0xb9b43445	-0.0003437122
1	0xba323c78	-0.00067991717
2	0x3a0926c4	0.0005231912

bias f4 [3]
0	0x3a17523e	0.0005772448
1	0x3a0d88c4	0.0005399103
2	0xb94d6ee7	-0.00019591638

running_mean f4 [3]
0	0xb87b0a3f	-5.9852606e-05
1	0xb6e2b05f	-6.755857e-06
2	0xb8902a4a	-6.874332e-05

running_var f4 [3]
0	0x2aaf35a2	3.112346e-13
1	0x2a03e3c3	1.1714158e-13
2	0x298999b9	6.110689e-14

weight f4 [3, 3, 3, 3]
0	0xb750c146	-1.2442766e-05
1	0xb88896fe	-6.51311e-05
2	0xb9cbc536	-0.0003886611
3	0xb707a116	-8.084133e-06
4	0x39fff8e5	0.0004882283
5	0x38f21914	0.000115441304
6	0xb96f3d33	-0.00022815615
7	0xb935d53e	-0.00017340944
8	0x39e80717	0.0004425577
9	0xba3ad78f	-0.00071274576
10	0xb86ffb59	-5.7216126e-05
11	0x397458b5	0.00023302699
12	0x3a1df379	0.0006025355
13	0xb95ce121	-0.00021064702
14	0x3743a5a9	1.16614765e-05
15	0x36c47973	5.8553937e-06
16	0xb947c366	-0.0001905091
17	0xb8e6a2de	-0.00010997591
18	0xb8ab53b8	-8.169509e-05
19	0x39f59f56	0.00046848756
20	0xb9192429	-0.00014604688
21	0xb923664e	-0.00015583003
22	0x399c1fd0	0.0002977834
23	0x39d42f52	0.00040471047
24	0xb9e8ec3c	-0.00044426497
25	0xb8819e1e	-6.180651e-05
26	0xb9bc6a6c	-0.00035937445
27	0x38e312d6	0.00010827712
28	0xb9802040	-0.0002443809
29	0xb91b619e	-0.00014818317
30	0x39bd9dd4	0.0003616648
31	0x39dd4f0e	0.00042211305
32	0xb92a69d2	-0.00016251885
33	0xb7ef8439	-2.8552591e-05
34	0x39a0c8e8	0.00030667265
35	0xb9938a21	-0.0002814094
36	0x392f155c	0.00016697258
37	0xb904a40c	-0.00012649613
38	0xb98b0bc9	-0.00026520927
39	0x39082102	0.00012982267
40	0x39d3b970	0.00040383218
41	0xb8cea77f	-9.854044e-05
42	0x3918486e	0.00014522832
43	0x3a475752	0.00076042593
44	0xba21a7c1	-0.000616666
45	0xb95a261d	-0.00020804298
46	0xb9aae27f	-0.0003259368
47	0x3911892d	0.0001387938
48	0x3949c61f	0.0001924266
49	0x39ea73f2	0.00044718344
50	0xb8675f88	-5.5163662e-05
51	0x3a180e78	0.0005800496
52	0x394a004b	0.0001926433
53	0x39cd3aac	0.0003914436
54	0x39b79a2d	0.0003501935
55	0xb9b1fa94	-0.00033946766
56	0xb95181b4	-0.00019980111
57	0xb9fe201e	-0.00048470584
58	0x398ea61d	0.00027208115
59	0xb96b2337	-0.00022424465
60	0x379669e2	1.7930699e-05
61	0x39093210	0.00013083988
62	0x3957fd9c	0.00020598475
63	0x38bbbe16	8.952261e-05
64	0x39eaff91	0.0004482237
65	0x39dfc3fa	0.00042679888
66	0x38bbddf3	8.958196e-05
67	0x3a05a742	0.0005098471
68	0xb982de6e	-0.00024961255
69	0x39d9a1d8	0.00041510048
70	0xb804eac8	-3.168991e-05
71	0x387f9675	6.093686e-05
72	0x3a54c565	0.0008116572
73	0xb9aabd25	-0.0003256585
74	0xb98f68d6	-0.00027353194
75	0xb6ed7eed	-7.0779265e-06
76	0xb942e287	-0.0001858567
77	0x38b2f68d	8.533625e-05
78	0xb972ad63	-0.0002314351
79	0xb9d193ef	-0.00039973806
80	0x39cc1f2e	0.00038933143

bias f4 [3]
0	0x388967ab	6.551979e-05
1	0x3819758b	3.6587513e-05
2	0x367a69ed	3.731456e-06

weight f4 [3]
0	0xb9de2fa2	-0.0004237863
1	0xba79eb11	-0.0009533624
2	0x3a90e2a4	0.0011053872

bias f4 [3]
0	0xb8331c4d	-4.2703283e-05
1	0xba042a84	-0.0005041736
2	0xb95d24ed	-0.00021089958

running_mean f4 [3]
0	0x382fb7fb	4.1894597e-05
1	0x3786caf4	1.6068552e-05
2	0xb76e3c05	-1.419988e-05

running_var f4 [3]
0	0x29157d85	3.3193517e-14
1	0x2a177d88	1.3455047e-13
2	0x28fe5f3c	2.8240966e-14

weight f4 [3, 3, 3, 3]
0	0x3978982a	0.00023707809
1	0x396d8de8	0.00022654945
2	0xb8c32137	-9.304511e-05
3	0x38e96959	0.00011129928
4	0x39cce0ca	0.00039077393
5	0xb6c71e5f	-5.934198e-06
6	0xb9ba0950	-0.00035483623
7	0x399d3924	0.00029987947
8	0xb95a5189	-0.00020820474
9	0xb9341527	-0.00017174018
10	0x37016a7b	7.713791e-06
11	0x3948055f	0.00019075487
12	0xb94cf8bf	-0.00019547621
13	0x39898eeb	0.00026237158
14	0xb97db82f	-0.00024196574
15	0x39345850	0.00017199037
16	0x39a33d58	0.00031135487
17	0xba0d46ca	-0.00053892715
18	0xb9c1d7b5	-0.00036972543
19	0xb9bfdf4b	-0.00036596725
20	0xb955f5ce	-0.00020404832
21	0xb9d4789c	-0.00040525652
22	0x36f14dc4	7.191413e-06
23	0x39a6ea63	0.0003183662
24	0x36a12089	4.8019615e-06
25	0xba13aaa6	-0.00056330336
26	0x38ab439c	8.1665086e-05
27	0xb9313c51	-0.00016902505
28	0xb9cafd5c	-0.0003871721
29	0x39dba199	0.00041891335
30	0x39e49290	0.00043596746
31	0xb9dc9443	-0.00042072134
32	0x3999f4fa	0.00029364956
33	0xb980bf0b	-0.000245564
34	0x381857e7	3.632149e-05
35	0x394e469f	0.00019672
36	0xb9ac8d1a	-0.00032911525
37	0x3a4371f8	0.00074556423
38	0xb9b8081f	-0.00035101266
39	0xb9b55e93	-0.00034593474
40	0xb98d4b18	-0.00026949565
41	0xb761e0e5	-1.3463407e-05
42	0xb9f35fad	-0.00046419856
43	0x37c547ec	2.3517721e-05
44	0x3a3774ad	0.0006998282
45	0xb8bcca30	-9.002199e-05
46	0xba0da5eb	-0.0005403447
47	0xba26cfa1	-0.00063633366
48	0xb926cd98	-0.00015907583
49	0x39a3cd64	0.0003124281
50	0xb882058b	-6.1999155e-05
51	0xb9f008f0	-0.00045783026
52	0xb7230410	-9.716503e-06
53	0x3944c2bc	0.00018764561
54	0x37c24312	2.3157834e-05
55	0xb91aba3d	-0.00014755964
56	0xb997b8ec	-0.00028938742
57	0xb93fad7a	-0.00018279804
58	0xb995a881	-0.0002854504
59	0xb9b27c6c	-0.00034043507
60	0x39cdc197	0.00039244883
61	0x395233e7	0.00020046496
62	0x3985fb30	0.00025554886
63	0x38fecefa	0.00012150216
64	0xb91f7a57	-0.00015208997
65	0xb87195a7	-5.7598252e-05
66	0xb9d37488	-0.0004033188
67	0x3a14d801	0.0005677939
68	0xb8b57219	-8.652005e-05
69	0x386c70a2	5.6371682e-05
70	0xb9deaf70	-0.0004247385
71	0x37bd6f0d	2.2582268e-05
72	0xba0e854a	-0.0005436732
73	0xb98355a5	-0.00025050077
74	0xb8e544ee	-0.0001093241
75	0x37bd7d36	2.2588862e-05
76	0xb75132bd	-1.2469184e-05
77	0x39c93f7d	0.0003838501
78	0x396b89fa	0.00022462747
79	0x3a372f91	0.0006987984
80	0xb9cbeb20	-0.0003889436

bias f4 [3]
0	0x38b9b07c	8.85436e-05
1	0xb88ffc2b	-6.865741e-05
2	0x39738b07	0.00023226078

weight f4 [3]
0	0xba0cf5d4	-0.00053772074
1	0xb97a64c2	-0.00023879393
2	0x39e20d3d	0.00043115942

bias f4 [3]
0	0xb850954e	-4.9730115e-05
1	0x3a4f2393	0.00079017243
2	0x394aaf2c	0.00019329478

running_mean f4 [3]
0	0x3873af43	5.809894e-05
1	0xb7f6afa2	-2.940727e-05
2	0x38ff6c19	0.00012179482

running_var f4 [3]
0	0x2a6fa51e	2.1284751e-13
1	0x2a1ff92e	1.4208488e-13
2	0x2a50e6ce	1.8554188e-13

weight f4 [3, 3, 3, 3]
0	0xb92df3c4	-0.00016589375
1	0x39c5bcaa	0.00037715334
2	0x3980b45a	0.00024548435
3	0x3831fab6	4.243358e-05
4	0x399da540	0.00030068494
5	0x3734eaeb	1.0783532e-05
6	0x386a6028	5.58795e-05
7	0x3903f4ab	0.0001258428
8	0xba15e247	-0.0005717617
9	0x39835f47	0.00025057254
10	0xb90c775a	-0.00013395902
11	0x38c06884	9.174741e-05
12	0xb9e0bd48	-0.00042865635
13	0xb8d987fb	-0.00010372695
14	0x389bb953	7.425495e-05
15	0x3928d637	0.0001610153
16	0x39cf9aa0	0.0003959732
17	0xb8f81312	-0.00011829114
18	0xb99fff17	-0.000305169
19	0x3a2cd14c	0.0006592467
20	0x3955e54b	0.00020398681
21	0x3a592b5d	0.00082843547
22	0xb93207d6	-0.00016978322
23	0x3a19b2b1	0.0005863114
24	0x3853dab0	5.050999e-05
25	0xb964b035	-0.00021809417
26	0xb98c308c	-0.0002673905
27	0xb9ddbb83	-0.00042292112
28	0xb9800963	-0.00024421056
29	0xb90ff2bd	-0.0001372797
30	0x37d19499	2.4983938e-05
31	0x394513f0	0.00018794811
32	0x3796543f	1.7920624e-05
33	0x390fdeb2	0.00013720503
34	0xb8f75d18	-0.00011795218
35	0x393c5870	0.00017962023
36	0xba08a103	-0.0005211981
37	0xb9816969	-0.00024683334
38	0xb95b33c8	-0.00020904758
39	0xb8e49f9f	-0.00010901619
40	0xb81369b3	-3.514597e-05
41	0xb8db86fd	-0.00010467877
42	0x39c99acb	0.00038453037
43	0xba1a3c36	-0.0005883606
44	0x39e0c2a0	0.00042869616
45	0xb9b0e5b7	-0.00033740487
46	0xb6df3d92	-6.6530856e-06
47	0xb9201909	-0.00015268115
48	0xb833c06e	-4.285614e-05
49	0x39897652	0.00026218832
50	0x3a280db6	0.00064107345
51	0x390754c3	0.0001290618
52	0x398bd4fe	0.00026670838
53	0x39a11bb7	0.00030728962
54	0x38a5d6b8	7.9078076e-05
55	0xb92aa948	-0.00016275526
56	0x398f8fdd	0.00027382272
57	0x3970ee2f	0.00022976914
58	0xb6b9835e	-5.528723e-06
59	0x386a5dd8	5.5877346e-05
60	0xb8cad6ca	-9.672118e-05
61	0x38be483a	9.073359e-05
62	0x39c5ce01	0.00037728253
63	0xb9803b24	-0.00024458126
64	0xb995dce4	-0.0002858407
65	0xba2ee697	-0.0006671934
66	0x393fe4ef	0.00018300464
67	0x39e767f8	0.00044137216
68	0xb8e1ac4d	-0.000107609296
69	0x3a37c340	0.00070099905
70	0xba2c8ea6	-0.00065825356
71	0xb81325fa	-3.50829e-05
72	0xba1f5ad2	-0.0006078902
73	0x39cc867b	0.00039010108
74	0x3a01c447	0.0004950207
75	0x38dd7c58	0.00010561262
76	0xba03db14	-0.00050298986
77	0x370306f8	7.809831e-06
78	0x39352856	0.00017276531
79	0xba47d41b	-0.0007622854
80	0xb9b5c884	-0.00034672406

bias f4 [3]
0	0xb6a87af2	-5.021103e-06
1	0x38208079	3.8266622e-05
2	0xb7dfe8cc	-2.6692076e-05

weight f4 [3]
0	0xba8ed2a9	-0.0010896522
1	0xb81a2572	-3.6751335e-05
2	0x39c31700	0.00037210435

bias f4 [3]
0	0xba0f5d36	-0.00054689066
1	0x39b4474b	0.00034385393
2	0xb985238b	-0.00025394218

running_mean f4 [3]
0	0xb79aa3ee	-1.8434566e-05
1	0x3705d1c1	7.976255e-06
2	0xb7abea0c	-2.0493775e-05

running_var f4 [3]
0	0x28cb4d0b	2.257094e-14
1	0x29f03ec7	1.0669031e-13
2	0x2a270248	1.4833371e-13

weight f4 [3, 3, 3, 3]
0	0xb946f222	-0.00018972953
1	0xb8de5727	-0.00010602018
2	0xb8979ea7	-7.2297924e-05
3	0xba053907	-0.0005082045
4	0x3a07876f	0.00051700225
5	0x390aa080	0.00013220496
6	0xb9232fd0	-0.00015562703
7	0xba06abac	-0.00051372754
8	0xba2e4077	-0.0006647179
9	0x39219a0d	0.00015411545
10	0x3915b781	0.00014278108
11	0xb9c96f6d	-0.00038420726
12	0x39a68261	0.00031759127
13	0xb97de6f7	-0.00024214001
14	0x398a9c0f	0.00026437684
15	0xb99e2dbc	-0.00030170183
16	0x399610d0	0.00028622756
17	0x38e2e934	0.00010819957
18	0xba51b4a4	-0.0007999635
19	0x39a118b5	0.0003072672
20	0x383de117	4.5270743e-05
21	0x3994899b	0.00028331284
22	0xb963a7fd	-0.00021710987
23	0xb9d59f6f	-0.00040745313
24	0xb7fa808a	-2.9862178e-05
25	0x39ec9785	0.0004512632
26	0x3a247632	0.0006273716
27	0xb93bde58	-0.00017916539
28	0x39c4c236	0.00037528732
29	0xb903eb41	-0.00012580772
30	0xba152b3c	-0.00056903413
31	0xb8d921f9	-0.00010353694
32	0xb95b5b7a	-0.00020919545
33	0xb9fbf6a0	-0.000480582
34	0xb96a9a12	-0.00022373375
35	0xb9c11da8	-0.00036833924
36	0x3983bfec	0.0002512926
37	0xb9a7285c	-0.00031882792
38	0x39765e3d	0.00023495495
39	0xb99dbebf	-0.0003008749
40	0x38ee92ee	0.00011376092
41	0x39d57f55	0.00040721396
42	0xb98d19fb	-0.00026912973
43	0x39339ec6	0.00017129918
44	0xb8462d5f	-4.7249134e-05
45	0x3a115b9b	0.00055449613
46	0xb9900241	-0.000274675
47	0x3964b399	0.0002181068
48	0xba0ee85a	-0.0005451493
49	0xba08160c	-0.00051912735
50	0x39e402b2	0.00043489557
51	0xb9b4e5c7	-0.00034503473
52	0xba654156	-0.00087453926
53	0xb9043d4c	-0.00012611336
54	0x3903af7c	0.00012558507
55	0x3734c383	1.0774357e-05
56	0xb988f987	-0.00026125854
57	0x391afdfa	0.00014781198
58	0x398b1dd8	0.0002653438
59	0xb9aa99cf	-0.00032539523
60	0xb915e580	-0.00014295243
61	0x3909ef39	0.00013154456
62	0xb9b5b1c4	-0.00034655456
63	0xb9cbdbdd	-0.00038882988
64	0x398a6fc7	0.00026404692
65	0xb99cb921	-0.0002989257
66	0xb9dab0ec	-0.00041712017
67	0x39a6d960	0.00031823944
68	0xb9441e1b	-0.00018703232
69	0x38cd56d2	9.791333e-05
70	0xb88c9a2a	-6.7044355e-05
71	0x3995590f	0.00028485848
72	0xb98ff891	-0.00027460282
73	0xb87ef5d5	-6.0787268e-05
74	0xb8bb4378	-8.929422e-05
75	0xb9ef4e80	-0.0004564412
76	0xb907b5da	-0.00012942348
77	0xba211d91	-0.00061460683
78	0x3a07d953	0.0005182225
79	0xb7a9cfa2	-2.0243056e-05
80	0x38c0042e	9.156052e-05

bias f4 [3]
0	0x38026b23	3.1094194e-05
1	0xb81c415d	-3.7254173e-05
2	0x379c5824	1.8637693e-05

weight f4 [3]
0	0x3993516f	0.00028098698
1	0xb9b79d4a	-0.0003502167
2	0xb9b6821a	-0.00034810678

bias f4 [3]
0	0x39a4add7	0.00031410038
1	0xb79a2820	-1.8376915e-05
2	0xb9bb7e98	-0.0003576174

running_mean f4 [3]
0	0x38227910	3.8736558e-05
1	0xb7641fe6	-1.3597286e-05
2	0xb60eb822	-2.1266828e-06

running_var f4 [3]
0	0x2ad48031	3.7747716e-13
1	0x2ab7d64e	3.2656034e-13
2	0x29a82444	7.46699e-14

weight f4 [3, 3, 3, 3]
0	0x3a1ec604	0.00060567283
1	0x39d7e9b5	0.0004118212
2	0xba100b24	-0.0005494824
3	0xb917afb5	-0.00014465938
4	0x397ef5cf	0.00024314898
5	0x3966497d	0.00021961886
6	0x3a13c17c	0.00056364364
7	0x3976f982	0.00023553337
8	0x380be9e1	3.3358e-05
9	0xb955d08e	-0.00020390956
10	0xb8c25dd7	-9.26812e-05
11	0xb908deb2	-0.00013052931
12	0xb991b0cd	-0.00027788282
13	0xb84012db	-4.5793928e-05
14	0xb956b0d6	-0.00020474507
15	0x39e29332	0.00043215748
16	0xb92190e7	-0.00015408137
17	0x39c9d295	0.00038494603
18	0x39d7d305	0.00041165217
19	0xb907d91a	-0.0001295548
20	0xb997c108	-0.00028944784
21	0x3a0f949f	0.00054771634
22	0x39a8ca77	0.00032194305
23	0x36bb641e	5.5846895e-06
24	0x39dfcaed	0.00042685066
25	0xb99f8e0b	-0.00030432674
26	0xb986c457	-0.00025704756
27	0xb8475919	-4.7528276e-05
28	0xb99fe5e8	-0.00030498137
29	0x393c0cbe	0.00017933824
30	0x37d364a3	2.5200023e-05
31	0xb92bfc2c	-0.00016401772
32	0x39bfbbea	0.00036570366
33	0x39231ec2	0.0001555635
34	0xb9ae6a17	-0.0003326691
35	0xb85e2afb	-5.2968953e-05
36	0xb9cae729	-0.0003870067
37	0xb8a8a3c0	-8.041365e-05
38	0x39ca403f	0.0003857631
39	0xb9d97ece	-0.00041483942
40	0xb83d43ad	-4.512414e-05
41	0x36cc27a4	6.0842885e-06
42	0xba12e3ee	-0.0005603422
43	0xb9377685	-0.00017496392
44	0xb928845b	-0.00016071035
45	0xb94355d9	-0.0001862863
46	0xba058578	-0.0005093436
47	0xb9f4fcd2	-0.00046727672
48	0xb7d9d90b	-2.5969484e-05
49	0xb9e8c259	-0.0004439529
50	0x397cf91b	0.00024125392
51	0xb9dd5e0c	-0.00042222475
52	0xb910e0f4	-0.00013816712
53	0x3910dc9d	0.00013815095
54	0x39b1e77a	0.00033932534
55	0xb91bd1a0	-0.00014860043
56	0xb8a56549	-7.886679e-05
57	0x394a6309	0.00019301115
58	0xb91aeaf7	-0.00014774116
59	0x385bf9ba	5.2446245e-05
60	0xb9ff2eb3	-0.00048672184
61	0x38616b24	5.3743963e-05
62	0x397a1336	0.00023849015
63	0xb9904523	-0.0002751733
64	0xb9d6c898	-0.00040966715
65	0x39a8c656	0.0003219123
66	0x3a092c0e	0.00052327
67	0x39f4d0d8	0.00046694907
68	0xb943c667	-0.0001867056
69	0x398a8ced	0.0002642641
70	0xb9c11a88	-0.00036831596
71	0x39b6d64d	0.00034873412
72	0x3950ab92	0.0001990034
73	0xb8196e0c	-3.658053e-05
74	0x3983becd	0.00025128425
75	0xb9746444	-0.00023307005
76	0x3653484c	3.1483532e-06
77	0x39879daf	0.0002586669
78	0xb9551e2a	-0.000203245
79	0x3821c7c2	3.857143e-05
80	0xba1ff250	-0.0006101476

bias f4 [3]
0	0x38d0a85a	9.949571e-05
1	0x378b7c05	1.6627842e-05
2	0x390d8181	0.00013495052

weight f4 [3]
0	0x38d7992f	0.000102805316
1	0xb5862263	-9.993786e-07
2	0xb9426e0d	-0.00018542279

bias f4 [3]
0	0x390b91d0	0.00013310392
1	0x3927316a	0.00015944769
2	0x38f4c607	0.00011671712

running_mean f4 [3]
0	0x38763c07	5.8706875e-05
1	0x37fa939d	2.987106e-05
2	0x38a75b85	7.9802274e-05

running_var f4 [3]
0	0x28a847f8	1.8682958e-14
1	0x27b28aea	4.9555536e-15
2	0x273ecfd3	2.6480459e-15

weight f4 [3, 3, 3, 3]
0	0x38847181	6.315392e-05
1	0xb9af788e	-0.0003346842
2	0x39bd4cdc	0.00036106154
3	0xb98fc787	-0.00027423745
4	0xba18e255	-0.0005832066
5	0xba480b74	-0.0007631101
6	0xb9955b4a	-0.0002848751
7	0xb8744f45	-5.824796e-05
8	0x399686b2	0.00028710585
9	0xb8b772e6	-8.7475215e-05
10	0xb94c57cb	-0.00019487661
11	0xb97b3c0f	-0.00023959599
12	0xb9948022	-0.00028324226
13	0x392f6d68	0.00016730058
14	0xb961d73f	-0.00021537858
15	0xb795b450	-1.7846149e-05
16	0xb8f2d85b	-0.000115797586
17	0xb924acf7	-0.00015704693
18	0xb90aac30	-0.0001322485
19	0xb941ec3e	-0.00018493921
20	0x3a0e8cb3	0.0005437836
21	0xb97c5fcf	-0.00024068284
22	0x394a955f	0.00019319866
23	0x39827108	0.00024879747
24	0xb9d83095	-0.00041234927
25	0x388a87ff	6.605684e-05
26	0xba27a1e1	-0.0006394666
27	0x395a3a73	0.00020811874
28	0xb9eeb5f1	-0.00045530454
29	0x3a1d9cb4	0.00060124253
30	0xb5b995b6	-1.3827146e-06
31	0xb9eef350	-0.0004557618
32	0xb98aaa65	-0.00026448365
33	0xb9ebc164	-0.0004496678
34	0xb89418cf	-7.061811e-05
35	0x39bef956	0.00036425394
36	0xb9d110d5	-0.00039876127
37	0x39cfecc7	0.0003965853
38	0xb984d5f8	-0.0002533642
39	0x38371872	4.3653366e-05
40	0xb8326c43	-4.2539334e-05
41	0xb9be2c73	-0.0003627274
42	0x37cb828c	2.4260276e-05
43	0x39f7160a	0.00047127932
44	0x39c0867e	0.00036721298
45	0xb8ded2cc	-0.00010625049
46	0x3998adcd	0.0002912119
47	0x38d467a3	0.000101282516
48	0x38541570	5.0564704e-05
49	0xb86c2fad	-5.6311186e-05
50	0xb8e60f32	-0.00010970085
51	0x3907c765	0.00012948884
52	0xb87c15f0	-6.0101913e-05
53	0x38f0d1be	0.00011483159
54	0x38f01131	0.00011447294
55	0xb86438ff	-5.4412518e-05
56	0xb9824405	-0.0002484621
57	0xb9ad9e41	-0.0003311504
58	0xba1dd4b1	-0.0006020768
59	0xb9131e52	-0.00014030308
60	0xb935d0bb	-0.00017339263
61	0xb9601758	-0.00021371001
62	0x39bcc27c	0.00036003056
63	0x39813ecf	0.00024651593
64	0x380abfb2	3.3080294e-05
65	0x39097995	0.00013110631
66	0xb7cddae5	-2.4539835e-05
67	0xb707a7b3	-8.085673e-06
68	0x3992c468	0.00027993624
69	0xb88adfbf	-6.622029e-05
70	0xba11c632	-0.00055608444
71	0x39e8d900	0.00044412166
72	0xb7451142	-1.1746133e-05
73	0xb8b1fcb4	-8.487087e-05
74	0x39f74568	0.00047163223
75	0xb8848d34	-6.3205516e-05
76	0xb9d966de	-0.00041466107
77	0xb9a5a5bb	-0.0003159473
78	0xb717d4d4	-9.049854e-06
79	0xb7746f96	-1.4569514e-05
80	0xb9c0d1d7	-0.00036777437

bias f4 [3]
0	0xb939e517	-0.00017728317
1	0x38bddfd2	9.053912e-05
2	0xb8c2820a	-9.2748625e-05

weight f4 [3]
0	0xb941adba	-0.00018470632
1	0x37019404	7.723462e-06
2	0xb90d0b2f	-0.00013450974

bias f4 [3]
0	0xb84809f9	-4.7693004e-05
1	0xb8fc95e9	-0.00012044219
2	0xb9778881	-0.00023606607

running_mean f4 [3]
0	0xb8cd5de5	-9.792651e-05
1	0x38978cf8	7.2264986e-05
2	0xb881710e	-6.1722574e-05

running_var f4 [3]
0	0x29aef0b5	7.768908e-14
1	0x2aa7f79a	2.9836967e-13
2	0x29e524dd	1.0176038e-13

weight f4 [3, 3, 3, 3]
0	0xb9c83492	-0.0003818614
1	0x39dad0f6	0.00041735888
2	0x398c119b	0.00026715998
3	0xb90b9f88	-0.00013315503
4	0x37cb0ea7	2.4206309e-05
5	0x38bc04d5	8.9654386e-05
6	0xb83848e3	-4.39369e-05
7	0x389ba7d5	7.422237e-05
8	0xb8e2bc9a	-0.000108116496
9	0xba20af30	-0.00061296206
10	0x38131ca8	3.507422e-05
11	0xb947384a	-0.00018999088
12	0x3935dc66	0.0001734361
13	0xb990bf8f	-0.00027608543
14	0x38e0ce2b	0.00010719554
15	0xb95ad15b	-0.00020868091
16	0xba1eef11	-0.00060628454
17	0xb956bca3	-0.00020478903
18	0x39af853d	0.0003347787
19	0xb988c8f1	-0.00026089654
20	0x398a2de2	0.00026355596
21	0xb902510d	-0.0001242796
22	0xb9852863	-0.00025397827
23	0x389a7c51	7.366448e-05
24	0x3935bc56	0.00017331666
25	0x395468a5	0.00020256879
26	0xb98799db	-0.00025863838
27	0xb7d67801	-2.556667e-05
28	0x39a83e42	0.00032089843
29	0xb923dae4	-0.00015626434
30	0xb973bf59	-0.00023245568
31	0x38e52416	0.000109262925
32	0x39ecfb34	0.0004520059
33	0xb9be7f4c	-0.00036334468
34	0xb93c3718	-0.00017949601
35	0x3975981a	0.00023421683
36	0xb93e4bb5	-0.00018148015
37	0x391c6757	0.00014915816
38	0x393b9a5f	0.00017891217
39	0xb9709f15	-0.00022947446
40	0x378e7a1a	1.6984577e-05
41	0xb88c144c	-6.679501e-05
42	0xb9aa3c57	-0.00032469883
43	0xb9c14cc4	-0.00036869023
44	0x39907c1a	0.00027558283
45	0x394b7e6a	0.00019406682
46	0xba00a751	-0.00049077446
47	0x3a3c515e	0.00071837555
48	0x3940673c	0.00018349005
49	0xb889f490	-6.5782224e-05
50	0xb94edba6	-0.00019727516
51	0xba00925e	-0.0004904623
52	0xb8c9c8d4	-9.621834e-05
53	0xb894c7e3	-7.094422e-05
54	0xb9993499	-0.00029221622
55	0x39c93a31	0.00038381063
56	0xb9a7dd81	-0.00032017755
57	0x379987c3	1.830224e-05
58	0x39b71e7a	0.00034927187
59	0x39b0bca8	0.00033709896
60	0xb9011354	-0.00012309599
61	0x38497d70	4.8038957e-05
62	0xb981496d	-0.00024659504
63	0x3a275b7c	0.00063841767
64	0x39d93d25	0.00041435022
65	0xb8bcdfef	-9.0062495e-05
66	0xb90d3a20	-0.00013468461
67	0xb9c9da81	-0.00038500506
68	0x39d1d7e0	0.00040024426
69	0x3942d27d	0.00018579695
70	0x39b00bb9	0.0003357807
71	0xb7e9fbf2	-2.7893086e-05
72	0x3937e23e	0.00017536522
73	0x390744fa	0.00012900299
74	0x3a49d514	0.00076992926
75	0x39753608	0.00023385149
76	0xba114101	-0.00055409974
77	0x3898487b	7.261425e-05
78	0xb8d58876	-0.00010182049
79	0x391349c2	0.0001404649
80	0x38d4397d	0.00010119656

bias f4 [3]
0	0x38b76487	8.744845e-05
1	0xb863996e	-5.426391e-05
2	0xb88bf76a	-6.674121e-05

weight f4 [3]
0	0x392b7940	0.00016353
1	0xba86a1dc	-0.0010271627
2	0xb9efa0fb	-0.00045705572

bias f4 [3]
0	0xb958737a	-0.00020642384
1	0xb824291b	-3.913893e-05
2	0x39cb0e95	0.00038730042

running_mean f4 [3]
0	0x3898d609	7.287792e-05
1	0xb7a326b5	-1.9449139e-05
2	0xb872a991	-5.7855217e-05

running_var f4 [3]
0	0x2794a55d	4.125754e-15
1	0x28cc262a	2.26651e-14
2	0x28bd6994	2.1029002e-14

weight f4 [3, 3, 3, 3]
0	0x38822be4	6.207058e-05
1	0x38814f9c	6.166028e-05
2	0x383c2be4	4.486357e-05
3	0x37fd163c	3.0170304e-05
4	0x3953ec1e	0.00020210489
5	0x3957c39a	0.00020576865
6	0x38e3ef13	0.000108687345
7	0x39ba6bc5	0.0003555698
8	0x38f37ffb	0.00011610981
9	0xb9830676	-0.0002499108
10	0xb9c01d94	-0.0003664313
11	0x390e1289	0.0001354908
12	0xb88cf902	-6.7221015e-05
13	0xb9bebf49	-0.00036382143
14	0xb9279691	-0.00015982451
15	0xb950aa2b	-0.00019899818
16	0xb9ab853b	-0.00032714926
17	0x39be3ce2	0.00036284985
18	0x3a421d8e	0.00074049167
19	0xb96f41a1	-0.00022817265
20	0x386de565	5.6718844e-05
21	0x39a660d1	0.0003173412
22	0xb9258900	-0.00015786663
23	0xb94714d8	-0.00018985884
24	0x396a6eb4	0.00022357219
25	0xb952c7d7	-0.00020101607
26	0x389a2d01	7.351675e-05
27	0xba3efb40	-0.0007285364
28	0xb9f1731a	-0.0004605286
29	0x39433ac1	0.00018618537
30	0x38c30ce4	9.300726e-05
31	0x3a07d5ac	0.0005181681
32	0xb89e6a5a	-7.5538366e-05
33	0x3906f69d	0.00012871106
34	0xb8abdd74	-8.195164e-05
35	0x398e87e0	0.00027185585
36	0xb92f04d0	-0.00016691093
37	0xb8641067	-5.4374712e-05
38	0x38efe4f8	0.00011439057
39	0x396d775b	0.00022646545
40	0xb8d79a37	-0.00010280724
41	0xb9c5d257	-0.00037731483
42	0x397405aa	0.00023271763
43	0xb6879e1d	-4.0417203e-06
44	0x39c4569f	0.0003744857
45	0xb9bdca21	-0.00036199487
46	0xb926faad	-0.00015924378
47	0x396eb0fb	0.00022763379
48	0x3923519f	0.00015575298
49	0x3a001db6	0.000488724
50	0x392dfc89	0.00016592642
51	0xb972feea	-0.00023173881
52	0x3907d5b2	0.00012954211
53	0xb789bf0c	-1.6420636e-05
54	0xb85685b3	-5.1146093e-05
55	0x3890aa79	6.898208e-05
56	0x3993e5be	0.00028209196
57	0x39a2ed35	0.0003107578
58	0x39ab8c07	0.0003271999
59	0xb88c1564	-6.6797045e-05
60	0xba021b43	-0.0004963169
61	0xb9995bb8	-0.0002925077
62	0x3934b155	0.00017232199
63	0x391e5e4e	0.00015103185
64	0xb8d48bb6	-0.00010134971
65	0xb9556f48	-0.00020354718
66	0xb703486e	-7.825072e-06
67	0x39a58034	0.0003156677
68	0x384816e6	4.770504e-05
69	0x38e99a56	0.00011139053
70	0xb936d80a	-0.00017437353
71	0x38da3395	0.00010404658
72	0xb91b86ac	-0.00014832121
73	0x38b1eb0f	8.483801e-05
74	0xb78a9dec	-1.652442e-05
75	0x38b228fc	8.495335e-05
76	0xba2f7178	-0.00066926284
77	0xb8b1dc68	-8.4810716e-05
78	0x38236b30	3.8962055e-05
79	0x39ab67fb	0.00032693133
80	0x39c5357e	0.00037614623

bias f4 [3]
0	0xb969e539	-0.00022306004
1	0xb7e727e7	-2.7555927e-05
2	0x38e748b8	0.00011028483

weight f4 [3]
0	0x3898c1d3	7.2840274e-05
1	0xb9debbc3	-0.00042483033
2	0x39aaef65	0.0003260329

bias f4 [3]
0	0xb8a0f9eb	-7.6759454e-05
1	0xb7b614f2	-2.1705844e-05
2	0x38828490	6.223575e-05

running_mean f4 [3]
0	0xb8ea6534	-0.0001117684
1	0xb5fd02a5	-1.8850739e-06
2	0x38900efc	6.869246e-05

running_var f4 [3]
0	0x2ab002ad	3.1265737e-13
1	0x2a806e7d	2.2814034e-13
2	0x2a0cac4d	1.2494277e-13

weight f4 [3, 3, 3, 3]
0	0xb6e665f7	-6.8664044e-06
1	0x3919a4c7	0.00014652601
2	0x37b12fa6	2.1122232e-05
3	0xb9a48ab4	-0.0003138386
4	0xb80f4dbb	-3.416625e-05
5	0xb97f0453	-0.00024320306
6	0x38a2a4a6	7.75543e-05
7	0xb84b018e	-4.840042e-05
8	0x35c1ee9d	1.4449066e-06
9	0x3982504e	0.00024855364
10	0xb9cbe996	-0.00038893212
11	0xb9d0f142	-0.00039852603
12	0x39944762	0.00028281944
13	0xb717acca	-9.040532e-06
14	0x39018cd0	0.00012354855
15	0x395ae6a4	0.0002087602
16	0x39baf372	0.00035658065
17	0x377f7466	1.52262855e-05
18	0x39c7f822	0.0003814111
19	0xb8f2f438	-0.000115849485
20	0x39e3d4c2	0.0004345533
21	0xb9e512a8	-0.00043692184
22	0xb88d62a3	-6.7417765e-05
23	0x378634db	1.5998658e-05
24	0xb5e08d0f	-1.6730354e-06
25	0x3a16c3bd	0.0005751213
26	0xb60559e3	-1.9870865e-06
27	0xb9ea7b03	-0.0004472361
28	0x3983948a	0.00025096937
29	0x389d7221	7.5076015e-05
30	0xba1506e8	-0.0005684928
31	0xb8f2de9b	-0.00011580923
32	0x396f064f	0.00022795166
33	0x3877ff55	5.9127186e-05
34	0x37c4080c	2.3368768e-05
35	0x37ebaa51	2.8093493e-05
36	0xb8f2785c	-0.00011561878
37	0xb854f639	-5.077405e-05
38	0xb923b056	-0.00015610582
39	0x39810a77	0.00024612594
40	0x38986126	7.26602e-05
41	0xb8f5ae47	-0.00011714972
42	0xb9b87802	-0.00035184628
43	0xb95bbb2b	-0.00020955193
44	0x38e5baed	0.000109543886
45	0x392bb4fc	0.00016375253
46	0xb99d45de	-0.0002999743
47	0xb76cc566	-1.4112657e-05
48	0xb9856010	-0.0002543931
49	0xb9e41c01	-0.00043508413
50	0x3986973f	0.0002567116
51	0x395eb7fc	0.0002124011
52	0x39176c57	0.00014440842
53	0xb9a35746	-0.00031154806
54	0x37e53539	2.7323711e-05
55	0x389f3c4e	7.5929434e-05
56	0x3892f720	7.007853e-05
57	0xb8e7b125	-0.00011047934
58	0x3860abe1	5.3565836e-05
59	0xb9b9e5b8	-0.00035457104
60	0x3984248f	0.0002520424
61	0xb95f1c8d	-0.00021277573
62	0xb903fe3e	-0.00012587846
63	0xb7e06476	-2.6749662e-05
64	0x3741eaca	1.15583625e-05
65	0xb7efeed2	-2.860223e-05
66	0x37f84079	2.9593926e-05
67	0xb86e00f7	-5.674452e-05
68	0xb9144d26	-0.0001414312
69	0x38dd6daa	0.00010558528
70	0x39615b78	0.00021491747
71	0xba0782ee	-0.00051693514
72	0xba0cc683	-0.0005370157
73	0xb9039716	-0.00012549417
74	0x39a16ba4	0.00030788512
75	0xba1eb094	-0.0006053534
76	0xb925b661	-0.00015803568
77	0x38d620bf	0.000102104146
78	0xb8751065	-5.842782e-05
79	0xb926ab41	-0.0001589479
80	0x39ceb421	0.00039425588

bias f4 [3]
0	0x380bda02	3.3343218e-05
1	0xb837ab8d	-4.379037e-05
2	0x390ea593	0.00013603856

weight f4 [3]
0	0xb959255d	-0.00020708652
1	0xb922e6b6	-0.0001553547
2	0xb9d89010	-0.00041306065

bias f4 [3]
0	0x390641c4	0.00012803735
1	0x39db22bc	0.00041796814
2	0x39f8c8a9	0.0004745175

running_mean f4 [3]
0	0x37586227	1.2897456e-05
1	0xb72db655	-1.0354056e-05
2	0x389177b0	6.936432e-05

running_var f4 [3]
0	0x25d3f5a9	3.676913e-16
1	0x25b1a10a	3.081373e-16
2	0x26a567ef	1.1477346e-15

weight f4 [3, 3, 3, 3]
0	0x39e3755e	0.0004338426
1	0x39fec11e	0.0004859054
2	0xb8b059bf	-8.4090505e-05
3	0x395af174	0.00020880048
4	0xb92645ad	-0.0001585695
5	0x3942ab1b	0.00018565023
6	0xba0727ce	-0.00051557727
7	0x386bb117	5.6193294e-05
8	0xb69f45c5	-4.7466915e-06
9	0x39d5cf11	0.00040780802
10	0xb94936ab	-0.00019189219
11	0x397091d5	0.0002294251
12	0xb9708028	-0.00022935926
13	0x3916fa3c	0.00014398334
14	0xb7cc2e47	-2.4340245e-05
15	0xb840ce35	-4.5968412e-05
16	0xba05c33f	-0.00051026413
17	0xba18b83a	-0.0005825792
18	0x394f3a7f	0.0001976285
19	0xba0f80b2	-0.0005474194
20	0x39a847d4	0.00032096973
21	0xb9d42611	-0.00040464153
22	0xb9911115	-0.00027669282
23	0x39594933	0.00020722001
24	0xb7b45372	-2.149653e-05
25	0xb97b4b69	-0.00023965318
26	0x39a13cdc	0.00030753657
27	0xb938a967	-0.00017610715
28	0x3937ab59	0.00017516072
29	0x39b9f6d7	0.0003546986
30	0x385c0ad8	5.2462186e-05
31	0xb924e7fd	-0.00015726681
32	0xb7e6d0bc	-2.7515336e-05
33	0x3931c89f	0.00016954773
34	0xb8496f84	-4.802599e-05
35	0x383e8f18	4.5432796e-05
36	0xb840ed44	-4.5997338e-05
37	0x38c8de34	9.578132e-05
38	0x383433d2	4.2963606e-05
39	0xb8fef8cd	-0.000121580066
40	0x390423cd	0.00012601838
41	0x38a08ed8	7.656001e-05
42	0x3917e277	0.00014484847
43	0x389de9e8	7.529912e-05
44	0xb7a1d75a	-1.9292977e-05
45	0x38b8b420	8.8073546e-05
46	0x39096f85	0.00013106882
47	0xb859693f	-5.183485e-05
48	0x398117e9	0.00024622612
49	0xb773e964	-1.4538269e-05
50	0xb7b519ba	-2.1588861e-05
51	0x39349d89	0.00017224824
52	0x393bae63	0.00017898674
53	0xb93e79f3	-0.00018165242
54	0xb77c8447	-1.5051169e-05
55	0xb87a39e7	-5.965857e-05
56	0x38b952bf	8.8369e-05
57	0x39263064	0.0001584902
58	0xb905f9d1	-0.00012776932
59	0xb9b6f09f	-0.00034893022
60	0xb8ee92ed	-0.000113760914
61	0x394ad8f3	0.00019345041
62	0xb53e99d5	-7.100437e-07
63	0xb79a9d8e	-1.8431598e-05
64	0xb9b81d56	-0.00035117072
65	0x38a66bd8	7.935584e-05
66	0x39e0cffc	0.0004287957
67	0xb8b0693e	-8.411937e-05
68	0xb9bf348e	-0.00036469515
69	0xba1cec44	-0.0005986134
70	0x398508f0	0.00025374396
71	0xb8c22022	-9.256626e-05
72	0xb9a724a0	-0.0003188001
73	0x3836bdc5	4.3568918e-05
74	0x3954b5fe	0.00020285693
75	0x3a11d356	0.00055628025
76	0x38ccded6	9.7689845e-05
77	0x396aa566	0.00022377595
78	0x38299533	4.0431692e-05
79	0x398141e1	0.0002465388
80	0x399a7228	0.00029458222

bias f4 [3]
0	0xb792813b	-1.7464734e-05
1	0xb900277b	-0.00012221739
2	0x39229698	0.00015505624

weight f4 [3]
0	0xb9b121fa	-0.00033785385
1	0xb93949d5	-0.0001767048
2	0x39e39b48	0.00043412508

bias f4 [3]
0	0xb8b54b56	-8.644785e-05
1	0xb94c6052	-0.00019490838
2	0xb9f1021f	-0.00045968682

running_mean f4 [3]
0	0x3744b542	1.1724713e-05
1	0xb8830b30	-6.2486506e-05
2	0x38ad4e28	8.2638406e-05

running_var f4 [3]
0	0x2ac73ef5	3.5393186e-13
1	0x29dab923	9.713261e-14
2	0x2a3421f2	1.5998989e-13

weight f4 [3, 3, 3, 3]
0	0x384fff68	4.959051e-05
1	0xba039faf	-0.0005021048
2	0x38c50c79	9.396015e-05
3	0xb8c21ef1	-9.256404e-05
4	0x39291090	0.00016123266
5	0xb9c04ac7	-0.00036676807
6	0xb8ec9a46	-0.000112820926
7	0x3848f181	4.7908634e-05
8	0xb98e84a1	-0.00027183167
9	0x3825bb97	3.9513772e-05
10	0xb8ea4b78	-0.00011172047
11	0xb991d13b	-0.00027812444
12	0x38cb827e	9.7041004e-05
13	0x376b32cd	1.40189195e-05
14	0x39ba844d	0.00035575256
15	0x395aebfc	0.00020878011
16	0xb91da738	-0.0001503498
17	0x3a0742ea	0.0005159812
18	0x37368a48	1.08802415e-05
19	0xb8fe3628	-0.00012121751
20	0xb9a5aa0d	-0.0003159795
21	0xb891d43a	-6.953669e-05
22	0xb98b9e28	-0.00026629982
23	0x39849d3c	0.0002529415
24	0xb98d3e6e	-0.0002694013
25	0xb93e5069	-0.00018149767
26	0x39bfa537	0.00036553454
27	0xb98c33c7	-0.00026741458
28	0x388d76e0	6.745546e-05
29	0x398feed6	0.00027453032
30	0x394ccd5f	0.00019531463
31	0xb977b124	-0.00023621746
32	0xb999c927	-0.00029332304
33	0xb892cba4	-6.9997535e-05
34	0xb98b5952	-0.00026578695
35	0x39854737	0.00025420796
36	0xb95920c2	-0.00020706936
37	0x38de6aa9	0.00010605652
38	0x3962dc3c	0.00021635083
39	0xb9e556cf	-0.0004374296
40	0x39412229	0.0001841864
41	0xb8918c64	-6.9402886e-05
42	0xb904018d	-0.00012589079
43	0xb9dab631	-0.00041715943
44	0xb91e20fe	-0.00015080345
45	0xb781d43b	-1.5476826e-05
46	0xb915ffae	-0.00014304995
47	0xb97584b7	-0.00023414461
48	0xba11fe8a	-0.00055692403
49	0xba0bc0fa	-0.0005331185
50	0xb98dde61	-0.000270593
51	0x39050e00	0.00012689084
52	0x398edd99	0.00027249454
53	0xb990a30e	-0.00027587306
54	0x38f54085	0.00011694528
55	0xb8fc6a8b	-0.000120361416
56	0xb6d09bbd	-6.2170134e-06
57	0x383da62e	4.521588e-05
58	0xb799ecfa	-1.8349372e-05
59	0xb992b903	-0.00027985135
60	0x39273711	0.00015946875
61	0x36a27b7c	4.8423517e-06
62	0x382ee2c4	4.1696025e-05
63	0x3779943f	1.4876073e-05
64	0x3965f676	0.00021930956
65	0xb955fe79	-0.00020408061
66	0xb9ccb4e5	-0.0003904469
67	0xb86cce8c	-5.6459146e-05
68	0x395ef497	0.00021262687
69	0xb967ae7a	-0.00022094874
70	0xb84eba41	-4.928769e-05
71	0xb9194d81	-0.0001462009
72	0x39060589	0.00012781298
73	0xb91b68b6	-0.0001482096
74	0xb963ebb5	-0.00021736215
75	0xb9bba9fa	-0.00035794062
76	0x39114251	0.00013852982
77	0xb94fc2f2	-0.00019813681
78	0xb9710952	-0.00022987023
79	0x38f6d721	0.00011770265
80	0xb9ef0fa7	-0.00045597294

bias f4 [3]
0	0x3974d0a5	0.0002334738
1	0x38b1aca6	8.472176e-05
2	0x396d63ed	0.00022639307

weight f4 [3]
0	0x39821aeb	0.00024815588
1	0xb8f9cf09	-0.000119118085
2	0xba207743	-0.0006121287

bias f4 [3]
0	0x391d2446	0.000149862
1	0x39355053	0.00017291428
2	0x39283650	0.00016041961

running_mean f4 [3]
0	0x3906bb06	0.00012848907
1	0x3882caed	6.236681e-05
2	0x390743b6	0.00012899828

running_var f4 [3]
0	0x285bff0a	1.2212245e-14
1	0x280c67b2	7.7940465e-15
2	0x28439e85	1.0859048e-14
