Games/hex/Models/net_1.pt (torch, 159246 bytes, 143 tensors)

weight f4 [3, 3, 3, 3]
-0.00038668883 -0.0372178 0.0032471472 -0.004234947 -0.014068548 0.038799226 -0.029334845 -0.0038369303
0.010134038 0.005596981 0.01599194 -0.008028582 -0.013115001 0.026431842 -0.014118658 0.02255781
0.048363652 0.009953427 -0.01886869 0.022890095 0.0036652675 0.009287495 -0.020157037 -0.024653193
0.027984478 -0.024497813 -0.00570887 0.0017693152 0.019965464 0.044842537 0.009315818 0.038155682
-0.007922244 0.03568534 0.008562566 0.010276833 -0.0071797976 -0.020721484 -0.054378517 -0.009867904
-0.0028542364 -0.017360987 -0.055900756 0.013548023 -0.014665342 -0.008318791 -0.0118443435 -0.0060453247
-0.0050991112 -0.02730826 0.0031270594 -0.0024854555 -0.034511775 -0.009767843 0.002485231 0.007886059
-0.007931465 -0.0022169114 -0.0490356 -0.019901354 0.014155656 -0.01745849 0.011214743 0.0070468616
-0.020780066 -0.0007055867 0.025732487 0.0058121504 -0.007271798 0.019765647 -0.0021717092 -0.012946236
-0.023543932 0.0081786355 -0.0030738174 -0.018960737 0.034860823 0.028196072 -0.024663184 0.016251964
0.0038698916
00000000: 7fbc cab9 b171 18bd 17ce 543b 4fc5 8abb
00000010: c47f 66bc f0eb 1e3d a14f f0bc 0275 7bbb
00000020: 3c09 263c e166 b73b 8701 833c 508a 03bc
00000030: 4de0 56bc 9787 d83c f251 67bc 28cb b83c
00000040: f718 463d b313 233c 8392 9abc 0284 bb3c
00000050: fc34 703b 942a 183c 5f20 a5bc 7ef5 c9bc
00000060: b43f e53c a3af c8bc 7911 bbbb 5ee8 e73a
00000070: 9d8e a33c cfac 373d 5fa1 183c 2249 1c3d
00000080: 4dcc 01bc cb2a 123d 014a 0c3c 2960 283c
00000090: 8244 ebbb 1ac0 a9bc 02bc 5ebd fdac 21bc
000000a0: 240e 3bbb a138 8ebc 31f8 64bd 87f8 5d3c
000000b0: e746 70bc 8a4b 08bc c70e 42bc dc17 c6bb
000000c0: 7216 a7bb 92b5 dfbc 5aef 4c3b 06e3 22bb
000000d0: 385c 0dbd 4e09 20bc 42df 223b 8734 013c
000000e0: faf2 01bc 9a49 11bb 8ed9 48bd 2a08 a3bc
000000f0: 20ed 673c 1b05 8fbc 0bbe 373c 5ce9 e63b
00000100: f53a aabc 1ff7 38ba f0cc d23c da73 be3b
00000110: 4348 eebb 91eb a13c 3c53 0ebb 731c 54bc
00000120: 34df c0bc afff 053c 1972 49bb 8c53 9bbc
00000130: 39ca 0e3d 73fb e63c 720a cabc d722 853c
00000140: 029e 7d3b

bias f4 [3]
0.0032667983 -0.00063201884 0.00018404593
00000000: c817 563b 11ae 25ba 74fc 4039

weight f4 [3]
0.39292642 0.39040038 0.38836333
00000000: a72d c93e 8fe2 c73e 8fd7 c63e

bias f4 [3]
0.013608283 0.0031913558 -0.0014678271
00000000: 47f5 5e3c 1126 513b 1b64 c0ba

running_mean f4 [3]
0.004900691 -0.039341398 -0.0023483369
00000000: fa95 a03b 7224 21bd 8ee6 19bb

running_var f4 [3]
0.0031174205 0.0032983064 0.0037139624
00000000: a34d 4c3b 6628 583b f365 733b

weight f4 [3, 3, 3, 3]
0.005163969 -0.0068537076 0.034783565 -0.046150208 0.00830695 0.048873853 -0.024609495 0.003836035
0.016221767 -0.034543984 0.017215904 -0.005183251 -0.01659718 0.00234256 0.026455289 -0.034461617
0.0023019363 0.013448054 0.0026714492 -0.013258737 0.027104598 0.013494958 -0.0124167185 0.0015943235
0.02801004 -0.033127047 -0.035214014 0.015727954 -0.03314431 -0.012360537 -0.020632066 -0.04621174
-0.010403843 -0.017626336 -0.021270592 0.01750544 0.006326105 0.017742136 0.013156546 0.026953619
0.030398121 -0.023561418 0.039794356 -0.005405707 -0.016533542 -0.00048522302 -0.028265761 0.023444563
-0.0007630091 -0.0008131244 0.049413007 0.016411323 -0.0006222127 -0.0014087879 -0.0049403217 0.020395108
9.019749e-06 0.01993068 0.023045179 0.015264857 -0.024549115 -0.029124016 -0.024283204 0.019488232
-0.012476795 0.0033167687 -0.050428003 -0.010395612 -0.03454838 0.0052055893 -0.018962774 -0.022660214
0.010463806 0.015609621 0.0033005518 -0.0013520012 -0.01660578 0.009015139 0.009961734 0.032625582
0.04378093
00000000: 8336 a93b 1195 e0bb 3679 0e3d 0008 3dbd
00000010: e019 083c f32f 483d da99 c9bc fd65 7b3b
00000020: 83e3 843c fe7d 0dbd 5e08 8d3c 43d8 a9bb
00000030: cff6 87bc a385 193b c3b8 d83c a027 0dbd
00000040: 15dc 163b 3a55 5c3c 7b13 2f3b 2c3b 59bc
00000050: 760a de3c f519 5d3c 7e6f 4bbc 9ff8 d03a
00000060: 5075 e53c 3ab0 07bd 923c 10bd e9d7 803c
00000070: 54c2 07bd da83 4abc 9404 a9bc 8548 3dbd
00000080: e174 2abc 1b65 90bc aa3f aebc 9267 8f3c
00000090: 374b cf3b f557 913c 8e8e 573c d6cd dc3c
000000a0: 7b05 f93c e003 c1bc 68ff 223d 5b22 b1bb
000000b0: 5a71 87bc 8865 feb9 998d e7bc d00e c03c
000000c0: ad04 48ba db27 55ba 4b65 4a3d 0a71 863c
000000d0: fd1b 23ba 14a7 b8ba 6ce2 a1bb a413 a73c
000000e0: 8753 1737 aa45 a33c 3ec9 bc3c 7319 7a3c
000000f0: 3a1b c9bc 7d95 eebc 92ed c6bc c9a5 9f3c
00000100: 796b 4cbc 255e 593b 988d 4ebd 5b52 2abc
00000110: 9a82 0dbd a693 aa3b d257 9bbc eaa1 b9bc
00000120: 6270 2b3c 7fbf 7f3c 124e 583b a235 b1ba
00000130: d808 88bc 3cb4 133c 8a36 233c 67a2 053d
00000140: a253 333d

bias f4 [3]
-0.006424992 -0.010028725 -0.021421062
00000000: bd88 d2bb 854f 24bc 397b afbc

weight f4 [3, 3, 3, 3]
0.013681041 0.006574041 -0.0010220249 0.017421184 0.03654022 -0.0013982033 0.019392774 0.040881384
-0.0030934897 -0.012182094 0.018037384 0.03557659 -0.0008611697 0.03444303 0.019186331 0.018887227
0.005625541 0.01577942 0.010783209 -0.010196708 -0.020629479 -0.011918647 -0.0065176673 0.008976182
-0.022530816 -0.005438272 0.007512793 0.009660444 0.0034749138 0.013259765 0.031820077 0.0059909686
0.004837749 0.028087389 -0.0170048 0.0070582777 0.029421624 0.036652956 0.006514003 0.03099244
-0.017768415 0.020542704 -0.0029056708 0.019610966 0.027935442 0.0031713592 -0.024673484 -0.0029012298
-0.021518422 -0.0040998943 0.021636853 -0.025226574 0.0044333986 0.011027248 -0.007640125 -0.0076205
-0.0150801735 -0.0029519177 -0.010350014 -0.037172362 0.00781408 -0.030939007 -0.016725479 -0.034992374
-0.016572725 -0.0048275944 -0.016944647 -0.0150133865 -0.009429597 -0.02995713 -0.032646105 -0.027596533
-0.0083624385 -0.018443316 -0.020554492 0.010855175 0.010398996 0.008021075 0.0072158934 0.0056769294
0.009535182
00000000: 7226 603c 0e6b d73b 77f5 85ba dfb6 8e3c
00000010: 33ab 153d eb43 b7ba 98dd 9e3c 3d73 273d
00000020: 25bc 4abb 6897 47bc 23c3 933c c2b8 113d
00000030: 1fc0 61ba 2214 0d3d a72c 9d3c 63b9 9a3c
00000040: 7556 b83b d843 813c 0fac 303c 1810 27bc
00000050: 27ff a8bc 6e46 43bc 2892 d5bb d610 133c
00000060: 8c92 b8bc 8833 b2bb e02d f63b d746 1e3c
00000070: 61bb 633b 7c3f 593c c555 023d e34f c43b
00000080: fb85 9e3b 8617 e63c a64d 8bbc 2049 e73b
00000090: 9e05 f13c 6921 163d 6b73 d53b dce3 fd3c
000000a0: 118f 91bc 2c49 a83c 116d 3ebb 2da7 a03c
000000b0: ded8 e43c 94d6 4f3b 0c20 cabc 8f22 3ebb
000000c0: 6747 b0bc 6858 86bb c53f b13c f6a7 cebc
000000d0: 0b46 913b a1ab 343c 045a fabb 63b5 f9bb
000000e0: d512 77bc f674 41bb 1b93 29bc 0c42 18bd
000000f0: a106 003c cd73 fdbc df03 89bc 2a54 0fbd
00000100: 86c3 87bc cc30 9ebb 80cf 8abc b5fa 75bc
00000110: 997e 1abc a868 f5bc ecb7 05bd 2012 e2bc
00000120: 9c02 09bc 7016 97bc e561 a8bc e7d9 313c
00000130: 8d60 2a3c d46a 033c 4d73 ec3b 8905 ba3b
00000140: 7439 1c3c

bias f4 [3]
-0.0003406045 -0.0030687156 -0.00061169296
00000000: 2a93 b2b9 811c 49bb 055a 20ba

weight f4 [3]
0.38799298 0.39423642 0.39121145
00000000: 04a7 c63e 5bd9 c93e de4c c83e

bias f4 [3]
0.010736705 0.019013627 0.007920337
00000000: 01e9 2f3c 77c2 9b3c 4dc4 013c

running_mean f4 [3]
0.0015047509 0.002714182 0.00034822925
00000000: 103b c53a 6be0 313b 8a92 b639

running_var f4 [3]
0.0005896987 0.0005853596 0.0005797049
00000000: 0396 1a3a d172 193a 56f7 173a

weight f4 [3, 3, 3, 3]
0.011989023 0.0066925795 0.011536121 0.0048181773 0.0073068393 0.015487727 0.023314761 0.037179135
0.018462598 0.013800253 0.023211386 0.017290564 0.012432601 0.0072517055 0.00019660902 0.020028386
0.011144112 0.020982752 -0.00034806217 -0.015643379 -0.0074009006 0.0003845624 -0.011475435 0.006037789
-0.0040553366 0.015832422 0.014281195 -0.00019053702 -0.008652303 -0.0018117279 -0.004096602 -0.00487044
-0.0053252946 -0.0027517485 -0.0038269372 0.00465843 -0.00043004018 -0.0017797962 -0.0073311757 -0.0042932336
-0.012705473 -0.007613352 -0.0072950646 -0.011984479 -0.017384777 0.004542291 0.004063252 -0.008363623
0.0008932559 -0.013516429 -0.014513379 -0.0068687075 -0.0130671365 -0.011945495 0.011723005 -0.00094232574
0.007084286 0.015394998 -0.011269805 0.018770266 0.009569923 0.013889234 0.014060156 0.021876523
0.017183209 0.02934117 0.0014697462 0.00888045 0.005722467 -0.000102715676 0.010676589 0.015613825
0.0026573073 0.00028889065 -0.01353189 -0.0026512085 -0.021738501 0.012483136 -0.018490156 -0.01510582
0.013659991
00000000: 9b6d 443c 6d4d db3b 0002 3d3c cde1 9d3b
00000010: 366e ef3b 3cc0 7d3c 99fe be3c 2649 183d
00000020: e03e 973c 751a 623c ce25 be3c f1a4 8d3c
00000030: 1cb2 4b3c b79f ed3b d528 4e39 9212 a43c
00000040: cb95 363c 05e4 ab3c 1d7c b6b9 8b26 80bc
00000050: 4183 f2bb 179f c939 7703 3cbc a5d8 c53b
00000060: a1e2 84bb ffb2 813c acfb 693c e4ca 47b9
00000070: 64c2 0dbc 8077 edba ca3c 86bb 3698 9fbb
00000080: cf7f aebb ae56 34bb 5acd 7abb bea5 983b
00000090: 0477 e1b9 0d48 e9ba 5c3a f0bb 41ae 8cbb
000000a0: 9e2a 50bc 6d79 f9bb 700b efbb 8c5a 44bc
000000b0: 856a 8ebc 80d7 943b 0725 853b 9407 09bc
000000c0: 6429 6a3a 0374 5dbc 86c9 6dbc e512 e1bb
000000d0: 8b17 56bc 0ab7 43bc d911 403c 6906 77ba
000000e0: 4c23 e83b 4d3b 7c3c fda4 38bc 1ac4 993c
000000f0: 2bcb 1c3c ab8f 633c 925c 663c 6536 b33c
00000100: cdc3 8c3c e55c f03c 80a4 c03a 4f7f 113c
00000110: 8883 bb3b 0f69 d7b8 dcec 2e3c 21d1 7f3c
00000120: 3826 2e3b 3f76 9739 dcb4 5dbc e6bf 2dbb
00000130: f114 b2bc 1186 4c3c ab78 97bc 677e 77bc
00000140: 28ce 5f3c

bias f4 [3]
-0.0009408318 0.0003305132 -0.00024020698
00000000: 27a2 76ba bb48 ad39 12e0 7bb9

weight f4 [3]
0.39263165 0.39006123 0.39288393
00000000: 0407 c93e 1bb6 c73e 1528 c93e

bias f4 [3]
0.02341246 0.0044845156 0.020668656
00000000: 7dcb bf3c d8f2 923b 5051 a93c

running_mean f4 [3]
0.022514885 -0.017856559 0.020489786
00000000: 2371 b83c eb47 92bc 32da a73c

running_var f4 [3]
0.0016267344 0.0011067283 0.0014127609
00000000: 2638 d53a a40f 913a 642c b93a

weight f4 [3, 3, 3, 3]
-0.013384306 -0.008050131 -0.02392335 -0.0059224213 0.002219053 -0.02353449 0.0019696872 0.0076988763
-0.008290317 -0.0021238357 0.004534015 0.018532433 -0.005542419 0.008416645 0.015558871 -0.0032641958
0.006988268 0.017901756 -0.025935117 -0.010126695 -0.019784616 -0.010351938 -0.0066925716 -0.011829549
-0.004453149 0.0071006953 -0.0022762676 -0.011593597 -0.021315945 -0.021946399 -0.009950644 -0.022393608
-0.022201331 -0.011403903 -0.012658985 -0.010114159 -0.00223631 -0.0041513997 -0.0022757915 -0.009228575
-0.009447769 -0.005457323 -0.0044322386 -0.008256857 0.0026171522 -0.017873226 -0.009484965 -0.010484221
-0.016190821 -0.013797826 -0.012775261 -0.018210681 -0.0053429776 -0.0054168147 -0.013890962 -0.013789121
-0.010209865 -0.0035338902 -0.0032769553 -0.0057170573 0.008145726 0.014952854 0.0020246948 -0.005684442
0.009588667 0.0035251079 -0.020729234 0.008555721 0.0060268743 -0.021942828 -0.0034413927 0.0038111524
-0.0276846 -0.02022278 -0.0050257836 -0.011980497 -0.009775544 -0.0037901246 -0.0012014305 -0.0028035354
-0.0039885105
00000000: d949 5bbc b2e4 03bc e7fa c3bc df10 c2bb
00000010: 886d 113b 67cb c0bc de15 013b db46 fc3b
00000020: 1cd4 07bc 0d30 0bbb 1392 943b 54d1 973c
00000030: 2e9d b5bb f8e5 093c a3ea 7e3c 1eec 55bb
00000040: d7fd e43b b4a6 923c e275 d4bc 70ea 25bc
00000050: 5913 a2bc 2d9b 29bc 5c4d dbbb bad0 41bc
00000060: b9eb 91bb f3ac e83b 6f2d 15bb 12f3 3dbc
00000070: c79e aebc efc8 b3bc 0708 23bc cd72 b7bc
00000080: 91df b5bc 70d7 3abc a267 4fbc dcb5 25bc
00000090: 0e8f 12bb 7708 88bb 7225 15bb 7333 17bc
000000a0: d1ca 1abc 58d3 b2bb 503c 91bb c547 07bc
000000b0: 8784 2b3b df6a 92bc d466 1bbc 03c6 2bbc
000000c0: 9da2 84bc 4710 62bc 544f 51bc 912e 95bc
000000d0: 2514 afbb 897f b1bb eb96 63bc c4eb 61bc
000000e0: 4747 27bc d798 67bb 30c2 56bb 2756 bbbb
000000f0: a775 053c d1fc 743c beb0 043b 8e44 babb
00000100: c919 1d3c 7f05 673b 5bd0 a9bc 4b2d 0c3c
00000110: 167d c53b 72c1 b3bc fd88 61bb 87c4 793b
00000120: d0ca e2bc 3eaa a5bc 54af a4bb d949 44bc
00000130: 9a29 20bc bd63 78bb 5179 9dba 85bb 37bb
00000140: 0db2 82bb

bias f4 [3]
-0.00017811896 -0.002608244 -0.0025325734
00000000: 72c5 3ab9 13ef 2abb 88f9 25bb

weight f4 [3]
0.39123446 0.39030534 0.39171496
00000000: e24f c83e 1ad6 c73e dd8e c83e

bias f4 [3]
-0.006711546 -0.0069536474 -0.0068883533
00000000: 87ec dbbb 6cdb e3bb b2b7 e1bb

running_mean f4 [3]
-0.024314318 -0.04626581 -0.02717878
00000000: d22e c7bc 3881 3dbd 08a6 debc

running_var f4 [3]
0.002562116 0.0043909345 0.0026442166
00000000: 2ce9 273b d4e1 8f3b 984a 2d3b

weight f4 [3, 3, 3, 3]
-0.011930198 -0.018811889 0.0033012277 -0.005100711 -0.009221216 0.0060186097 -0.0076215905 -0.013288886
0.0057112714 -0.011710693 -0.024962885 0.0059584025 0.00067720254 -0.014041247 0.011308657 -0.0012714572
-0.009065935 0.0035370172 -0.014425191 -0.01683982 -0.005011411 0.00016107757 -0.009553929 0.0018694777
-0.0038510794 -0.013547903 0.0018532322 -0.026747216 -0.015307806 -0.0011053662 -0.024949584 -0.008838608
-0.0059044636 -0.018712413 -0.009206308 0.0015293234 -0.021208523 -0.0055368473 0.003587484 -0.018097633
-0.00993821 -0.0075665987 -0.023186607 -0.003027599 -0.006394608 -0.028072355 -0.0044866414 -0.004834934
-0.024447246 -0.0027267414 -0.005093359 -0.015474018 0.0016193087 -0.00062172697 -0.0019036724 -0.010072612
-0.004129521 0.005657378 -0.012905082 -0.0009844638 0.0047184136 -0.006988389 0.0019866456 0.0015923962
-0.0052450798 0.0038886587 0.0072989776 -0.013225995 1.8121009e-05 -0.0019507683 -0.010563732 -0.0018223632
0.0013344473 -0.0125739835 -0.0028081562 0.007919976 -0.009895414 -0.0051552076 -2.1865796e-06 -0.009168794
-0.0005888233
00000000: e176 43bc 641b 9abc 6959 583b dd23 a7bb
00000010: 9514 17bc c237 c53b 89be f9bb a1b9 59bc
00000020: 9e25 bb3b 35de 3fbc f77e ccbc b43e c33b
00000030: 4b86 313a 420d 66bc f247 393c 06a7 a6ba
00000040: 4a89 14bc 4dcd 673b a357 6cbc aaf3 89bc
00000050: c336 a4bb eee6 2839 1588 1cbc 4309 f53a
00000060: 6462 7cbb 06f8 5dbc 27e8 f23a fa1c dbbc
00000070: 98cd 7abc efe1 90ba 1263 ccbc cfcf 10bc
00000080: 3b7a c1bb c64a 99bc 0ed6 16bc 9473 c83a
00000090: 7fbd adbc 716e b5bb fe1b 6b3b 7d41 94bc
000000a0: e0d3 22bc 3bf1 f7bb d7f1 bdbc af6a 46bb
000000b0: dc89 d1bb fff7 e5bc ad04 93bb 5e6e 9ebb
000000c0: 9745 c8bc 21b3 32bb 31e6 a6bb bc86 7dbc
000000d0: fc3e d43a 64fb 22ba a584 f9ba 9907 25bc
000000e0: ef50 87bb 8761 b93b d66f 53bc 2009 81ba
000000f0: ec9c 9a3b dbfe e4bb 6232 023b f3b7 d03a
00000100: ebde abbb ded8 7e3b 432c ef3b d8b1 58bc
00000110: 9202 9837 ecb0 ffba 8113 2dbc 5ddc eeba
00000120: 9fe8 ae3a 1c03 4ebc 0b09 38bb c9c2 013c
00000130: 6020 22bc 04ed a8bb 27bd 12b6 b638 16bc
00000140: 435b 1aba

bias f4 [3]
0.0010307144 -0.0033065446 -0.0014059813
00000000: 0919 873a 9db2 58bb e748 b8ba

weight f4 [3]
0.39236125 0.39029104 0.39115542
00000000: 93e3 c83e 3ad4 c73e 8645 c83e

bias f4 [3]
0.01374463 0.006497959 0.0077980203
00000000: 2831 613c d5ec d43b 8986 ff3b

running_mean f4 [3]
-0.023935206 -0.027330361 -0.01739394
00000000: c413 c4bc ece3 dfbc bc7d 8ebc

running_var f4 [3]
0.0010888677 0.0013204417 0.00093537354
00000000: 56b8 8e3a ac12 ad3a db33 753a

weight f4 [3, 3, 3, 3]
-0.008901568 -0.015993299 -0.023671245 -0.010523389 -0.014303114 -0.025879648 -0.0014517084 -0.00065401307
-0.010384612 -0.01687512 -0.01919085 -0.014382299 -0.019373592 -0.024972092 -0.016428534 -0.010680602
-0.022290098 -0.015719429 -0.015053949 -0.017430786 -0.017144239 -0.022795739 -0.02086554 -0.019257609
-0.015574486 -0.00863151 0.00073427113 -0.012189836 -0.006971656 -0.0035973373 -0.014637967 -0.00775355
-0.013438043 -0.005839163 -0.007141082 -0.0117390845 0.0017739171 0.0035581004 0.009768378 0.0062254258
0.00501905 0.006013817 0.0085859625 0.011499792 0.009290826 -0.014175135 -0.009386302 -0.009826762
-0.013192195 -0.012237493 -0.017336424 -0.0062689856 -0.013989284 -0.021622565 -0.016042462 -0.015134596
-0.019829554 -0.028181024 -0.028746644 -0.019046709 -0.013679641 -0.014863222 -0.009084904 -0.026444824
-0.011959369 -0.013111844 -0.024295809 -0.017434685 -0.015342541 -0.013276957 -0.018594634 -0.014903794
-0.014562525 -0.013516603 -0.005991595 -0.031850196 -0.016514765 -0.0031305624 -0.025266904 -0.016319213
0.007917716
00000000: e2d7 11bc 6104 83bc 33ea c1bc 4b6a 2cbc
00000010: 9c57 6abc 8e01 d4bc 4047 beba 1372 2bba
00000020: 3824 2abc b13d 8abc 2136 9dbc bca3 6bbc
00000030: 5eb5 9ebc 4692 ccbc 2295 86bc b1fd 2ebc
00000040: b999 b6bc 08c6 80bc d7a4 76bc 02cb 8ebc
00000050: 1372 8cbc 21be babc 35ee aabc 22c2 9dbc
00000060: 212c 7fbc 2d6b 0dbc 1a7c 403a e1b7 47bc
00000070: 7d72 e4bb 4ec1 6bbb 15d4 6fbc 7e11 febb
00000080: 3d2b 5cbc 7356 bfbb bdff e9bb 4a55 40bc
00000090: c882 e83a 052f 693b 8c0b 203c a8fe cb3b
000000a0: d876 a43b 8e0f c53b 23ac 0c3c a069 3c3c
000000b0: 8c38 183c d33e 68bc 01c9 19bc 6d00 21bc
000000c0: 1424 58bc c47f 48bc 1e05 8ebc 106c cdbb
000000d0: 4f33 65bc ce21 b1bc 7b6b 83bc 19f7 77bc
000000e0: 9771 a2bc e4db e6bc 157e ebbc d807 9cbc
000000f0: 9320 60bc df84 73bc d9d8 14bc d1a2 d8bc
00000100: 3bf1 43bc 0fd3 56bc 0108 c7bc 2fd3 8ebc
00000110: 485f 7bbc 9887 59bc c653 98bc 0b2f 74bc
00000120: a897 6ebc be74 5dbc 2455 c4bb 5a75 02bd
00000130: f949 87bc 1f2a 4dbb 8afc cebc dfaf 85bc
00000140: 4fb9 013c

bias f4 [3]
-0.00020975417 -4.0287363e-05 -4.9371392e-05
00000000: 75f1 5bb9 3afa 28b8 2114 4fb8

weight f4 [3]
0.39140204 0.39105827 0.39072195
00000000: d965 c83e ca38 c83e b50c c83e

bias f4 [3]
-0.002272517 -0.004521029 0.001084109
00000000: 82ee 14bb 2425 94bb a918 8e3a

running_mean f4 [3]
-0.09054665 -0.05338221 -0.09451432
00000000: 8670 b9bd 4ea7 5abd b990 c1bd

running_var f4 [3]
0.011906736 0.007928317 0.013899336
00000000: 7814 433c c6e5 013c 0aba 633c

weight f4 [3, 3, 3, 3]
-0.0057103722 -0.0052640773 0.0011916263 -0.00442035 -0.013672359 -0.0007771199 -0.0017913342 -0.014813617
0.0038623828 -0.011091789 -0.012581736 0.0007005657 -0.01076071 -0.006335421 -0.00043530544 -0.0057669403
-0.0035294746 0.0017831819 -0.000442706 -0.009368031 -0.010247512 -0.00617932 -0.015723135 -0.0061963014
-0.0054963073 -0.011041011 -0.0025723889 -0.004939865 -0.0067970073 0.0050055203 0.0018931928 -0.0042051817
0.005662378 0.0008142536 -0.0025042086 0.007274391 -0.010002833 -0.018676251 -0.003296826 -0.009217698
-0.018634992 -0.004981894 -0.001828261 -0.006896534 -0.0024262078 -0.0016476901 -0.0051024905 0.0011550988
-0.0005480444 -0.00557978 0.0009680734 -0.0034678918 0.0004214027 0.0021614206 0.03598319 0.019518688
0.034950074 0.031088786 0.025502123 0.049760904 0.040395297 0.02709112 0.044829044 0.039598238
0.02463497 0.03547601 0.026472345 0.022000276 0.036738362 0.03102057 0.02766051 0.037527915
0.03905737 0.016673166 0.026878672 0.03874633 0.015132326 0.030669952 0.033696152 0.01877544
0.025698313
00000000: 131e bbbb 487e acbb 5830 9c3a 95d8 90bb
00000010: 0802 60bc a2b7 4bba 34cb eaba d0b4 72bc
00000020: 0820 7d3b 56ba 35bc a023 4ebc 2ba6 373a
00000030: b04d 30bc 5d99 cfbb b539 e4b9 9af8 bcbb
00000040: c24e 67bb a8b9 e93a fe1a e8b9 5f7c 19bc
00000050: 2ee5 27bc e57b cabb cecd 80bc 580a cbbb
00000060: 5e1a b4bb 5be5 34bc 8695 28bb 97de a1bb
00000070: 6eb9 debb 5905 a43b 0225 f83a 9fcb 89bb
00000080: 788b b93b a273 553a a61d 24bb 045e ee3b
00000090: ece2 23bc f0fe 98bc 900f 58bb d405 17bc
000000a0: 69a8 98bc 283f a3bb 42a2 efba 52fc e1bb
000000b0: 0301 1fbb 4ef7 d7ba cb32 a7bb af66 973a
000000c0: a3aa 0fba 96d6 b6bb 4ec6 7d3a 9245 63bb
000000d0: b7ef dc39 9fa6 0d3b 1c63 133d a8e5 9f3c
000000e0: cf27 0f3d e9ad fe3c d4e9 d03c 17d2 4b3d
000000f0: 8a75 253d 32ee dd3c a99e 373d c331 223d
00000100: 47cf c93c 4b4f 113d 88dc d83c ec39 b43c
00000110: f77a 163d da1e fe3c 4b98 e23c dfb6 193d
00000120: 9ffa 1f3d 2a96 883c a930 dc3c 79b4 1e3d
00000130: 93ed 773c 8d3f fb3c fa04 0a3d f4ce 993c
00000140: 4585 d23c

bias f4 [3]
0.00083666743 0.0009659713 -0.00017583554
00000000: cd53 5b3a 3d39 7d3a 7e60 38b9

weight f4 [3]
0.39147398 0.39182627 0.39103174
00000000: 476f c83e 749d c83e 5035 c83e

bias f4 [3]
0.012393749 0.004647585 0.0059239455
00000000: 270f 4b3c c54a 983b a81d c23b

running_mean f4 [3]
-0.023993477 -0.02078043 0.06672285
00000000: f88d c4bc b83b aabc fda5 883d

running_var f4 [3]
0.0013880045 0.00123949 0.0064933253
00000000: b4ed b53a 6276 a23a f6c5 d43b

weight f4 [3, 3, 3, 3]
-0.028140172 -0.017168934 0.013881102 -0.027932245 -0.017682984 0.011508517 -0.02469984 -0.009041267
0.016139599 -0.0007301021 -0.011694532 0.0069987685 -0.0072710565 -0.022252131 -0.0003367448 -0.002596235
-0.012662611 0.002726647 -0.011274905 -0.011431857 -0.015713302 -0.013977507 -0.014822108 -0.012331484
-0.013477235 -0.01329181 -0.009468384 0.0037531375 0.008056482 0.0073003354 0.0073487707 0.010829524
0.0072923447 0.004905736 0.01110341 0.010462101 0.00038597637 0.0063313893 0.008603851 -0.0040100496
0.003121832 0.0045625865 -0.0071084513 0.007948827 -0.0031489788 -0.007006933 -0.0018657851 0.0039640223
-0.002824094 0.002366339 0.004236092 0.0007615503 0.004483097 0.007952741 0.029950924 0.020883894
0.007181327 0.030957958 0.026443677 9.6281845e-05 0.036714204 0.029621616 0.0033122036 -0.0029505924
-0.0012968412 0.0009437962 -0.0042603295 -0.0024751753 0.0042432845 -0.0008471674 -0.005815508 0.004119734
0.02299897 0.010518202 0.006335757 0.035683315 0.013397895 0.00903972 0.026448578 0.009301714
-0.003338705
00000000: 3886 e6bc dda5 8cbc 906d 633c 2ad2 e4bc
00000010: e8db 90bc 388e 3c3c 5257 cabc d321 14bc
00000020: 3137 843c 5364 3fba 6c9a 3fbc ed55 e53b
00000030: 0b42 eebb 1a4a b6bc 1f8d b0b9 9825 2abb
00000040: d776 4fbc 8cb1 323b 61ba 38bc af4c 3bbc
00000050: 2fb9 80bc ea01 65bc 6dd8 72bc fe09 4abc
00000060: 9fcf 5cbc e4c5 59bc 4821 1bbc 33f7 753b
00000070: 56ff 033c a737 ef3b f5cd f03b 516e 313c
00000080: 9ff4 ee3b 4cc0 a03b 14eb 353c 3b69 2b3c
00000090: df5c ca39 8b77 cf3b 2bf7 0c3c bc66 83bb
000000a0: a697 4c3b c081 953b 03ee e8bb cc3b 023c
000000b0: 195f 4ebb 6a9a e5bb 5c8d f4ba a1e4 813b
000000c0: 6f14 39bb 9514 1b3b eace 8a3b c7a2 473a
000000d0: f1e6 923b 374c 023c a45b f53c b314 ab3c
000000e0: 5651 eb3b 8b9b fd3c 69a0 d83c ecea c938
000000f0: a261 163d 08a9 f23c 8e11 593b ba5e 41bb
00000100: c5fa a9ba 1769 773a 3c9a 8bbb 8d36 22bb
00000110: 400b 8b3b 7114 5eba 0490 bebb d5fe 863b
00000120: 5668 bc3c 8954 2c3c 2f9c cf3b ab28 123d
00000130: d882 5b3c 551b 143c b0aa d83c 3766 183c
00000140: 2dce 5abb

bias f4 [3]
-0.0005459682 6.787981e-05 0.0041914615
00000000: 4e1f 0fba b25a 8e38 8758 893b

weight f4 [3]
0.39127085 0.39091834 0.39090806
00000000: a754 c83e 7326 c83e 1a25 c83e

bias f4 [3]
0.012584685 -0.00024938348 -0.00082295947
00000000: ff2f 4e3c afbf 82b9 e0bb 57ba

running_mean f4 [3]
-0.007937996 0.052647483 0.08288821
00000000: 5e0e 02bc e3a4 573d 4bc1 a93d

running_var f4 [3]
0.003703855 0.0067716315 0.013439721
00000000: 60bc 723b 90e4 dd3b 4732 5c3c

weight f4 [3, 3, 3, 3]
-0.017884 0.002167608 0.011063614 -0.0150370905 -0.0014431999 0.011024006 -0.019908909 -0.009554492
0.0042169206 -0.009528979 -0.01387604 -0.0062958063 -0.013234547 -0.013182273 -0.0036633222 -0.014534029
-0.009644547 0.004863268 -0.01014389 -0.008237029 -0.012134145 -0.009970097 -0.01153399 -0.010026899
-0.014036592 -0.010227146 -0.005059223 0.0024557314 0.0056392173 -0.008688624 0.010248388 -0.0018379627
-0.008434225 0.008056555 -0.00023673443 -0.011942143 -0.0062041646 0.0027580028 0.015489458 0.004551108
0.011807704 0.018342631 -0.0019611213 0.007379301 0.013324123 -0.007161209 0.00017757107 0.017038148
-0.005160797 -0.003660953 0.021492625 -0.008058202 0.0007469993 0.019662576 0.011539934 0.0099949315
0.009894686 0.009591283 0.018559897 0.012715391 0.011557629 0.01800784 0.019529074 -0.0091376165
-0.0174297 -0.002444896 -0.008745808 -0.015294047 -0.01316506 -0.0056166695 -0.0115555925 -0.015114703
2.8620017e-05 0.00026973526 -0.0013565092 -0.00828754 -0.004453387 -0.0031851004 -0.008548095 -0.011596375
-0.007807853
00000000: 7781 92bc 6d0e 0e3b 2944 353c 215e 76bc
00000010: c129 bdba 089e 343c 0218 a3bc 728a 1cbc
00000020: 182e 8a3b 6f1f 1cbc 5458 63bc 0d4d cebb
00000030: b7d5 58bc 76fa 57bc 5914 70bb 2320 6ebc
00000040: 2904 1ebc 0d5c 9f3b 8f32 26bc 9bf4 06bc
00000050: 4bce 46bc 9e59 23bc 0ff9 3cbc dd47 24bc
00000060: bcf9 65bc c28f 27bc d7c7 a5bb 56f0 203b
00000070: 2fc9 b83b bb5a 0ebc dbe8 273c cbe7 f0ba
00000080: b42f 0abc a4ff 033c ea3b 78b9 faa8 43bc
00000090: 4e4c cbbb 9cbf 343b 7fc7 7d3c 7621 953b
000000a0: 1a75 413c 4943 963c 2886 00bb 10ce f13b
000000b0: 6c4d 5a3c 93a8 eabb 5f32 3a39 9693 8b3c
000000c0: e71b a9bb 99ec 6fbb 4d11 b03c 8d06 04bc
000000d0: 46d2 433a 6913 a13c fe11 3d3c c8c1 233c
000000e0: 521d 223c c224 1d3c ed0a 983c 3754 503c
000000f0: 365c 3d3c 2d85 933c 70fb 9f3c f1b5 15bc
00000100: bbc8 8ebc 8c3a 20bb 944a 0fbc e293 7abc
00000110: 44b2 57bc 0a0c b8bb ab53 3dbc a9a3 77bc
00000120: 0515 f037 416b 8d39 e5cc b1ba 76c8 07bc
00000130: b8ed 91bb 1ebd 50bb 4f0d 0cbc b9fe 3dbc
00000140: 05d9 ffbb

bias f4 [3]
0.0010308243 -0.0019634224 -0.0022818693
00000000: b91c 873a c3ac 00bb 6a8b 15bb

weight f4 [3]
0.38971162 0.3903269 0.39143616
00000000: 4888 c73e edd8 c73e 526a c83e

bias f4 [3]
0.00497026 0.0039986614 0.00035958682
00000000: 90dd a23b 3407 833b ed86 bc39

running_mean f4 [3]
-0.025954263 0.022222912 -0.014036902
00000000: 099e d4bc d30c b63c 09fb 65bc

running_var f4 [3]
0.0026638021 0.002987099 0.0021239219
00000000: 2f93 2e3b 35c3 433b 7f31 0b3b

weight f4 [3, 3, 3, 3]
-0.010049985 0.0057222173 -0.0060401876 -0.012963645 0.002974764 -0.007993418 -0.008305751 -0.0020158587
-0.00277115 -0.019228976 -0.002853077 -0.009440226 -0.029134229 0.0024110002 -0.009452132 -0.021533038
0.010478936 -0.0029614363 0.001962778 0.0015408426 -0.0053253276 -0.0024343806 0.0015650591 0.003938612
0.0020341254 0.0056177177 0.008431796 -0.00018126231 -0.0056635016 -0.008433414 0.00081071653 -0.0030495343
-0.015899453 0.016055442 0.0123746395 0.0012965701 -0.015051001 -0.022886269 -0.021551123 -0.013098455
-0.017734166 -0.018409552 -0.002614157 -0.004991983 -0.010282124 0.004016759 0.004028559 -0.002312077
0.005602545 0.0041931653 -0.0065176515 0.013368162 0.0044388575 -0.004721018 -0.027318684 -0.009014255
-0.0065013473 -0.011327314 0.01738029 0.019012146 -0.008107514 0.01943352 0.025143513 -0.010924785
-0.007271754 -0.018674875 -0.0035062206 0.004110591 -0.0035066807 -0.0027003316 0.009821213 0.01127297
-0.011886393 -0.007390601 0.0053179706 -0.0075992728 -0.0030898296 0.0106263375 -0.0077976123 -0.0032195575
0.013272201
00000000: b1a8 24bc 7081 bb3b c4ec c5bb 7865 54bc
00000010: 42f4 423b d3f6 02bc d814 08bc 7f1c 04bb
00000020: 2f9c 35bb 1686 9dbc b0fa 3abb 2dab 1abc
00000030: e8aa eebc df01 1e3b 1ddd 1abc 0e66 b0bc
00000040: d8af 2b3c a814 42bb f3a1 003b 19f6 c93a
00000050: 1680 aebb 218a 1fbb ab22 cd3a 790f 813b
00000060: f64e 053b d514 b83b 8425 0a3c 3b11 3eb9
00000070: e594 b9bb 4d2c 0abc 4486 543a b2da 47bb
00000080: 923f 82bc b486 833c 00bf 4a3c acf1 a93a
00000090: 7998 76bc fc7b bbbc fb8b b0bc e79a 56bc
000000a0: 3e47 91bc a1cf 96bc 4752 2bbb ca93 a3bb
000000b0: 5b76 28bc 049f 833b 0102 843b 3786 17bb
000000c0: 8e95 b73b d266 893b 0692 d5bb 2306 5b3c
000000d0: d673 913b c5b2 9abb 6fcb dfbc 87b0 13bc
000000e0: 4109 d5bb 3396 39bc 1c61 8e3c 5cbf 9b3c
000000f0: 61d5 04bc 0c33 9f3c c5f9 cd3c dffd 32bc
00000100: e547 eebb 0dfc 98bc 9fc8 65bb 23b2 863b
00000110: 57d0 65bb 0cf8 30bb 27e9 203c 43b2 383c
00000120: 25bf 42bc db2c f2bb 5f42 ae3b 5203 f9bb
00000130: bd7e 4abb 171a 2e3c 1d83 ffbb 36ff 52bb
00000140: a573 593c

bias f4 [3]
0.00017288716 -0.0003183836 0.0010697098
00000000: 0b49 3539 b9ec a6b9 8135 8c3a

weight f4 [3]
0.39070174 0.39120865 0.39117447
00000000: 0f0a c83e 804c c83e 0548 c83e

bias f4 [3]
-0.00037013312 -0.005488832 0.0076360246
00000000: 6d0e c2b9 a9db b3bb 9e37 fa3b

running_mean f4 [3]
-0.10533864 -0.028007599 -0.03382247
00000000: c9bb d7bd 3170 e5bc 6e89 0abd

running_var f4 [3]
0.0099129975 0.0039036963 0.0036223028
00000000: 206a 223c 28d5 7f3b 2864 6d3b

weight f4 [3, 3, 3, 3]
-0.0049268454 -0.008333287 -0.0008407591 -0.016595315 -0.015380606 -0.0013469125 -0.012497449 -0.008482915
0.003846639 -0.011561578 -0.014549505 -0.009725418 -0.011572566 -0.016040228 -0.0027797734 -0.012664152
-0.010700822 -0.0028740924 0.0028930458 -0.0008310677 -0.0036074673 -0.0069621983 -0.00966472 0.0050136647
-0.0042074444 -0.008607856 0.007072105 -0.023604028 -0.027975315 -0.023920054 -0.023114782 -0.038207985
-0.030436741 -0.013567225 -0.030595154 -0.01992327 -0.028605003 -0.034013774 -0.036586232 -0.02651161
-0.04228518 -0.040922385 -0.03334368 -0.035284642 -0.042886198 -0.00421901 -0.013665423 0.0032881454
-0.0006316149 -0.025890358 -0.0008490189 -0.009187643 -0.022996493 -0.0060852077 1.9433799e-05 -0.004146458
-0.008547424 -0.0017455945 -0.00712485 -0.0049502845 -0.002227971 -0.0036523966 -0.012672014 -0.004284715
-0.0041001774 -0.007826396 -0.010675585 -0.0049494044 -0.0043150946 -0.0054278355 0.0004162672 -0.0005036938
0.010111647 0.0051961904 0.003501823 0.011512751 0.0038024622 0.0005270413 0.0041555157 0.0060731517
0.0010883309
00000000: 6071 a1bb 5788 08bc 6366 5cba e6f2 87bc
00000010: f0fe 7bbc e28a b0ba 1ac2 4cbc edfb 0abc
00000020: e517 7c3b c66c 3dbc 0c61 6ebc 5c57 1fbc
00000030: dc9a 3dbc cc66 83bc dc2c 36bb 4e7d 4fbc
00000040: 8052 2fbc 455b 3cbb 4199 3d3b 02dc 59ba
00000050: 426b 6cbb 2723 e4bb c658 1ebc ab49 a43b
00000060: 9ade 89bb f707 0dbc 1ebd e73b 3c5d c1bc
00000070: 7d2c e5bc fdf3 c3bc 365b bdbc fa7f 1cbd
00000080: 7956 f9bc 1149 5ebc b0a2 fabc 2036 a3bc
00000090: 0a55 eabc 0752 0bbd 72db 15bd e02e d9bc
000000a0: 3a33 2dbd 3b9e 27bd 6293 08bd a186 10bd
000000b0: 70a9 2fbd 9f3f 8abb f0e4 5fbc ed7d 573b
000000c0: f592 25ba 0418 d4bc b290 5eba c587 16bc
000000d0: 2463 bcbc 6c66 c7bb c405 a337 03df 87bb
000000e0: 7f0a 0cbc 6fcc e4ba 9377 e9bb ff35 a2bb
000000f0: 2703 12bb 0c5d 6fbb 479e 4fbc cb66 8cbb
00000100: c85a 86bb 493a 00bc a6e8 2ebc 9d2e a2bb
00000110: a365 8dbb fcdb b1bb 703e da39 520a 04ba
00000120: 52ab 253c ce44 aa3b d77e 653b fa9f 3c3c
00000130: bb32 793b 2529 0a3a fe2a 883b 4a01 c73b
00000140: 53a6 8e3a

bias f4 [3]
-1.4829384e-05 -0.00039600296 9.328263e-05
00000000: b8cb 78b7 9e9e cfb9 bba0 c338

weight f4 [3]
0.3922499 0.39151022 0.39041555
00000000: fbd4 c83e 0774 c83e 8ce4 c73e

bias f4 [3]
0.0055658226 0.004039608 0.0025186238
00000000: 8161 b63b b05e 843b 7f0f 253b

running_mean f4 [3]
-0.023368482 -0.05570071 -0.028296506
00000000: 426f bfbc 6d26 64bd 13ce e7bc

running_var f4 [3]
0.0012067927 0.004260761 0.0018112146
00000000: 3e2d 9e3a db9d 8b3b 4766 ed3a

weight f4 [3, 3, 3, 3]
-0.018544963 -0.0203269 -0.016011197 -0.010771798 -0.008372649 -0.0020051468 -0.013894758 -0.012285891
-0.007251647 -0.012569087 -0.012789594 -0.006886726 -0.010873766 -0.009596704 -0.0112739615 -0.012833513
-0.008660906 -0.003440221 -0.0019892605 -0.001817274 0.0027084134 0.0064922306 -0.0015476207 0.0031348667
0.0063901437 0.0056544794 0.006725355 0.026622735 0.03318486 0.039337013 0.024458334 0.022581311
0.038859483 0.019274916 0.021759693 0.04120364 0.0069813994 0.014731597 0.029623378 -0.009762016
0.0024173926 0.024693804 -0.010109099 -0.0068662963 0.021862587 0.027479336 0.03899211 0.03157652
0.03235576 0.046282914 0.03335512 0.028428977 0.034885097 0.035192482 -0.01379074 -0.00207964
0.0003517801 -0.027451238 -0.02296066 -0.02211702 -0.015825218 -0.014257102 -0.010101353 -0.0012000388
-0.0029370463 0.0007071702 -0.0055676303 -0.0077960324 -0.0057110963 -0.0057462463 -0.006446514 -0.015202327
-0.0058783903 -0.00040353395 -0.0027325198 -0.02056225 -0.01446835 -0.012867562 -0.015574695 -0.011172684
-0.009936353
00000000: 9beb 97bc 9984 a6bc ea29 83bc 327c 30bc
00000010: 6f2d 09bc c868 03bb d7a6 63bc c34a 49bc
00000020: 399f edbb 92ee 4dbc 728b 51bc 0baa e1bb
00000030: e127 32bc 7e3b 1dbc 6cb6 38bc a843 52bc
00000040: 79e6 0dbc 5575 61bb 415e 02bb 9931 eeba
00000050: a37f 313b c7bc d43b 89d9 caba 5672 4d3b
00000060: 6964 d13b 3649 b93b 5e60 dc3b ec17 da3c
00000070: d9ec 073d d91f 213d d85c c83c 71fc b83c
00000080: 1f2b 1f3d 6ee6 9d3c 6241 b23c 26c5 283d
00000090: 39c4 e43b cc5c 713c baac f23c ddf0 1fbc
000000a0: 1e6d 1e3b a94a ca3c a2a0 25bc abfe e0bb
000000b0: 2b19 b33c 581c e13c 31b6 1f3d 6256 013d
000000c0: 7987 043d 2793 3d3d 619f 083d e3e3 e83c
000000d0: ade3 0e3d fe25 103d 8ef2 61bc 924a 08bb
000000e0: 206f b839 6be1 e0bc fe17 bcbc c12e b5bc
000000f0: e3a3 81bc 9f96 69bc 2580 25bc 9f4a 9dba
00000100: 767b 40bb 6461 393a ab70 b6bb dc75 ffbb
00000110: 2624 bbbb 024b bcbb 473d d3bb 2e13 79bc
00000120: 839f c0bb 6991 d3b9 1314 33bb 2a72 a8bc
00000130: a90c 6dbc 77d2 52bc 012d 7fbc a20d 37bc
00000140: 16cc 22bc

bias f4 [3]
0.0015654765 -0.0005505201 0.0013604581
00000000: ad30 cd3a c750 10ba 6651 b23a

weight f4 [3]
0.38936007 0.39103794 0.3927529
00000000: 345a c73e 2036 c83e e816 c93e

bias f4 [3]
-0.002885107 -0.002007632 0.005274765
00000000: 1014 3dbb 7a92 03bb f0d7 ac3b

running_mean f4 [3]
-0.13694261 0.1743306 -0.113578714
00000000: af3a 0cbe b983 323e f59b e8bd

running_var f4 [3]
0.026704408 0.043449 0.016283764
00000000: 34c3 da3c 94f7 313d 8765 853c

weight f4 [3, 3, 3, 3]
-0.0011445023 -0.013991327 -0.009923938 -0.0065335 -0.020482456 -0.018291807 -0.00959531 -0.017772736
-0.017595654 0.0040722643 0.0024797434 -0.00028054434 0.003541505 -0.0057289265 -0.0058041066 0.004240894
-0.0076280055 -0.006414394 -0.014973608 -0.014536912 -0.0005020739 -0.03311969 -0.028396517 -0.012561365
-0.029490141 -0.031726837 -0.007000897 -0.0077096005 -0.0068057226 -0.00942741 -0.0096023865 -0.016738433
-0.016173465 -0.010547133 -0.016157843 -0.012194102 -0.04900053 -0.0072169313 -0.005169473 -0.04420076
0.0014247125 -0.0119006485 -0.028438635 -0.00773971 -0.02023288 -0.0006974299 -0.01300129 -0.003453568
0.00041605625 -0.018157851 -0.00871586 0.0046048504 -0.011747885 -0.013374242 0.003920057 -0.0019273588
-0.011311569 0.00776408 0.0062773703 -0.0034229269 0.00498146 0.0037683619 -0.008807191 -0.001977836
-0.003674692 0.006143279 -0.015582243 -0.001968313 0.009083647 -0.016157677 0.00017542136 0.0030357628
-0.013231187 -0.01796794 -0.021423513 -0.009285885 -0.022228172 -0.023667227 -0.008116698 -0.021916648
-0.019615587
00000000: 2003 96ba e13b 65bc 0398 22bc f816 d6bb
00000010: d3ca a7bc b3d8 95bc a635 1dbc 2198 91bc
00000020: c324 90bc a170 853b 3183 223b 0616 93b9
00000030: 9818 683b b8b9 bbbb 6030 bebb 33f7 8a3b
00000040: 59f4 f9bb d62f d2bb dd53 75bc 3a2c 6ebc
00000050: 9c9d 03ba 83a8 07bd d09f e8bc 2fce 4dbc
00000060: 4f95 f1bc 00f4 01bd c867 e5bb d1a0 fcbb
00000070: 8a02 dfbb 6c75 1abc 5453 1dbc 0a1f 89bc
00000080: 377e 84bc e2cd 2cbc 745d 84bc c5c9 47bc
00000090: c8b4 48bd 027c ecbb af64 a9bb db0b 35bd
000000a0: 6bbd ba3a f0fa 42bc 24f8 e8bc 659d fdbb
000000b0: 6dbf a5bc bad3 36ba 5d03 55bc 4255 62bb
000000c0: 2022 da39 c6bf 94bc f7cc 0ebc 49e4 963b
000000d0: 337a 40bc a31f 5bbc d273 803b 6e9f fcba
000000e0: 2954 39bc d369 fe3b 66b2 cd3b 2f53 60bb
000000f0: 843b a33b 9ff6 763b 094c 10bc 959e 01bb
00000100: 1ad3 70bb 8f4d c93b aa4c 7fbc d0fe 00bb
00000110: 94d3 143c 1b5d 84bc 50f1 3739 a6f3 463b
00000120: 9fc7 58bc 8031 93bc 5d80 afbc d323 18bc
00000130: db17 b6bc c6e1 c1bc e6fb 04bc 8b8a b3bc
00000140: deb0 a0bc

bias f4 [3]
-0.00060494075 -0.0009443215 -0.0002327866
00000000: e394 1eba 588c 77ba 2d18 74b9

weight f4 [3]
0.39120254 0.39028177 0.39025956
00000000: b34b c83e 03d3 c73e 1ad0 c73e

bias f4 [3]
0.004099156 -0.0031308942 0.008160736
00000000: 3652 863b b02f 4dbb 9cb4 053c

running_mean f4 [3]
-0.03196376 -0.020732235 -0.027421849
00000000: 6eec 02bd a6d6 a9bc c9a3 e0bc

running_var f4 [3]
0.0023023617 0.0018557693 0.0011862314
00000000: 38e3 163b 493d f33a 527b 9b3a

weight f4 [3, 3, 3, 3]
-0.00060573267 -0.0024263142 -0.004427845 0.0062086885 -0.0002109375 0.004716335 0.005876164 0.008139173
0.02067356 -0.015635477 -0.011769585 -0.006088549 -0.008475203 -0.0033100108 -0.00086317095 -0.0022351171
0.007647882 0.016535899 0.029304093 0.012238813 0.0005370984 0.028571947 0.017876567 0.0015425917
0.027045403 0.018353669 0.011365614 -0.00092110416 -0.008961682 -0.01119589 -0.0024705771 -0.009116788
-0.010873452 -0.0018058147 -0.0011080331 -0.004929043 -0.015316208 -0.026538026 -0.017129282 -0.014328197
-0.02412712 -0.013700296 -0.00888973 -0.018770909 -0.014546334 0.006041235 0.000873673 -0.003878954
0.006883591 0.00073235726 -0.00424262 0.010335033 0.0047541615 0.00560066 -0.0054313736 0.0075278017
0.014087713 -0.008489023 0.0015212755 0.018013515 -0.009544555 0.003290496 0.015693275 -0.012445448
-0.013068444 0.0082846265 -0.01265579 -0.009046487 0.013762302 -0.009352074 -0.014907413 0.010702201
0.01669229 0.009328986 0.014351909 0.015230166 0.00784066 0.016164172 0.015661068 0.011666409
0.014287069
00000000: 08ca 1eba cc02 1fbb 7517 91bb 4172 cb3b
00000010: 1b2f 5db9 7c8b 9a3b d68c c03b 2a5a 053c
00000020: 995b a93c f915 80bc 38d5 40bc 7382 c7bb
00000030: 94db 0abc c4ec 58bb 6c46 62ba 0b7b 12bb
00000040: 169b fa3b 4b76 873c 230f f03c 4d85 483c
00000050: 10cc 0c3a b70f ea3c e171 923c ca30 ca3a
00000060: 528e dd3c 6f5a 963c d736 3a3c 4176 71ba
00000070: 05d4 12bc f76e 37bc 68e9 21bb 955e 15bc
00000080: 9026 32bc 16b1 ecba 6c3b 91ba cf83 a1bb
00000090: d5f0 7abc 4666 d9bc b552 8cbc d0c0 6abc
000000a0: 3da6 c5bc 3577 60bc 3ba6 11bc 73c5 99bc
000000b0: bf53 6ebc 8df5 c53b 3407 653a 0d36 7ebb
000000c0: bf8f e13b aafb 3f3a ad05 8bbb 4554 293c
000000d0: ccc8 9b3b be85 b73b aaf9 b1bb c7ab f63b
000000e0: 27d0 663c 8b15 0bbc 8965 c73a 1491 933c
000000f0: c460 1cbc 5da5 573b 2f8f 803c fee7 4bbc
00000100: 071d 56bc 3ebc 073c 3b5a 4fbc b737 14bc
00000110: 477b 613c 7139 19bc 393e 74bc 4958 2f3c
00000120: 45be 883c 9ad8 183c 4524 6b3c f287 793c
00000130: 1d76 003c ba6a 843c a44b 803c 7724 3f3c
00000140: 5014 6a3c

bias f4 [3]
-0.004305011 0.00011062435 -0.00010583442
00000000: 0d11 8dbb fffe e738 6cf3 ddb8

weight f4 [3]
0.3910002 0.39084256 0.3913699
00000000: 2e31 c83e 841c c83e a361 c83e

bias f4 [3]
0.0016677259 0.0023526186 0.0071042674
00000000: 9897 da3a 642e 1a3b eaca e83b

running_mean f4 [3]
0.06278963 -0.033217374 0.074168615
00000000: d997 803d f10e 08bd b7e5 973d

running_var f4 [3]
0.008862855 0.010163744 0.010978255
00000000: 8235 113c d585 263c 24de 333c

weight f4 [3, 3, 3, 3]
0.023092654 -0.00676315 -0.0280381 0.019630572 -0.012694435 -0.03633375 0.015707986 -0.010740022
-0.023475412 0.008382108 -0.00821222 -0.01983187 0.015373964 -0.012746664 -0.023524303 0.021622328
-0.012119359 -0.018732911 0.012384595 -0.0037235948 -0.006561062 0.009682419 -0.008088499 -0.02014998
0.011594275 -0.006303453 -0.020040365 -0.0042479024 -0.005617077 0.008017405 0.0018206878 0.0033831357
0.0037460104 -0.008322557 -0.0035319661 -0.0040822336 0.0049027367 0.0032725402 -0.0031370858 0.00837817
-4.2245923e-05 -0.0034735126 0.007264253 -0.0010762642 -0.0029872344 -0.0025772336 0.012068407 0.017673062
-0.0038119266 0.009167395 0.017925685 -0.0016612618 0.0060708537 0.01665571 -0.025992027 -0.017792733
-0.009368652 -0.029352542 -0.023219427 -0.010559201 -0.0284688 -0.020040656 -0.011757954 -0.021185799
-0.00911087 -0.0042841677 -0.02652801 -0.010501058 -0.0015751561 -0.019709669 -0.012642047 0.0014436196
-0.028762957 -0.017917264 -0.008510663 -0.031270605 -0.024849888 -0.009557829 -0.024576599 -0.017493699
-0.006441726
00000000: ce2c bd3c 6a9d ddbb 28b0 e5bc 4bd0 a03c
00000010: 52fc 4fbc b3d2 14bd 09ae 803c ebf6 2fbc
00000020: 824f c0bc 1c55 093c 8c8c 06bc 7276 a2bc
00000030: 14e3 7b3c 62d7 50bc 0ab6 c0bc 4f21 b13c
00000040: 4790 46bc c375 99bc c2e8 4a3c 8e07 74bb
00000050: 2dfe d6bb 02a3 1e3c a085 04bc 9211 a5bc
00000060: eaf5 3d3c 328d cebb b12b a4bc fd31 8bbb
00000070: 750f b8bb 6f5b 033c 25a4 ee3a 99b7 5d3b
00000080: a07f 753b 565b 08bc 8f78 67bb 42c4 85bb
00000090: 23a7 a03b 1d78 563b 9197 4dbb 9844 093c
000000a0: 3731 31b8 dfa3 63bb f908 ee3b 6f11 8dba
000000b0: 7ac5 43bb cee6 28bb 91ba 453c 19c7 903c
000000c0: 84d1 79bb d732 163c e3d8 923c b2be d9ba
000000d0: 03ee c63b 8e71 883c 3bed d4bc 11c2 91bc
000000e0: f97e 19bc be74 f0bc ab36 bebc 8000 2dbc
000000f0: 6737 e9bc 4d2c a4bc 6fa4 40bc d78d adbc
00000100: c245 15bc 3462 8cbb 4551 d9bc a10c 2cbc
00000110: 7875 ceba 2c76 a1bc 9720 4fbc d637 bd3a
00000120: 4ba0 ebbc 3ac7 92bc 4f70 0bbc 9b15 00bd
00000130: fe91 cbbc 7198 1cbc dd54 c9bc f24e 8fbc
00000140: 1d15 d3bb

bias f4 [3]
0.0009759187 0.00012640469 0.0026378364
00000000: ccd4 7f3a 808b 0439 8ddf 2c3b

weight f4 [3]
0.38948202 0.39211202 0.3907448
00000000: 306a c73e e8c2 c83e b40f c83e

bias f4 [3]
0.005115422 0.0003836955 -0.0012227912
00000000: 459f a73b bd2a c939 1046 a0ba

running_mean f4 [3]
-0.020450234 0.030384889 -0.051322937
00000000: 4087 a7bc bbe9 f83c 0038 52bd

running_var f4 [3]
0.0018234622 0.002772038 0.0031804575
00000000: 3d01 ef3a 15ab 353b 396f 503b

weight f4 [3, 3, 3, 3]
0.00031051468 -0.008026222 -0.018445347 -0.007927806 -0.004107627 -0.024948353 -0.0029275974 -0.0122257685
-0.021318117 -0.014695269 -0.014068947 -0.021470986 -0.016733967 -0.022427732 -0.024533292 -0.01703825
-0.014181239 -0.016054858 -0.0066997157 -0.009868729 -0.016400278 -0.013800837 -0.01815677 -0.017635915
0.0012547314 -0.012543159 -0.011944697 -0.025878504 -0.011886341 0.0082452465 -0.02655801 -0.012564394
0.0020212308 -0.027543947 -0.013382597 0.00200976 -0.018921083 -0.0012633541 0.010736791 -0.031642828
-0.0021901769 0.0006816607 -0.036722224 -0.009572324 -0.010679785 0.011431472 0.021682113 0.014172489
0.004447965 0.017809056 0.016045814 -0.0014017428 0.017363254 0.012669404 -0.014559253 -0.019087477
-0.009640248 -0.024616651 -0.029954016 -0.017326549 -0.015570557 -0.027653001 -0.017502049 -0.024394328
-0.008220894 -0.007171842 -0.027623948 -0.018702371 -0.013283243 -0.01654501 -0.014277418 -0.00973497
0.023293722 0.02350066 0.01871091 0.028945945 0.026452487 0.019929629 0.038778808 0.02857566
0.022934632
00000000: 93cc a239 6a80 03bc b21a 97bc a1e3 01bc
00000010: 4699 86bb 7d60 ccbc efdc 3fbb 974e 48bc
00000020: 55a3 aebc 6dc4 70bc 7181 66bc ece3 afbc
00000030: ac15 89bc 5dba b7bc 0bfa c8bc cd93 8bbc
00000040: 6d58 68bc 7a85 83bc 4a89 dbbb 73b0 21bc
00000050: e059 86bc e81c 62bc 82bd 94bc 3279 90bc
00000060: cd75 a43a d281 4dbc b1b3 43bc 28ff d3bc
00000070: edbe 42bc 1217 073c 2f90 d9bc e3da 4dbc
00000080: a076 043b d8a3 e1bc ae42 5bbc 2db6 033b
00000090: 6300 9bbc 2197 a5ba 5ee9 2f3c e99b 01bd
000000a0: 1289 0fbb 7ab1 323a 0b6a 16bd 3dd5 1cbc
000000b0: 44fa 2ebc 124b 3b3c b09e b13c ba33 683c
000000c0: 3cc0 913b 4ce4 913c 8372 833c afba b7ba
000000d0: 623d 8e3c 5593 4f3c ef89 6ebc 575d 9cbc
000000e0: 21f2 1dbc dca8 c9bc 2062 f5bc 68f0 8dbc
000000f0: a61b 7fbc 8c88 e2bc 7560 8fbc 9dd6 c7bc
00000100: eeb0 06bc c501 ebbb 9e4b e2bc b735 99bc
00000110: f6a1 59bc 6789 87bc d5eb 69bc 6c7f 1fbc
00000120: 7ad2 be3c 7584 c03c 9f47 993c 0c20 ed3c
00000130: e3b2 d83c 7643 a33c 87d6 1e3d 8117 ea3c
00000140: 69e1 bb3c

bias f4 [3]
0.0027814617 0.0026843022 -0.002801491
00000000: 2f49 363b 1eeb 2f3b 3899 37bb

weight f4 [3]
0.3914876 0.39090765 0.39075893
00000000: 1071 c83e 0c25 c83e 8e11 c83e

bias f4 [3]
-0.00367319 -0.0144234495 0.0073354305
00000000: e7b9 70bb 5550 6cbc 0d5e f03b

running_mean f4 [3]
-0.15468717 0.0020065315 -0.18888061
00000000: 5066 1ebe 0380 033b eb69 41be

running_var f4 [3]
0.041443877 0.013673762 0.0990599
00000000: 0ec1 293d ea07 603c ebdf ca3d

weight f4 [3, 3, 3, 3]
6.597715e-05 -0.006841518 -0.0076491423 -0.0011504941 -0.0014513512 -0.004291447 0.0029808185 0.0031221074
0.00068128295 0.010828576 0.02200529 0.01702686 0.0036514315 0.01840898 0.014589074 0.0018653829
0.013018575 0.015007113 -0.016803881 -0.021338781 -0.011549882 -0.033873446 -0.027548248 -0.008960756
-0.03805329 -0.0343721 -0.015017339 0.004783365 -0.012453608 -0.0006897046 0.010205632 -0.016002135
-0.0013605842 0.00926765 -0.01059394 0.000931035 0.005345597 0.0073465295 0.010895672 0.01209382
0.012450464 0.022281345 0.0116005605 0.01867404 0.015673192 0.0013640999 0.0009871922 -0.00934893
4.391445e-05 -0.0023898424 -0.009907112 -0.0039037091 -0.009892488 -0.016841186 -0.009840045 0.00039095257
0.00040368226 -0.0075954194 -0.0002623206 6.835656e-05 -0.0053997235 -0.0001399524 0.0011288411 -0.024493586
-0.022458907 -0.013119094 -0.028721787 -0.027629688 -0.01901647 -0.022618368 -0.022553472 -0.015707983
0.00233917 0.003327689 0.0032139777 0.0053131357 0.011240745 0.004036641 0.014937861 0.013621037
0.004208903
00000000: 365d 8a38 d02e e0bb a8a5 fabb 2dcc 96ba
00000010: 443b beba 449f 8cbb d659 433b 459c 4c3b
00000020: 2098 323a 576a 313c 7044 b43c ea7b 8b3c
00000030: db4c 6f3b 6ece 963c 0307 6f3c dd7f f43a
00000040: dc4b 553c 65e0 753c 4ba8 89bc abce aebc
00000050: b73b 3dbc e2be 0abd ddac e1bc 22d0 12bc
00000060: c4dd 1bbd c2c9 0cbd 490b 76bc c6bd 9c3b
00000070: 380a 4cbc 4bcd 34ba 8635 273c e916 83bc
00000080: a155 b2ba 57d7 173c 3492 2dbc b410 743a
00000090: 1e2a af3b 28bb f03b c383 323c 2825 463c
000000a0: 08fd 4b3c 5e87 b63c 4710 3e3c 4dfa 983c
000000b0: 1165 803c 99cb b23a ac64 813a 412c 19bc
000000c0: c830 3838 e79e 1cbb 7151 22bc 5fd5 7fbb
000000d0: 1a14 22bc 87f6 89bc 2438 21bc c4f8 cc39
000000e0: 51a5 d339 ffe2 f8bb 1388 89b9 a65a 8f38
000000f0: 2af0 b0bb 30c0 12b9 9ff5 933a c6a6 c8bc
00000100: befb b7bc 78f1 56bc f449 ebbc a857 e2bc
00000110: 6ec8 9bbc 284a b9bc 0fc2 b8bc 07ae 80bc
00000120: c34c 193b 5b15 5a3b 99a1 523b d019 ae3b
00000130: 1a2b 383c cd45 843b eebd 743c c52a 5f3c
00000140: d6ea 893b

bias f4 [3]
0.0040362454 0.0020135904 0.0039146077
00000000: 7b42 843b 71f6 033b 1c46 803b

weight f4 [3]
0.39049432 0.39137298 0.39165792
00000000: dfee c73e 0a62 c83e 6387 c83e

bias f4 [3]
0.009377498 -0.0059718546 0.0019312523
00000000: 14a4 193c 8caf c3bb 1322 fd3a

running_mean f4 [3]
-0.007035082 0.008352272 -0.01592143
00000000: 8c86 e6bb f8d7 083c a96d 82bc

running_var f4 [3]
0.0015830309 0.0008397852 0.0012975748
00000000: b47d cf3a 0825 5c3a 6313 aa3a

weight f4 [3, 3, 3, 3]
-0.0062558446 -0.008283213 -0.011930097 -0.008479928 -0.012150803 -0.017428735 -0.003969274 -0.00892171
-0.018129729 0.0006138748 -0.009513372 -0.004972716 0.0009613753 -0.0014317665 -0.0081769 -0.0015511878
-0.007931973 -0.006059616 -0.008701917 0.00031641193 0.0061925906 -0.0065897466 0.0070727314 0.0045942813
-0.0047953525 -0.00010566237 2.8042574e-05 -0.018165005 -0.011404057 0.0056135003 -0.03145514 -0.017907055
-0.0076284944 -0.027389936 -0.01704922 0.000907143 -0.0029641937 -0.0044582826 -0.007283021 -0.0065628253
-0.0070111398 -0.010281955 -0.003651938 -0.0056132306 -0.0043122214 -0.021375533 -0.02654121 -0.0028323922
-0.019253045 -0.032897595 -0.017086081 -0.019919502 -0.02482096 -0.016116016 -0.0077777253 -0.00911194
-0.0058065397 -0.0028432205 -0.0070590717 0.002048857 -0.004154246 -0.013119039 -0.0014353227 -0.00530265
-0.0095012225 -0.0028974626 0.00067343196 -0.012958036 0.0040149055 0.0006502401 -0.01038733 -0.0013148354
0.0029020342 -0.0034899137 -0.00022031442 0.0052431375 0.010527236 0.009547838 0.006937707 -0.0007503046
0.0068548284
00000000: d4fd ccbb 50b6 07bc 7476 43bc 65ef 0abc
00000010: 2914 47bc b5c6 8ebc af10 82bb 5d2c 12bc
00000020: cc84 94bc 71ec 203a f9dd 1bbc 2af2 a2bb
00000030: ce04 7c3a 1daa bbba 68f8 05bc 3a51 cbba
00000040: 1bf5 01bc be8f c6bb 7c92 0ebc 17e4 a539
00000050: 37eb ca3b cdee d7bb 5fc2 e73b a08b 963b
00000060: 5522 9dbb 0e97 ddb8 f83c eb37 c7ce 94bc
00000070: 15d8 3abc 74f1 b73b 1bd7 00bd d1b1 92bc
00000080: 73f8 f9bb dc60 e0bc ceaa 8bbc 56cd 6d3a
00000090: eb42 42bb c916 92bb 69a6 eebb f80c d7bb
000000a0: b4bd e5bb a575 28bc 5a55 6fbb 31ef b7bb
000000b0: 894d 8dbb be1b afbc f46c d9bc a89f 39bb
000000c0: 90b8 9dbc a1bf 06bd 1cf8 8bbc 392e a3bc
000000d0: 5355 cbbc bc05 84bc 4adc febb 3f4a 15bc
000000e0: c944 bebb 5355 3abb c94f e7bb 1e46 063b
000000f0: 5720 88bb 3df1 56bc 7021 bcba dac1 adbb
00000100: 04ab 1bbc 5be3 3dbb 4189 303a f14d 54bc
00000110: 788f 833b e074 2a3a 9f2f 2abc 8e56 acba
00000120: 0e30 3e3b 09b7 64bb 3404 67b9 a0ce ab3b
00000130: 6e7a 2c3c 896e 1c3c b455 e33b 17b0 44ba
00000140: 789e e03b

bias f4 [3]
-0.0036067222 0.0029716757 -0.0010073087
00000000: c25e 6cbb 72c0 423b ac07 84ba

weight f4 [3]
0.39138034 0.39135098 0.39034238
00000000: 0163 c83e 285f c83e f5da c73e

bias f4 [3]
-0.00063016854 -0.0026650396 0.001743837
00000000: e531 25ba f2a7 2ebb 7691 e43a

running_mean f4 [3]
-0.12105611 -0.22437714 -0.038506147
00000000: 44ec f7bd 1fc3 65be 9fb8 1dbd

running_var f4 [3]
0.030095097 0.04948387 0.012923558
00000000: fe89 f63c 99af 4a3d 55bd 533c

weight f4 [3, 3, 3, 3]
-0.011750777 -0.005474629 -0.0007890091 -0.0051886877 -0.0054003564 -0.0009210674 -0.008337149 0.0027165613
0.005575737 -0.0067628315 -0.007895198 -0.007920607 -0.010999965 -0.011893856 -0.012225298 -0.010636582
-0.013093674 -0.0100473855 0.0099992 0.008274426 -0.0017141586 0.007271392 0.0066346866 0.0016571179
0.006635297 0.006413928 0.0025697185 0.0018322056 0.0025748925 -0.0037505669 -0.00020833705 -0.001360242
-0.003297823 0.0038420444 0.00046628376 -0.0033300829 -0.00055319065 0.0023816982 -0.0056424025 0.008889872
-0.0022766825 -0.0065529817 0.0032373152 -0.0063427454 -0.008958781 -0.005380517 -0.0025020307 -2.1434185e-05
-0.0072990274 -0.0028849267 -0.0024623896 -0.002755772 0.0014619292 0.005480932 -0.018202895 -0.022410925
-0.014510573 -0.0060438826 -0.0072036674 -0.0021128475 -0.012972562 -0.008977416 -0.0078603355 -0.012703255
-0.005047167 -0.0054051955 -0.007222943 -0.0027111156 -0.0053871637 -0.00822546 -0.0024663375 -0.0058635133
-0.0118235685 -0.01663941 -0.005393913 -0.014940476 -0.01518164 0.0031136689 -0.0110782785 -0.012133269
-0.00076369435
00000000: 5586 40bc 8464 b3bb 81d5 4eba de05 aabb
00000010: 79f5 b0bb c973 71ba 8a98 08bc 5608 323b
00000020: acb4 b63b be9a ddbb dc5a 01bc 6fc5 01bc
00000030: 3239 34bc 73de 42bc 9e4c 48bc 0f45 2ebc
00000040: d986 56bc ca9d 24bc afd3 233c 7591 073c
00000050: 9ead e0ba db44 ee3b c967 d93b a633 d93a
00000060: e86c d93b ed2b d23b b968 283b 9e26 f03a
00000070: 87bf 283b 12cc 75bb 0d75 5ab9 264a b2ba
00000080: 4a20 58bb cfca 7b3b 8c77 f439 853d 5abb
00000090: ff03 11ba 4416 1c3b e7e3 b8bb d3a6 113c
000000a0: 6534 15bb 65ba d6bb 2329 543b ced6 cfbb
000000b0: dac7 12bc 0c4f b0bb 1cf9 23bb 90cd b3b7
000000c0: ae2c efbb 0a11 3dbb 0b60 21bb 2f9a 34bb
000000d0: 349e bf3a 6499 b33b 3d1e 95bc 1e97 b7bc
000000e0: c1bd 6dbc c30b c6bb be0c ecbb b377 0abb
000000f0: de8a 54bc 0316 13bc a3c8 00bc 5021 50bc
00000100: b562 a5bb 111e b1bb 70ae ecbb f9ac 31bb
00000110: ce86 b0bb 14c4 06bc 47a2 21bb b722 c0bb
00000120: a4b7 41bc 5f4f 88bc 6cbf b0bb e6c8 74bc
00000130: 6abc 78bc b20e 4c3b ab81 35bc 9eca 46bc
00000140: a932 48ba

bias f4 [3]
-0.0009332317 -0.0037566924 -0.00031016677
00000000: 1fa4 74ba d732 76bb e19d a2b9

weight f4 [3]
0.39235625 0.39096105 0.39138377
00000000: ebe2 c83e 0c2c c83e 7463 c83e

bias f4 [3]
0.0011945092 -0.0025631483 -0.00245202
00000000: 1491 9c3a 7efa 27bb 12b2 20bb

running_mean f4 [3]
-0.018654907 -0.017926134 -0.01384262
00000000: 2dd2 98bc d4d9 92bc 28cc 62bc

running_var f4 [3]
0.0010473478 0.0009843942 0.0009544772
00000000: 2947 893a ca06 813a e135 7a3a
