Games/hex/Models/resnet.pt (torch, 160549 bytes, 143 tensors)

weight f4 [3, 3, 3, 3]
0	0x3bec7ab6	0.0072167767
1	0x3a90d468	0.001104963
2	0x3a359b5d	0.0006927753
3	0x3c4138b5	0.011793305
4	0xbd015c78	-0.031582326
5	0x3cd68b28	0.026189402
6	0xbb0769e7	-0.0020662488
7	0xbc21d414	-0.0098772235
8	0x3c5fa771	0.013650761
9	0x3d303cdf	0.0430268
10	0x3cdb8e6d	0.026801312
11	0xba9cf08f	-0.0011973548
12	0xbc364c39	-0.011126571
13	0x3d030d69	0.03199521
14	0xbcb99faf	-0.02265915
15	0xbc031c94	-0.008002419
16	0x3d15b5a9	0.036550198
17	0x3cf029e3	0.029316848
18	0xbc3cbb06	-0.011519199
19	0x3c18bdbe	0.009322582
20	0x3cd154d2	0.02555314
21	0xbc28b301	-0.010296584
22	0xbbf590c9	-0.0074940664
23	0x3c2c5e28	0.0105204955
24	0x3cfa78bc	0.030575149
25	0x3a902a96	0.001099902
26	0xbbefbf2b	-0.00731649
27	0xbb90feac	-0.0044248905
28	0x3c04ef6b	0.008113722
29	0x3d2681c8	0.040651113
30	0xbaa12a5c	-0.0012295949
31	0x3d411b4c	0.047145173
32	0x3c94224e	0.018082764
33	0x3d546e9c	0.051863298
34	0xbbcb7c2d	-0.0062098713
35	0x3b0671ab	0.0020514529
36	0xbbb49f35	-0.005512143
37	0xbc5de85b	-0.013544167
38	0xbd0678b1	-0.032829944
39	0xbac6740b	-0.0015140785
40	0xbc27f7ed	-0.010251981
41	0xbd0bbc4b	-0.034115117
42	0xbd352f5e	-0.044234626
43	0x3c8b6817	0.017017407
44	0xbcf11b98	-0.029432103
45	0x39048274	0.00012637099
46	0xbc86aed0	-0.016440779
47	0x3a2d1979	0.0006603222
48	0xbb04bdad	-0.0020254657
49	0xbd15e10d	-0.03659158
50	0xba83e6d0	-0.0010063294
51	0xbc076a6c	-0.008265119
52	0xbcf89b3b	-0.030347457
53	0xba1e1fcd	-0.00060319604
54	0x3c2ba3d1	0.010476069
55	0x3b8462d0	0.0040400997
56	0xbcddeb0f	-0.027089624
57	0x3ca58da6	0.020209145
58	0xbcd87d19	-0.026426839
59	0xbc6d94a9	-0.014500775
60	0x3a67946c	0.0008834067
61	0xbc3fba1e	-0.011702089
62	0x3c956d7d	0.018240685
63	0x3d385082	0.044998653
64	0x3b410441	0.0029451998
65	0x3bcf936b	0.0063347123
66	0x3d01143d	0.03151344
67	0x3ced1a90	0.02894333
68	0xbc9b8f6d	-0.01898929
69	0xbb04e069	-0.002027536
70	0x3cb19c8a	0.021681089
71	0xbb0a6fce	-0.002112377
72	0xbc0c2dbd	-0.008555827
73	0x3c11d301	0.008900405
74	0x3d06feb1	0.032957736
75	0xbcac10ab	-0.021004042
76	0xbae87d88	-0.0017737607
77	0x3d11b39f	0.03557169
78	0x3c49cc14	0.012316722
79	0x3c4c04fd	0.012452361
80	0x3c291740	0.010320485

bias f4 [3]
0	0x3b561789	0.0032667837
1	0xba25b0dd	-0.0006320605
2	0x39411831	0.00018414926

weight f4 [3]
0	0x3ec7c766	0.39019316
1	0x3ec9156c	0.39274156
2	0x3ec78c1b	0.3897408

bias f4 [3]
0	0xbbff8711	-0.0077980836
1	0x3c40fd96	0.01177921
2	0xbc2a3604	-0.010388855

running_mean f4 [3]
0	0x3d3ce2a6	0.046114586
1	0xbd12254b	-0.035680097
2	0x3d2c95f0	0.04213518

running_var f4 [3]
0	0x3b4971a9	0.0030737913
1	0x3b723173	0.0036955744
2	0x3b81be77	0.0039594728

weight f4 [3, 3, 3, 3]
0	0xbc823381	-0.0158937
1	0x3b215187	0.0024615244
2	0x3d36542b	0.044513863
3	0xbd2be2f1	-0.041964475
4	0x3ca542e7	0.020173503
5	0x3c5b53b8	0.013386659
6	0x3bf3635e	0.007427617
7	0x3b69751a	0.0035622776
8	0x3beaf16e	0.007169894
9	0xbcf6d83c	-0.030132405
10	0x3cc18566	0.02362318
11	0x3b52b507	0.0032151358
12	0xbd2502fd	-0.040286053
13	0xbcbf3972	-0.023342822
14	0x3d27cbcc	0.04096584
15	0xbd0ed577	-0.034871545
16	0xbbfffe1a	-0.0078122737
17	0x3b855dc6	0.0040700166
18	0xbc2d36bf	-0.0105721345
19	0x3bd393f7	0.006456848
20	0x3ce4b0fb	0.027916422
21	0xbb33ef5e	-0.0027455906
22	0x3c643346	0.01392824
23	0xbc1e81c8	-0.009674497
24	0x3c27cbfd	0.010241506
25	0xbd1b3144	-0.03788878
26	0xbc097681	-0.00839007
27	0x3b5a5c18	0.0033319052
28	0xbcb3aaf2	-0.021932099
29	0x3ccc9574	0.024973609
30	0xbbc1a9db	-0.005910141
31	0xbd2b775d	-0.04186188
32	0x3c317321	0.0108306715
33	0x3c04150a	0.008061657
34	0xbc150917	-0.0090964055
35	0xbc71bf44	-0.014755074
36	0xbbd8e5d4	-0.0066191945
37	0x3ca8f2ca	0.020623583
38	0x3cfbbe3c	0.03073036
39	0x3c80f68f	0.015742568
40	0x3ca7bb09	0.020474927
41	0xb9ae935d	-0.0003329766
42	0x3d3d093f	0.046151396
43	0x3c0f4821	0.008745224
44	0xbcab3caf	-0.02090296
45	0xbcdf62fc	-0.02726888
46	0xbcb5e454	-0.022203602
47	0x3d66ae4e	0.056318574
48	0xbd2c1b8e	-0.042018466
49	0xbcbdc6ff	-0.023166178
50	0x3d1ebd49	0.038754735
51	0xbbf23eda	-0.0073927464
52	0xbb916ca1	-0.0044379984
53	0xbc7ca7f5	-0.015420903
54	0xbbc3ec72	-0.005979114
55	0xbc1d5a46	-0.009604042
56	0x3c80fc73	0.015745377
57	0xbc276f5f	-0.010219424
58	0xbaee6379	-0.0018187604
59	0xba311bdc	-0.00067561655
60	0x3ba3b85f	0.004996344
61	0xbc1b113e	-0.00946456
62	0x3acfbee4	0.0015849737
63	0x3b9902ae	0.004669509
64	0x3c52abb2	0.012858318
65	0xbc80a94f	-0.015705733
66	0x3a967f9a	0.001148212
67	0xbc7dd3cd	-0.015492392
68	0x395a2e9f	0.00020807468
69	0xbbfe06c7	-0.0077522728
70	0x3b0b009d	0.0021210082
71	0xbb3f8512	-0.0029223603
72	0xbc500840	-0.012697279
73	0x3be47580	0.006972015
74	0x3c7bb43b	0.0153627945
75	0xba9ae5f7	-0.0011817802
76	0x3c3fc8f4	0.011705626
77	0xbb145203	-0.002263189
78	0xba86bb08	-0.0010279128
79	0xbc3c0389	-0.011475452
80	0x3b83d0cd	0.0040226937

bias f4 [3]
0	0xbacd980f	-0.0015685576
1	0xbc655273	-0.013996708
2	0xbb0dda77	-0.0021645108

weight f4 [3, 3, 3, 3]
0	0x3cd0b0b3	0.025474882
1	0x3b83976d	0.004015854
2	0xbc4970e1	-0.012294979
3	0x3c906eec	0.017631017
4	0x3a573ec0	0.00082109496
5	0xbc81ccc7	-0.015844716
6	0x3c7192c4	0.014744464
7	0x39ab2628	0.0003264409
8	0xbd2313bc	-0.039813742
9	0x3ba0164d	0.004885471
10	0x3cc4825f	0.023987947
11	0x3c942049	0.018081801
12	0x3c78f292	0.015194552
13	0x3c7ebc18	0.015547775
14	0x3d0d739a	0.034534074
15	0x3c3b2886	0.011423236
16	0xbb4a50f4	-0.0030871006
17	0x3b003ad9	0.0019566326
18	0x3a02a2bc	0.0004983356
19	0x3a3ef5ab	0.0007284532
20	0xb9c140f2	-0.00036860217
21	0x3c328777	0.010896555
22	0x3bcd4123	0.0062638684
23	0x3bd347a9	0.0064477515
24	0x3a482df0	0.000763624
25	0x3ad50fca	0.0016255316
26	0xbb2c9abe	-0.002633735
27	0x3c796ba2	0.015223416
28	0x3c9273bb	0.01787745
29	0xbbaa5ed3	-0.005199292
30	0x3b1ae256	0.0023633442
31	0x3c45e890	0.012079373
32	0xbb57d446	-0.0032932921
33	0x3cd0b24e	0.025475647
34	0x3aaae240	0.0013037398
35	0xbcf47339	-0.029840099
36	0xbba60148	-0.0050660707
37	0x3ccfc859	0.025364088
38	0x3c8c25c8	0.01710786
39	0x3b7732c2	0.0037719463
40	0x3c987fc2	0.018615607
41	0x3c8dcbfa	0.017309178
42	0x3bd85ae8	0.0066026337
43	0xbbc76b2e	-0.006085775
44	0x3a5c7e3e	0.00084111455
45	0x3a9e675e	0.0012085249
46	0x3a143cb4	0.00056547974
47	0xbaf12740	-0.0018398538
48	0xbc535e24	-0.012900863
49	0x3a861a89	0.0010231297
50	0x3b40a913	0.002939765
51	0xbacdda71	-0.0015705359
52	0xbc68c196	-0.014206311
53	0xbb1567d9	-0.0022797494
54	0x3bb46efb	0.005506394
55	0xbbe5c5af	-0.007012091
56	0x3b33390a	0.002734723
57	0x3c0e2a05	0.00867701
58	0x3c0ef466	0.008725261
59	0xbc2723d5	-0.010201414
60	0xbcd92972	-0.02650902
61	0x3aabb216	0.0013099338
62	0xbccd43dd	-0.025056774
63	0x3d308911	0.043099467
64	0x3c00add1	0.007853941
65	0xbc3596a8	-0.0110832825
66	0x3d38f19f	0.045152303
67	0x3c7e37a9	0.0155162
68	0xbbdfb972	-0.0068275267
69	0xbbd06512	-0.006359705
70	0x3ca59137	0.020210845
71	0xbc62edad	-0.013850612
72	0x3c388af8	0.0112636015
73	0x3ac05923	0.0014675002
74	0xba10f44d	-0.0005529568
75	0x3b6354b2	0.0034687934
76	0x3c5244a7	0.012833751
77	0x3c2835f8	0.010266773
78	0xbcfdc0ab	-0.03097566
79	0x3baa41b3	0.0051958202
80	0xbb012c15	-0.0019710113

bias f4 [3]
0	0xb9b290a0	-0.0003405856
1	0xbb4915c8	-0.0030683149
2	0xba2041f6	-0.00061133446

weight f4 [3]
0	0x3ec698b6	0.38788384
1	0x3ec98f94	0.39367354
2	0x3ec8a382	0.39187247

bias f4 [3]
0	0xbc2d88cb	-0.010591696
1	0xbc7c7d82	-0.015410783
2	0xbbd962c1	-0.006634087

running_mean f4 [3]
0	0x3b7e9674	0.0038847001
1	0x3b7314af	0.0037091186
2	0x3b3608d7	0.0027776265

running_var f4 [3]
0	0x3a1ed5d2	0.00060590834
1	0x3a1b47c2	0.00059234735
2	0x3a1c1764	0.0005954413

weight f4 [3, 3, 3, 3]
0	0x3c05877d	0.008149979
1	0x3cd7371a	0.026271392
2	0x3c3d7961	0.0115645835
3	0xbb7f53be	-0.0038959826
4	0x3c08fae9	0.008360603
5	0x3bd012b8	0.0063498877
6	0x3c30a17e	0.01078069
7	0xbb300351	-0.0026857445
8	0x3d0b77ea	0.034049906
9	0x3bfafb7e	0.0076593747
10	0x3c8e6a91	0.0173848
11	0x3c6a2d7a	0.014293069
12	0x3b98f9a2	0.0046684304
13	0x3be87c5d	0.0070949034
14	0xbb2ce684	-0.0026382515
15	0x3c4222c7	0.011849112
16	0xbb960907	-0.004578713
17	0x3c86d7be	0.016460296
18	0x3d17767d	0.036978234
19	0x3ce497e1	0.027904453
20	0x3b3f5b2b	0.0029198627
21	0x3ca36234	0.019944288
22	0x3cffe389	0.031236427
23	0xbc14292e	-0.009043021
24	0x3aaf43a9	0.0013371605
25	0x3c6df940	0.014524758
26	0xbd0e7069	-0.03477517
27	0x3c824b10	0.015904933
28	0x3c8939b8	0.016751155
29	0x3c985f6a	0.018600184
30	0x3cb160f3	0.021652674
31	0x3d002925	0.03128924
32	0x3c6e8ac9	0.014559456
33	0x3c556325	0.013024126
34	0x3c3d8b56	0.011568865
35	0xbbb7b9e0	-0.005606875
36	0x3bfc424e	0.007698334
37	0x3c7bd95f	0.0153716495
38	0x3c06db10	0.0082309395
39	0x3ce42df7	0.027853949
40	0x3d1c5ba5	0.038173337
41	0x3c10dd08	0.00884176
42	0x39db39d6	0.00041814026
43	0x3bfeb3fa	0.0077729197
44	0xbbd15ee4	-0.0063894857
45	0x3cd39d36	0.0258318
46	0x3c8d2306	0.017228615
47	0x3c39817b	0.011322374
48	0x3d2a99c6	0.041650556
49	0x3d260d47	0.040540006
50	0x3d1106c5	0.035406847
51	0xbca4ce7c	-0.02011799
52	0x3b03afe8	0.0020093862
53	0xbb705c7d	-0.003667622
54	0x3b1767d9	0.002310267
55	0x3c8ffee4	0.017577596
56	0x3cbd7621	0.023127617
57	0x3ae77bad	0.001766076
58	0x3a9f04f3	0.0012132212
59	0x3c9ef5fb	0.019404402
60	0x3c40e19b	0.011772539
61	0x3c978247	0.018494738
62	0x3cc1ce49	0.023657935
63	0x3b9f9854	0.004870454
64	0x3c420bd5	0.011843641
65	0x3cd49fa9	0.025955038
66	0x3c0afdac	0.008483332
67	0x3c1beeaf	0.009517356
68	0x3c574024	0.013137851
69	0x3bf8d0b6	0.0075932397
70	0x3c2ab938	0.010420136
71	0x3d02ca15	0.031931
72	0x3b85d582	0.00408429
73	0x3d0345e1	0.032049064
74	0x3c833586	0.016016733
75	0xbc6372c8	-0.013882346
76	0x3c7b7864	0.015348528
77	0xbb178d68	-0.0023125056
78	0xbb1736c2	-0.002307341
79	0xbbb0fe49	-0.005401407
80	0x3b65d02b	0.0035066705

bias f4 [3]
0	0xba76a0f2	-0.0009408138
1	0x39ad41e6	0.0003304623
2	0xb97bdf68	-0.0002402045

weight f4 [3]
0	0x3ec8b3e8	0.39199758
1	0x3ec81ae2	0.3908301
2	0x3ec97842	0.39349562

bias f4 [3]
0	0x3add3822	0.0016877691
1	0x3b30c54f	0.0026973074
2	0x3c02903c	0.0079689585

running_mean f4 [3]
0	0x3cb5ae83	0.02217794
1	0x3c255e7d	0.010093329
2	0x3cc96094	0.024582185

running_var f4 [3]
0	0x3af4b131	0.001866853
1	0x3ac28bc5	0.001484268
2	0x3ad6243f	0.0016337706

weight f4 [3, 3, 3, 3]
0	0xbc06654a	-0.00820286
1	0xbc6acf5b	-0.014331664
2	0xbca3507c	-0.019935839
3	0xbba6b83b	-0.00508788
4	0xbc962675	-0.018328885
5	0xbc26880d	-0.010164273
6	0x390e526d	0.00013572881
7	0x38cd3f80	9.7869895e-05
8	0x3b819d54	0.0039555226
9	0xbc86241d	-0.016374642
10	0xbcb63494	-0.022241868
11	0xbbcf044e	-0.006317652
12	0xbca7257f	-0.020403622
13	0xbca805c3	-0.02051056
14	0x3ad9f392	0.0016628376
15	0xbc168566	-0.009187078
16	0x3ab83a5e	0.0014055481
17	0x3ba50323	0.0050357743
18	0x3c78b302	0.015179398
19	0xbb979810	-0.0046262816
20	0xbc9f42e6	-0.01944108
21	0x3c34ab70	0.011027202
22	0xbbf126b3	-0.0073593496
23	0xbcbf1676	-0.02332614
24	0xbafbee99	-0.0019220888
25	0xbc44a17a	-0.01200139
26	0xbc8dfa29	-0.0173312
27	0xbcf18f37	-0.029487235
28	0xbceb98bf	-0.028759358
29	0xbd2de366	-0.042453192
30	0xbd0b5075	-0.034012277
31	0xbd069ea1	-0.032866124
32	0xbd4ec7a0	-0.050483346
33	0xbcc3531d	-0.023843342
34	0xbca958f1	-0.020672293
35	0xbcbba99f	-0.02290803
36	0xbd232379	-0.03982875
37	0xbc94af13	-0.018149888
38	0xbc9627de	-0.018329557
39	0xbd2b0aaa	-0.041758217
40	0xbcdd0c9c	-0.026983552
41	0xbd3c84e9	-0.04602519
42	0xbd2b7e45	-0.041868467
43	0xbd0a4f38	-0.033766955
44	0xbd339135	-0.043839652
45	0xbd0f0f94	-0.034926966
46	0xbca6edc3	-0.020377045
47	0xbd056aa7	-0.032572415
48	0xbcfd1f1a	-0.03089862
49	0xbce71df0	-0.028212517
50	0xbd46fe2b	-0.048582237
51	0xbd0c4ae2	-0.0342511
52	0xbcc3501f	-0.023841916
53	0xbcebad0f	-0.028769044
54	0xbc85d475	-0.016336659
55	0xbc802565	-0.015642831
56	0xbc9d4f09	-0.019202726
57	0xbc852280	-0.016251802
58	0xbc2c5ced	-0.010520202
59	0xbca094e5	-0.019602248
60	0x3c461042	0.012088837
61	0x3c474672	0.012162792
62	0xbbc66655	-0.0060546794
63	0xbd0ffcd5	-0.03515323
64	0xbc49a327	-0.012306965
65	0xbbc751f7	-0.006082769
66	0xbd18c89b	-0.037300687
67	0xbcaa1f04	-0.020766743
68	0xbca294e4	-0.019846387
69	0xbcd021c7	-0.025406731
70	0xbb265eb5	-0.002538604
71	0x3c1dfa46	0.009642189
72	0xbc7bf620	-0.015378505
73	0xbcd35150	-0.025795609
74	0xbc456a69	-0.012049296
75	0xbc376820	-0.011194259
76	0xbbfe6275	-0.007763202
77	0xbcab4805	-0.020908365
78	0xbbafc0d4	-0.005363563
79	0x3aa8a2ea	0.0012865935
80	0xbcb07212	-0.021538768

bias f4 [3]
0	0xb93abe53	-0.00017809244
1	0xbb2af02a	-0.002608309
2	0xbb25f9e3	-0.0025325946

weight f4 [3]
0	0x3ec84a5a	0.39119226
1	0x3ec76931	0.38947442
2	0x3ec90b87	0.39266607

bias f4 [3]
0	0x3c718b32	0.014742659
1	0xbc041c1b	-0.0080633415
2	0x3c117489	0.008877882

running_mean f4 [3]
0	0xbd6a3bec	-0.057186052
1	0xbd6193e4	-0.05507268
2	0xbd10d784	-0.03536178

running_var f4 [3]
0	0x3be4a66b	0.0069778464
1	0x3c09ba3c	0.008406218
2	0x3b50af20	0.0031842664

weight f4 [3, 3, 3, 3]
0	0xbc7bffed	-0.015380842
1	0xbc87aa64	-0.01656074
2	0xbc971c3d	-0.018446082
3	0xbbb58585	-0.0055395984
4	0xbc036854	-0.008020479
5	0xbc5c9ec9	-0.013465592
6	0xbc3611f5	-0.01111268
7	0xbcaa7350	-0.020806938
8	0xbccd1c2c	-0.025037847
9	0x3c461930	0.012090966
10	0xbc4c558c	-0.012471568
11	0x3c1b0883	0.009462479
12	0x3ca2749a	0.01983099
13	0xbc74a5d7	-0.014932117
14	0x3c473a00	0.012159824
15	0x3b8f9ba7	0.004382569
16	0xbab698a3	-0.0013930987
17	0x39cd3d7f	0.00039146465
18	0xbc37597d	-0.011190769
19	0xbc80a0ac	-0.015701614
20	0xbc9b4a96	-0.018956464
21	0xba1a254a	-0.00058801903
22	0xbc96531c	-0.018350177
23	0xbc3990a5	-0.01132599
24	0xbc26eec0	-0.010188758
25	0xbc9d25b6	-0.019183021
26	0xbc849f7f	-0.016189335
27	0xbcd57b0b	-0.026059648
28	0xbca3963b	-0.019969096
29	0xbc82b97e	-0.01595759
30	0xbd0cca98	-0.034372896
31	0xbced725d	-0.028985197
32	0xbd16d0bf	-0.03682017
33	0xbcc64736	-0.024203878
34	0xbc8bd3b7	-0.017068727
35	0xbd0151bc	-0.03157209
36	0x3ca7cc43	0.020483142
37	0x3cd4eb09	0.02599098
38	0x3cad5117	0.02115683
39	0x3cef66ed	0.029223884
40	0x3cd3cb1b	0.025853684
41	0x3aa9dd5c	0.0012959647
42	0x3c0a5191	0.0084422985
43	0x3cb20709	0.02173187
44	0x3ba02c06	0.0048880605
45	0xbd057292	-0.032579966
46	0xbc9aa139	-0.018875705
47	0xbc54e996	-0.012995144
48	0xbcdd81a3	-0.027039355
49	0xbc97585e	-0.018474754
50	0xbc930c35	-0.017950157
51	0xbcb14f9d	-0.021644408
52	0xba976c4c	-0.0011552661
53	0xbc2cb4b6	-0.010541132
54	0xbd0236d7	-0.03179058
55	0xbd1628a9	-0.03665987
56	0xbd16b11a	-0.03678999
57	0xbcd1a90b	-0.025593301
58	0xbd04c934	-0.032418445
59	0xbd177ec9	-0.036986146
60	0xbd10f578	-0.035390347
61	0xbd01bca7	-0.031674054
62	0xbd212ab7	-0.039347377
63	0xbc3fe096	-0.01171126
64	0xbbeebc41	-0.007285625
65	0xbc42e62d	-0.0118956985
66	0x3c927147	0.01787628
67	0x3b5cf1a7	0.0033713372
68	0x3b10eb70	0.0022112988
69	0xbb4b6465	-0.0031035182
70	0x3be0f8f6	0.006865616
71	0xbb832a71	-0.004002862
72	0xbcf85d83	-0.030318027
73	0xbd1bcdab	-0.038037937
74	0xbcd5b5f3	-0.026087737
75	0xbd010f24	-0.03150858
76	0xbd0212a6	-0.031756066
77	0xbcf5758f	-0.029963283
78	0xbd2b7c9b	-0.04186688
79	0xbcb16c4f	-0.02165809
80	0xbd0d00e0	-0.034424663

bias f4 [3]
0	0x3a871a03	0.0010307435
1	0xbb58b2e8	-0.003306562
2	0xbab848f1	-0.0014059824

weight f4 [3]
0	0x3ec8c4a8	0.39212537
1	0x3ec83ed2	0.39110428
2	0x3ec81621	0.39079383

bias f4 [3]
0	0x3c800e5f	0.015631853
1	0x3cca43bc	0.024690501
2	0x3c979282	0.018502478

running_mean f4 [3]
0	0xbd03bdd1	-0.032163445
1	0xbcf14968	-0.029453948
2	0xbd02bdea	-0.031919397

running_var f4 [3]
0	0x3aa98d90	0.0012935866
1	0x3a93687d	0.001124635
2	0x3adbb011	0.0016760846

weight f4 [3, 3, 3, 3]
0	0xbd14752a	-0.03624455
1	0xbcdd3b27	-0.027005745
2	0xbcf2138b	-0.029550334
3	0xbd36f269	-0.044664774
4	0xbd2c345a	-0.042042114
5	0xbcd3c6ce	-0.025851633
6	0xbd145ba4	-0.036220208
7	0xbcef1f36	-0.029189687
8	0xbcaa60c9	-0.020798104
9	0xbd12e1a7	-0.03585973
10	0xbcd6e36a	-0.026231486
11	0xbcede934	-0.029041864
12	0xbd481832	-0.0488512
13	0xbd38f965	-0.045159716
14	0xbd304dda	-0.043042995
15	0xbd167c06	-0.03673937
16	0xbd2d94b9	-0.04237816
17	0xbd46c96b	-0.04853193
18	0xbd1807b2	-0.037116714
19	0xbd0b1fb5	-0.033965785
20	0xbcf78ea4	-0.030219384
21	0xbd439814	-0.047752455
22	0xbce87ebe	-0.028380748
23	0xbc30da29	-0.010794201
24	0xbd1182a8	-0.035524994
25	0xbcd63d70	-0.026152343
26	0xbcf053d4	-0.029336847
27	0xbb94570e	-0.0045269793
28	0xbc80441e	-0.01565748
29	0xbcf24220	-0.029572546
30	0xbc319bee	-0.010840399
31	0xbcbcaf9b	-0.023032954
32	0xbd08aef2	-0.033369966
33	0xbb31d621	-0.0027135687
34	0xbcc1228d	-0.023576045
35	0xbcf65e5d	-0.030074293
36	0xbc8a6567	-0.016894056
37	0xbb8b7a8c	-0.004256552
38	0xbc053804	-0.008131031
39	0xbca8f0ab	-0.020622572
40	0xbc872cde	-0.016500887
41	0xbce1ec98	-0.027578637
42	0xbc2e5423	-0.010640177
43	0xbb2b9601	-0.0026181939
44	0xbcb05fc6	-0.021530043
45	0xbbf65c2a	-0.007518311
46	0xbc819cde	-0.01582187
47	0xbcdebc6d	-0.027189458
48	0xbc487f9c	-0.012237456
49	0xbcc79163	-0.024361318
50	0xbcded682	-0.027201895
51	0xbb9f5301	-0.0048621898
52	0xbca32872	-0.019916747
53	0xbcf71c60	-0.030164897
54	0xbd06c980	-0.03290701
55	0xbcff4da7	-0.031164957
56	0xbc85b820	-0.01632315
57	0xbd412611	-0.047155444
58	0xbd0168b4	-0.031593993
59	0xbc9522f6	-0.018205147
60	0xbcdd5514	-0.027018107
61	0xbc2bdf9b	-0.010490323
62	0xbc944e71	-0.01810381
63	0xbd0cfaf5	-0.03441902
64	0xbc706d8c	-0.0146745555
65	0xbccb52d7	-0.024819775
66	0xbd0ebc8b	-0.034847777
67	0xbcf1d2e9	-0.029519515
68	0xbd42fcd1	-0.047604386
69	0xbd0a2132	-0.033723064
70	0xbd25f5a7	-0.040517475
71	0xbd48e3b3	-0.049045276
72	0xbd10bcb3	-0.035336208
73	0xbca3ce86	-0.019995939
74	0xbced91f9	-0.02900027
75	0xbd0a8cb2	-0.033825584
76	0xba2bdea7	-0.000655631
77	0xbccec897	-0.025242133
78	0xbd015a7e	-0.03158044
79	0x3b9ae347	0.0047268006
80	0xbc693875	-0.014234652

bias f4 [3]
0	0xb95bf0c1	-0.00020975155
1	0xb829eac7	-4.0511393e-05
2	0xb84ec32d	-4.9296e-05

weight f4 [3]
0	0x3ec80593	0.39066753
1	0x3ec90255	0.39259592
2	0x3ec7696a	0.38947612

bias f4 [3]
0	0xbc927437	-0.017877681
1	0x3d019d84	0.03164436
2	0xbce746e1	-0.02823204

running_mean f4 [3]
0	0xbdeef630	-0.1166805
1	0xbd906efa	-0.07052417
2	0xbdb4dd46	-0.08831267

running_var f4 [3]
0	0x3cedd5b0	0.029032558
1	0x3c5558a6	0.013021624
2	0x3c998fda	0.018745352

weight f4 [3, 3, 3, 3]
0	0xbd19ccd8	-0.03754887
1	0xbcfe908c	-0.031074785
2	0xbc93e636	-0.018054109
3	0xbc5e94f4	-0.013585318
4	0xbce6cd49	-0.02817406
5	0xbd145d6a	-0.0362219
6	0xbcb7b106	-0.022423279
7	0xbcf4478c	-0.029819272
8	0xbd4f21ac	-0.05056922
9	0xbd0387cc	-0.032111928
10	0xbd3d5ea7	-0.046232846
11	0xbd283497	-0.04106578
12	0xbd24bf04	-0.04022123
13	0xbd33eda7	-0.043927815
14	0xbd25750b	-0.040394824
15	0xbd40951e	-0.04701721
16	0xbd456b4c	-0.04819803
17	0xbd38d684	-0.045126453
18	0xbcd4bd66	-0.025969218
19	0xbcdf4e24	-0.02725894
20	0xbd189a17	-0.037256327
21	0xbc814f00	-0.01578474
22	0xbcdd65dc	-0.02702611
23	0xbce44a4a	-0.027867455
24	0xbcee4d91	-0.02908972
25	0xbcc8ec6f	-0.024526803
26	0xbd14048c	-0.03613715
27	0xbd16b775	-0.036796052
28	0xbcbb7b5c	-0.02288597
29	0x3be7e10e	0.007076389
30	0xbcfd8aaa	-0.03094991
31	0xbcbb697f	-0.022877453
32	0x386006d5	5.3412125e-05
33	0x3b85e71d	0.0040863887
34	0x3ca8116a	0.020516116
35	0x3c96fea3	0.018431967
36	0xbceb9ae6	-0.028760385
37	0xbcf91ed8	-0.030410215
38	0xbd01ef2e	-0.03172224
39	0xbd1be0eb	-0.038056295
40	0xbd0bb34f	-0.03410655
41	0xbd0359e2	-0.03206814
42	0xbd198f8d	-0.037490416
43	0xbd0a1380	-0.033710003
44	0xbd089076	-0.033340894
45	0xbcf9b8ea	-0.030483682
46	0xbd0a70ab	-0.033798855
47	0xbcd5a2ef	-0.02607867
48	0xbd1b5e5b	-0.03793178
49	0xbcb2938c	-0.021798871
50	0xbc4be860	-0.012445539
51	0xbd3e521f	-0.046465036
52	0xbc2243dd	-0.009903875
53	0x3b85b7f6	0.0040807677
54	0xbc2b7592	-0.010465043
55	0xbc96fb42	-0.018430356
56	0xbcef9b73	-0.029248929
57	0x3cbf663c	0.023364179
58	0x3c29a199	0.010353469
59	0xbc1c0461	-0.009522528
60	0x3cb5c3ff	0.022188185
61	0x3b11fc7c	0.0022275737
62	0xbc93f976	-0.018063288
63	0xbb072874	-0.0020623477
64	0xbc269e70	-0.01016961
65	0xbc3992ae	-0.011326475
66	0x3d0b29ec	0.033975527
67	0x3c901fb6	0.017593246
68	0x3bd2a062	0.0064278105
69	0x3d15ddaf	0.036588367
70	0x3ce83cf2	0.028349373
71	0x3c2c7e1f	0.0105281165
72	0x3a35769a	0.0006922275
73	0xbc1f5cd5	-0.009726723
74	0xbd088981	-0.03333426
75	0x3d4d80fc	0.050171837
76	0x3cd5afb3	0.026084756
77	0xbc9366af	-0.0179933
78	0x3d0c8524	0.03430666
79	0x3c84cc28	0.01621063
80	0xbc9eae81	-0.01937032

bias f4 [3]
0	0x3a5b5021	0.0008366127
1	0x3a7d38b7	0.0009659635
2	0xb9385a16	-0.00017581167

weight f4 [3]
0	0x3ec6eb9e	0.38851637
1	0x3ec83ebf	0.3911037
2	0x3ec89e55	0.39183298

bias f4 [3]
0	0xbc21c40b	-0.0098734
1	0x3cd61080	0.026130915
2	0x3c094ff8	0.008380882

running_mean f4 [3]
0	0xbd27503a	-0.040847994
1	0xbd07fef5	-0.03320213
2	0x3c65d76e	0.014028413

running_var f4 [3]
0	0x3b4884c1	0.0030596706
1	0x3b0a362f	0.0021089425
2	0x3a87c6e0	0.0010358952

weight f4 [3, 3, 3, 3]
0	0xbc941454	-0.0180761
1	0xbb10b66c	-0.0022081388
2	0xbcad8b24	-0.021184511
3	0x3d26a679	0.040686104
4	0x3d1dada5	0.03849568
5	0x3cd5c638	0.026095495
6	0x3b9a7f71	0.004714899
7	0x3cc752fc	0.024331562
8	0x3cb748ff	0.022373674
9	0xbcbecf79	-0.02329229
10	0xbc09d948	-0.00841362
11	0xbcb4733a	-0.0220276
12	0xbc59c647	-0.013291902
13	0xbbb99343	-0.005663307
14	0xbc73641f	-0.014855414
15	0xbc2666aa	-0.010156313
16	0xbadb3e27	-0.0016726897
17	0xbc4dfe88	-0.012572892
18	0xbd12bb6e	-0.035823278
19	0xbd0ae5e7	-0.03391066
20	0xbd250c66	-0.040295027
21	0x3cd80443	0.02636922
22	0x3d09d878	0.033653706
23	0xbc39d731	-0.01134281
24	0x3cd54f12	0.02603868
25	0x3cf65897	0.03007154
26	0x3bb14936	0.0054103388
27	0x3cc07b70	0.02349636
28	0xbcbe4abd	-0.023228997
29	0xbcd77521	-0.026300969
30	0x3cb2fe19	0.021849679
31	0xbcbd0c1c	-0.023077063
32	0xbccbdcd1	-0.024885567
33	0x3c9ad011	0.018898042
34	0xbc6b5dc9	-0.014365622
35	0xbc424a17	-0.011858485
36	0x3ca9ec0f	0.020742444
37	0xbc73cc46	-0.014880246
38	0x3b84c742	0.0040520737
39	0x3c778b8f	0.015108957
40	0xbc935a04	-0.017987259
41	0xbb4eac2a	-0.0031535723
42	0x3d28859a	0.041143037
43	0x3c38c997	0.0112785315
44	0x3bfa8689	0.0076454324
45	0xbbba72cd	-0.005689955
46	0xbcd0491f	-0.025425492
47	0x3b97b9e6	0.004630315
48	0x3837b297	4.3796925e-05
49	0xbcab9396	-0.020944398
50	0x3ab30ef2	0.001366107
51	0x38e0eb5f	0.000107249936
52	0xbcac618c	-0.021042608
53	0xbcda12ce	-0.026620295
54	0x3c45ba68	0.0120683685
55	0x3c8a1f3f	0.016860602
56	0x3d829276	0.063755915
57	0x3badc55c	0.005303068
58	0x3b1fc485	0.002437861
59	0x3d18b981	0.037286285
60	0x3c855815	0.016277352
61	0x3c2ceb93	0.010554212
62	0x3d18794a	0.037225045
63	0x3c86cea2	0.016455952
64	0xbc0dd3a8	-0.00865642
65	0x3aeb9a3e	0.0017975045
66	0x3c1aec5b	0.009455766
67	0xbc44e615	-0.012017746
68	0x3bdc5f60	0.006725237
69	0x3cb3aeb5	0.021933893
70	0xbb4ed15e	-0.0031557898
71	0x3ca75844	0.02042783
72	0x3b9ade93	0.00472624
73	0x3cceb69d	0.025233561
74	0x3ca9361a	0.02065568
75	0x3c5105cf	0.0127577325
76	0x3ccb5889	0.02482249
77	0x3d18c180	0.03729391
78	0x3c246cb3	0.010035682
79	0x3cb76081	0.022384884
80	0x3ce6b20e	0.028161075

bias f4 [3]
0	0xba0f1ec4	-0.00054596015
1	0x388e5985	6.787762e-05
2	0x3b89587f	0.0041914578

weight f4 [3]
0	0x3ec7fc0c	0.39059484
1	0x3ec8735c	0.39150512
2	0x3ec83574	0.39103281

bias f4 [3]
0	0xbcdc9be7	-0.026929809
1	0x3c071235	0.008244087
2	0x3c32ae58	0.010905825

running_mean f4 [3]
0	0xbc97a23a	-0.018509973
1	0x3aac000c	0.0013122573
2	0x3d6a50e9	0.05720607

running_var f4 [3]
0	0x3b68f291	0.0035544971
1	0x3ba55823	0.005045907
2	0x3bfcc665	0.00771408

weight f4 [3, 3, 3, 3]
0	0xbc17652f	-0.009240433
1	0xbb48dae4	-0.0030648047
2	0xbd016c2f	-0.031597313
3	0x3cc4b299	0.024010943
4	0x3d077ad8	0.033076137
5	0x3cc264f3	0.023729777
6	0x3c9f2032	0.019424532
7	0x3cfeba20	0.03109461
8	0x3cf509da	0.029911924
9	0x3d58d8f1	0.052941266
10	0x3d0a5ae3	0.033778083
11	0xbb94de94	-0.004543135
12	0x3d4157a0	0.047202706
13	0x3cb91982	0.02259517
14	0xbcb50d7d	-0.022101158
15	0x3ce773a4	0.028253384
16	0x3ca0b532	0.01961765
17	0xbd1068db	-0.035256248
18	0x3c70c86e	0.014696224
19	0x3c13204a	0.008979866
20	0x3c8e9c22	0.017408434
21	0xbc1590da	-0.009128774
22	0xbb92e987	-0.004483405
23	0x3c53deab	0.012931506
24	0xbce3e88d	-0.02782085
25	0xbc314014	-0.0108185
26	0x3c98e629	0.018664436
27	0xbb74b9dd	-0.0037342228
28	0x3c70cf16	0.014697811
29	0xbbb4aadf	-0.0055135335
30	0xbc8326f2	-0.016009782
31	0xbb7d582a	-0.0038657286
32	0xbc8ee999	-0.017445372
33	0xbb2d0418	-0.0026400145
34	0x3c417cfa	0.011809582
35	0xbb7c9196	-0.0038538924
36	0x3ce97b57	0.028501196
37	0x3c0fbda3	0.00877324
38	0xbc60acb3	-0.01371305
39	0x3cdd9704	0.027049549
40	0x3c0ab140	0.008465111
41	0xbc6f8557	-0.014619193
42	0x3cee47d3	0.029086983
43	0x3b1cd5ce	0.0023931148
44	0xbc842a66	-0.016133498
45	0x3bbe9ab0	0.00581678
46	0x3cefd111	0.029274495
47	0x3d35652c	0.04428594
48	0x39eb6945	0.00044901125
49	0x3c7b96c2	0.015355768
50	0x3d394af6	0.045237504
51	0xbb2f9808	-0.0026793499
52	0x3c212ce7	0.009837366
53	0x3d2e7b31	0.042597953
54	0xbc6f99b2	-0.014624046
55	0xbd03deb3	-0.032194804
56	0xbcacb511	-0.021082433
57	0xbc96d6b6	-0.018412929
58	0xbc4fafb6	-0.01267617
59	0xbc65f478	-0.014035337
60	0xbc09af37	-0.008403591
61	0xbcf166e7	-0.029468013
62	0xbce6d07e	-0.028175589
63	0xbc9e25a4	-0.019305058
64	0xbc1abc3f	-0.009444295
65	0x3a9eb424	0.001210813
66	0xbcad0870	-0.021122187
67	0xbb1ffe07	-0.0024412887
68	0x3a7d9cc1	0.0009674542
69	0xbc97799c	-0.018490605
70	0xbbc581af	-0.0060274224
71	0xbc0fd900	-0.008779764
72	0xbcdcf189	-0.026970642
73	0xbcbf9b2f	-0.023389427
74	0xbc535f0c	-0.012901079
75	0xbd002b86	-0.031291507
76	0xbca0b6b7	-0.019618375
77	0xbc8393aa	-0.016061623
78	0xbce58f1e	-0.028022345
79	0xbcb15005	-0.021644602
80	0xbcd6dd8b	-0.026228687

bias f4 [3]
0	0x3a871d3e	0.0010308397
1	0xbb00ac6e	-0.0019634026
2	0xbb158bfb	-0.002281903

weight f4 [3]
0	0x3ec7e7b1	0.39043954
1	0x3ec7b67c	0.39006412
2	0x3ec8a726	0.39190024

bias f4 [3]
0	0xbbdde051	-0.0067711254
1	0x3cf11a03	0.029431349
2	0x3bf0167f	0.0073269005

running_mean f4 [3]
0	0x3a5c4ade	0.000840349
1	0x3c045a08	0.008078106
2	0xbcdd3f9c	-0.02700787

running_var f4 [3]
0	0x3acdfccf	0.0015715602
1	0x3abdb295	0.0014472777
2	0x3af06ff2	0.0018343909

weight f4 [3, 3, 3, 3]
0	0xba507666	-0.0007952213
1	0x3c472b80	0.012156367
2	0xbd07c187	-0.033143546
3	0x3bdfe327	0.0068324986
4	0x3cc24c86	0.02371813
5	0xbc9fb3ae	-0.019494858
6	0xbca067e1	-0.019580783
7	0x3bf522d4	0.0074809585
8	0xbc5b5f46	-0.013389414
9	0xbc3e9670	-0.011632547
10	0xbc66d283	-0.014088276
11	0xbccd2ce3	-0.025045818
12	0xbc32d7d8	-0.010915719
13	0xbca147d3	-0.019687569
14	0xbd169454	-0.03676255
15	0xba980766	-0.0011598885
16	0xbd0de61e	-0.034643285
17	0xbd1aa9ef	-0.037759718
18	0xbc19d830	-0.009389922
19	0xbc6eeddf	-0.01458308
20	0xbd018c16	-0.031627737
21	0x3c9eb3ca	0.01937284
22	0x3c3466b5	0.011010815
23	0xbce3b14f	-0.027794508
24	0x3c8a9e09	0.01692106
25	0x3c948756	0.01813094
26	0xbd0341f0	-0.032045305
27	0xbc7d79e0	-0.015470952
28	0xbca9f43a	-0.02074634
29	0xbca02827	-0.019550396
30	0xbcbdc357	-0.023164434
31	0x37e6afb7	2.749996e-05
32	0x3c7c1c0a	0.015387544
33	0xbc7d91ff	-0.015476703
34	0x397959fc	0.00023780012
35	0x3c2cf86d	0.010557276
36	0xbc90f7b0	-0.017696232
37	0xbd1aa1a1	-0.037751798
38	0xbd017870	-0.031609
39	0xbc8aaf6a	-0.016929347
40	0xbd326d27	-0.043561127
41	0xbd09ff44	-0.033690706
42	0xbc7c40ef	-0.015396341
43	0xbd19468d	-0.037420798
44	0xbd080b51	-0.033213917
45	0x3cbe90b6	0.023262363
46	0x3be1ac2b	0.006886979
47	0xbc97ba24	-0.018521376
48	0x3d11096e	0.035409383
49	0x3d124066	0.035705946
50	0x3c827775	0.015926102
51	0x3d1d473b	0.03839801
52	0x3d1bb44a	0.038013734
53	0x3d0d4591	0.03449017
54	0xbcc28ee1	-0.02374977
55	0x3bf89696	0.0075863106
56	0xbd0bef04	-0.03416349
57	0xbc024fe5	-0.007953619
58	0x3cb80079	0.022461163
59	0x39c7f040	0.00038135238
60	0xbc3d1740	-0.011541188
61	0x3cedbf26	0.02902181
62	0xbc0a8be3	-0.008456203
63	0xbcd70dae	-0.02625164
64	0xbd0814e6	-0.033223055
65	0xbcff2da2	-0.03114969
66	0xbc858e95	-0.01630334
67	0xbd10b962	-0.035333045
68	0xbd1902b1	-0.037356082
69	0xbbbfd943	-0.005854757
70	0xbd2a5395	-0.041583616
71	0xbd239245	-0.039934415
72	0x3ce60000	0.028076172
73	0xbc49b322	-0.012310775
74	0xbcf4e962	-0.029896442
75	0x3d270076	0.040771924
76	0x3d208bc7	0.039195802
77	0xbc76351c	-0.015027311
78	0x3d14642b	0.03622834
79	0x3d113240	0.035448313
80	0x3c2668f7	0.0101568615

bias f4 [3]
0	0x393548f2	0.0001728868
1	0xb9a6ee46	-0.00031839515
2	0x3a8c351a	0.0010696978

weight f4 [3]
0	0x3ec8141a	0.39077836
1	0x3ec85a12	0.39131218
2	0x3ec83f92	0.39111

bias f4 [3]
0	0xbb39edeb	-0.002837057
1	0xbb16598b	-0.0022941555
2	0x3c00d609	0.00786353

running_mean f4 [3]
0	0xbd92afd0	-0.0716244
1	0xbd62a866	-0.05533638
2	0xbda2e32e	-0.07953487

running_var f4 [3]
0	0x3c07f320	0.008297712
1	0x3c7e5d76	0.0155252125
2	0x3c7e7f1c	0.015533235

weight f4 [3, 3, 3, 3]
0	0xbd025792	-0.031821795
1	0xbd2728d7	-0.040810432
2	0x3c91ff3e	0.017821904
3	0xbcef73f0	-0.029230088
4	0xbd3efeb0	-0.046629608
5	0x3ca9cb1d	0.020726735
6	0xbd1d4f9c	-0.038406
7	0xbd1c3967	-0.03814068
8	0x3c4fc574	0.012681354
9	0xbbb405ad	-0.0054938407
10	0xbce18c97	-0.027532859
11	0x3ccbbce9	0.024870353
12	0xbd0cf885	-0.034416694
13	0xbd00d15a	-0.031449653
14	0x3cfc5001	0.030799868
15	0xbd0d3016	-0.034469686
16	0xbcec9816	-0.028881114
17	0xbbfc0715	-0.007691274
18	0xbb1deb89	-0.0024096689
19	0xbc1e44f3	-0.009659993
20	0x3c75e9d6	0.015009364
21	0xbbb88829	-0.005631466
22	0xbbd83f0d	-0.006599313
23	0x3ced9839	0.02900325
24	0xbcc40a78	-0.023930773
25	0xbc652ec4	-0.013988201
26	0x3c4c6383	0.012474897
27	0x3c76ae6c	0.015056234
28	0xb9cbb735	-0.00038855677
29	0x3c96b4e5	0.018396804
30	0x3badd6ea	0.005305161
31	0xbc52d432	-0.012867974
32	0x3c063d74	0.0081933625
33	0x3c3c2893	0.011484283
34	0xbae0d745	-0.0017153999
35	0x3c4debdb	0.012568439
36	0x3c21a8c8	0.009866901
37	0xbb8a1e91	-0.0042150696
38	0x3aac05b6	0.0013124261
39	0xbba9a070	-0.0051765963
40	0xbc3d8c33	-0.011569071
41	0xbbbd05e6	-0.0057685254
42	0xbc4e4530	-0.012589738
43	0xbc30bf4f	-0.010787799
44	0xb95a0afb	-0.0002079419
45	0x3aab73c6	0.0013080768
46	0xbc134974	-0.008989681
47	0x3a744735	0.0009318472
48	0xbc33ae62	-0.010966869
49	0xbcc18740	-0.023624063
50	0xbb519403	-0.003197909
51	0x3b19f04f	0.0023489182
52	0xbc3cb69e	-0.011518149
53	0xbabcd94a	-0.0014408019
54	0x3b0e9333	0.0021755218
55	0xbb362bd7	-0.0027797127
56	0x3adf6f24	0.0017046672
57	0x3c901aec	0.017590962
58	0x3c56ca6f	0.013109787
59	0x3c50c52e	0.012742324
60	0x3cefab8d	0.029256606
61	0x3d2831bb	0.04106305
62	0x3cd25df0	0.025679559
63	0x3c8d0d5c	0.017218284
64	0xbc7222e4	-0.014778826
65	0xbc4b9e6a	-0.012427906
66	0x3d0da090	0.034576952
67	0x3c26007f	0.010131954
68	0xbc4f6d64	-0.012660358
69	0x3d07eaf6	0.03318306
70	0x3cf5c6e2	0.030002061
71	0x3c6642b9	0.014053994
72	0x3b8c8dd4	0.004289368
73	0xbc34c02a	-0.011032144
74	0xbcc7af6e	-0.024375644
75	0x3cb1973e	0.021678563
76	0xbb99c254	-0.004692355
77	0xbc90f651	-0.017695578
78	0x3cd28f7e	0.025703188
79	0x3c9d6bb6	0.0192164
80	0xbbdd44cc	-0.006752586

bias f4 [3]
0	0xb77a328a	-1.4912928e-05
1	0xb9cf99a8	-0.000395966
2	0x38c39bcc	9.327344e-05

weight f4 [3]
0	0x3ec901d4	0.39259207
1	0x3ec8bda6	0.3920719
2	0x3ec7da41	0.39033702

bias f4 [3]
0	0x3a4e3a96	0.00078670064
1	0x3cf09231	0.029366584
2	0x3c1808ef	0.009279474

running_mean f4 [3]
0	0xbca54152	-0.020172749
1	0xbcc5fe3d	-0.024169082
2	0x3c9e1c4c	0.019300602

running_var f4 [3]
0	0x3a9f353d	0.0012146604
1	0x3aa79443	0.0012785274
2	0x3a9279dd	0.0011175234

weight f4 [3, 3, 3, 3]
0	0xbbc4a297	-0.0060008275
1	0xbc6143e7	-0.013749099
2	0x3c72e75f	0.014825671
3	0x3b7b0e87	0.003830822
4	0xbc356638	-0.011071734
5	0x3c7fb30b	0.015606652
6	0x3c4dfcf5	0.012572517
7	0xbc581cd8	-0.013190471
8	0x3c81ddb3	0.015852785
9	0xbcb645db	-0.022250107
10	0xbcf6aeb4	-0.030112602
11	0x3c6bbca9	0.014388242
12	0xbc727eb6	-0.014800718
13	0xbcc5dc20	-0.024152815
14	0x3c23e951	0.010004357
15	0xbc452e2b	-0.012034933
16	0xbcb8c02f	-0.022552578
17	0x3cf586e6	0.029971551
18	0xb92dfe70	-0.00016593351
19	0x3c6889fe	0.014193056
20	0x3c4ced0d	0.012507689
21	0x3bed9fe5	0.007251727
22	0x3c7cccba	0.01542967
23	0x3cd40496	0.025881093
24	0x3c550ca3	0.013003501
25	0x3c71182f	0.0147152385
26	0x3cd76690	0.026294023
27	0xbcf941d5	-0.030426899
28	0xbcf30960	-0.029667556
29	0xbc6f5c78	-0.014609449
30	0xbcf32d2f	-0.029684631
31	0xbcd840ad	-0.026398027
32	0xbc90aaba	-0.017659534
33	0xbccb8cc7	-0.024847401
34	0xbcd42316	-0.025895637
35	0xbc8feb2d	-0.017568195
36	0xbd0fb82f	-0.03508776
37	0xbd2f4900	-0.042794228
38	0xbd1a0fca	-0.037612714
39	0xbd183de7	-0.03716841
40	0xbd1da867	-0.03849068
41	0xbd0594db	-0.032612663
42	0xbd0cec86	-0.034405254
43	0xbd164725	-0.036688942
44	0xbd15c61b	-0.03656588
45	0x3d2ce3cf	0.042209443
46	0x3d3cab65	0.046061892
47	0x3d316cbe	0.043316595
48	0x3d31dd20	0.04342377
49	0x3d41b237	0.0472891
50	0x3d26b96a	0.04070417
51	0x3d2fa77d	0.04288434
52	0x3d0dec88	0.034649402
53	0x3d225a15	0.03963669
54	0xbcaeb72c	-0.021327578
55	0xba7a9f5c	-0.00095604896
56	0x38c11c21	9.2081966e-05
57	0xbc058b0e	-0.008150829
58	0x3c12679f	0.008935838
59	0x3be0730e	0.006849653
60	0xbc932cdb	-0.017965725
61	0x3b61f527	0.0034478398
62	0xbb55eb47	-0.0032641457
63	0xbcd7ff86	-0.02636696
64	0xbcd19f4a	-0.02558865
65	0xbc85090a	-0.016239662
66	0xbc941fe4	-0.018081613
67	0xbcf52c85	-0.029928455
68	0xbd1be6a5	-0.038061757
69	0xbc9bc8ac	-0.019016586
70	0xbcd81a7e	-0.02637982
71	0xbd1a3c95	-0.03765543
72	0x3c8fce19	0.01755433
73	0xbb44603e	-0.0029964591
74	0xbc70275d	-0.014657822
75	0x3d1bb53a	0.038014628
76	0x3c8ad245	0.016945967
77	0xbc3c8ce1	-0.0115081975
78	0x3d3081de	0.0430926
79	0x3d0afc49	0.033932004
80	0xb9b692af	-0.00034823033

bias f4 [3]
0	0x3acd30c3	0.0015654791
1	0xba10515b	-0.0005505287
2	0x3ab2511d	0.0013604496

weight f4 [3]
0	0x3ec79721	0.3898249
1	0x3ec7cb15	0.39022127
2	0x3ec93e8e	0.39305538

bias f4 [3]
0	0xbcb7dc1a	-0.02244382
1	0xbc82a631	-0.015948387
2	0x3d295444	0.041340128

running_mean f4 [3]
0	0x3cd39994	0.025830068
1	0xbc4f8109	-0.012665042
2	0xbd61b0e4	-0.055100337

running_var f4 [3]
0	0x3bce82c8	0.0063022114
1	0x3d309a88	0.043116122
2	0x3c6332e6	0.013867116

weight f4 [3, 3, 3, 3]
0	0x3d15daa6	0.036585473
1	0x3ca0f693	0.019648826
2	0x3c5e1cee	0.013556702
3	0x3cf55019	0.02994542
4	0x3c230887	0.009950764
5	0x3c5eb86d	0.013593775
6	0x3ceef3d7	0.029169006
7	0x3c0e3a53	0.008680898
8	0x3c499462	0.012303444
9	0x3c260b5f	0.010134547
10	0x3cc447c3	0.02396
11	0x3cba8001	0.022766115
12	0x3bbb155f	0.0057093347
13	0x3b9b5364	0.0047401655
14	0x3c43e977	0.011957518
15	0xbb9a037a	-0.0047001215
16	0xbcc5e792	-0.024158273
17	0x3baa0bc4	0.005189391
18	0xbd2e3db1	-0.042539302
19	0xbd25a301	-0.040438656
20	0x3bd06fef	0.006361
21	0xbd5b2455	-0.053501446
22	0xbd3badf9	-0.04582021
23	0xbcf0955a	-0.029368091
24	0xbd207abf	-0.03917956
25	0xbd2fcd99	-0.042920683
26	0xbd19a426	-0.03751006
27	0x3be06445	0.0068478906
28	0x3c28be3f	0.010299264
29	0x3cbf5b16	0.023358863
30	0x3ce522b4	0.02797065
31	0xba803035	-0.0009779992
32	0x3beb279b	0.007176352
33	0x3c6eb0d4	0.014568526
34	0xbc857fac	-0.01629623
35	0xbc57b24e	-0.01316507
36	0xbd3467dd	-0.044044364
37	0xbca51b35	-0.020154575
38	0x3cb20de3	0.021735137
39	0x3b35534a	0.0027668052
40	0xbaa4915c	-0.0012555528
41	0x3cd6f64c	0.02624049
42	0x3cd4efb6	0.02599321
43	0x3be69cbb	0.0070377267
44	0x3c2b7b67	0.010466433
45	0xbc46349b	-0.012097503
46	0xbcb83d91	-0.022490295
47	0xbc169607	-0.009191043
48	0xbcb46e0b	-0.022025129
49	0xbd011462	-0.03151358
50	0xbc934a66	-0.017979812
51	0xbcecd4a8	-0.028909996
52	0xbcf79f6b	-0.030227384
53	0xbc6c94c8	-0.014439769
54	0xbcb03127	-0.021507813
55	0xbca293d3	-0.019845879
56	0x3d24b0c6	0.040207647
57	0xbc7284a4	-0.014802132
58	0xbc198481	-0.00936997
59	0x3d17f510	0.037098944
60	0xbbf3592e	-0.0074264025
61	0x3b1fecff	0.0024402735
62	0x3d4b1cfb	0.049588185
63	0xbd15989b	-0.03652249
64	0xbd1b3838	-0.03789541
65	0xbca2f5c0	-0.019892573
66	0x3ad9f80e	0.0016629712
67	0xbcab2ea8	-0.02089627
68	0x3c558522	0.01303223
69	0x3cda7eae	0.026671734
70	0x3cfaf3c7	0.03063382
71	0x3d0cf685	0.034414787
72	0xbcae5a81	-0.02128339
73	0xbcbbeeae	-0.02294096
74	0xbd0a0a21	-0.033701066
75	0x3cd9445a	0.02652185
76	0xbb7285ac	-0.0037005944
77	0xbcd4fdb9	-0.02599989
78	0x3cfdca3f	0.030980228
79	0x3cd61d5c	0.026137047
80	0xbb101ddb	-0.0021990451

bias f4 [3]
0	0xba1e93e7	-0.0006049261
1	0xba778b30	-0.0009443043
2	0xb9741907	-0.00023278977

weight f4 [3]
0	0x3ec8f4d0	0.39249277
1	0x3ec816d6	0.39079922
2	0x3ec7ad97	0.38999626

bias f4 [3]
0	0x3c179c7b	0.009253616
1	0x3cc40a00	0.02393055
2	0xba39e194	-0.00070908037

running_mean f4 [3]
0	0xbd05891e	-0.03260147
1	0x3ba9dd7e	0.0051838746
2	0xbc4905ea	-0.012269476

running_var f4 [3]
0	0x3adf08a6	0.0017016127
1	0x3aaa10ef	0.0012975017
2	0x3ab4cf44	0.001379468

weight f4 [3, 3, 3, 3]
0	0xbbcfd396	-0.0063423617
1	0x3bde99cc	0.0067932364
2	0xbce3fffe	-0.027832028
3	0xbbabcdf4	-0.0052430574
4	0xbadad0b5	-0.001669428
5	0xbd17193a	-0.036889292
6	0x3c517848	0.012785025
7	0x3cef2041	0.029190185
8	0xbbd22975	-0.0064136335
9	0x3c138dcc	0.009005975
10	0x3ceb062c	0.028689466
11	0xbcf58b77	-0.029973729
12	0x3bdf5cf0	0.006816499
13	0x3c9da5bb	0.019244066
14	0xbd243c28	-0.040096432
15	0x3c706057	0.014671407
16	0x3c929a7c	0.01789593
17	0xbc85c63f	-0.016329883
18	0xbc838f0a	-0.016059417
19	0xbc7b3a83	-0.0153337745
20	0x3c14e891	0.009088651
21	0xbcbc1dd6	-0.022963446
22	0xbcce4781	-0.02518058
23	0x3bf95373	0.007608825
24	0xbc4e378b	-0.012586485
25	0xbcbc5c06	-0.022993099
26	0x3be18c9c	0.006883217
27	0x3a736329	0.00092844904
28	0x3cb68a7b	0.02228283
29	0xbc8c7579	-0.01714586
30	0x3c7be1b2	0.015373634
31	0x3d0c046a	0.034183897
32	0xbc9172a2	-0.017754856
33	0x3cb9fe61	0.022704305
34	0x3d0c9b21	0.03432763
35	0xbd10cdc6	-0.03535249
36	0x3b8f2ebd	0.0043695853
37	0x3cfcb9e2	0.030850355
38	0xbcd17db4	-0.025572635
39	0xbca0a118	-0.019608065
40	0xbb06dca9	-0.00205783
41	0xbd2476ad	-0.04015224
42	0xbcf0771d	-0.029353673
43	0xbcbd4a7a	-0.023106802
44	0xbd2ae06e	-0.04171794
45	0xbd0e7767	-0.03478184
46	0xbcd74664	-0.026278682
47	0xbca2f50f	-0.019892244
48	0xbcfcf0e3	-0.030876582
49	0xbc72e257	-0.014824471
50	0xbc82c6d7	-0.015963955
51	0xbcb5f3c8	-0.02221097
52	0xbc08ef89	-0.008357891
53	0x3b3b225f	0.0028554422
54	0xbc3a907e	-0.011386989
55	0xbcc42e6f	-0.023947923
56	0x3c194b8a	0.009356389
57	0xbaaae76d	-0.0013038941
58	0xbccbd7fb	-0.024883261
59	0x3c677ac0	0.014128387
60	0x3bad3cfa	0.00528681
61	0xbc9f8164	-0.019470878
62	0x3cef5f79	0.02922033
63	0xbca3f470	-0.020014018
64	0xbce25905	-0.027630338
65	0x3c3188a7	0.010835803
66	0xbd02719a	-0.03184662
67	0xbd170867	-0.036873247
68	0x3bc4dd68	0.006007839
69	0xbcc7b243	-0.024376994
70	0xbd080a8c	-0.033213183
71	0x3ca7c883	0.020481354
72	0x3c001211	0.007816807
73	0x3a85faf7	0.0010221888
74	0xb9b0f4c5	-0.00033751703
75	0x3c9989f7	0.018742545
76	0x3c164531	0.00917177
77	0x3c6a0561	0.014283509
78	0x3c69aadd	0.014261928
79	0x3bb0e86c	0.0053988006
80	0x3c867ca6	0.016416859

bias f4 [3]
0	0xbb8d110e	-0.0043050116
1	0x38e7fe9f	0.00011062365
2	0xb8ddf228	-0.00010583206

weight f4 [3]
0	0x3ec86620	0.39140415
1	0x3ec7e328	0.39040494
2	0x3ec8574c	0.39129102

bias f4 [3]
0	0x3c13260c	0.008981239
1	0xbbebee75	-0.007200057
2	0xbbb8d451	-0.0056405445

running_mean f4 [3]
0	0xb88572b4	-6.363299e-05
1	0xbced038e	-0.02893236
2	0xbc4e0073	-0.012573349

running_var f4 [3]
0	0x3bf521eb	0.00748085
1	0x3c0bd23c	0.0085340105
2	0x3c2924e6	0.010323739

weight f4 [3, 3, 3, 3]
0	0x3d3df806	0.04637911
1	0x3d3e92cb	0.04652671
2	0x3c7b15a4	0.015324984
3	0x3d0d7e7d	0.034544457
4	0x3d0ea555	0.03482564
5	0x3bd817c0	0.006594628
6	0x3cbcae9e	0.023032483
7	0x3cf06969	0.029347138
8	0xbb0a0359	-0.0021059124
9	0x3d10a678	0.035315007
10	0x3d28f9a6	0.04125371
11	0x3cda75dd	0.02666753
12	0x3d0cc066	0.034363173
13	0x3d14427e	0.036196224
14	0x3cb9a165	0.022659967
15	0x3cc55dcb	0.024092576
16	0x3cda6aec	0.026662312
17	0x3ca1203b	0.019668689
18	0x3d40697d	0.0469756
19	0x3ccb3e71	0.024810048
20	0x3cbe6cba	0.023245204
21	0x3d0b513c	0.034013018
22	0x3c772ad8	0.015085898
23	0x3c4f75f6	0.012662401
24	0x3cec2953	0.028828299
25	0x3c49c3e8	0.012314774
26	0x3c48041b	0.01220801
27	0xbc35e775	-0.011102547
28	0xbd0fb7dc	-0.03508745
29	0xbd17909b	-0.03700314
30	0x3ba84d06	0.005136135
31	0xbcb74273	-0.022370553
32	0xbcfc3d5f	-0.030790983
33	0x3c4c9078	0.012485616
34	0xbc9c885e	-0.019107994
35	0xbcb76848	-0.022388592
36	0xbc85db3c	-0.01633989
37	0xbd121c1a	-0.03567133
38	0xbc646101	-0.013939143
39	0xbb80edc9	-0.003934596
40	0xbd01d52c	-0.031697437
41	0xbc6c9c1c	-0.014441516
42	0x3c7c5d30	0.015403077
43	0xbcbe6902	-0.023243431
44	0xbbdba2fd	-0.0067027793
45	0xbcd96c72	-0.026540969
46	0x3a12d903	0.0005601795
47	0x3c893445	0.016748557
48	0xbc988a3c	-0.018620603
49	0x3a9e9ea2	0.001210172
50	0x3c9b17b8	0.018932208
51	0xbc79bc11	-0.015242592
52	0x3a6797f2	0.00088345923
53	0x3c8ebedb	0.017424991
54	0xbc91f148	-0.017815247
55	0x3c9a1794	0.018810071
56	0x3c9cd77e	0.019145723
57	0x3b5e0f9d	0.0033883818
58	0x3d33785f	0.043815967
59	0x3ca07b3d	0.019590015
60	0x3c809b97	0.015699191
61	0x3d47743f	0.048694845
62	0x3ba0880b	0.00489903
63	0x3b82c604	0.0039908905
64	0x3c687575	0.01418816
65	0x3c8436fe	0.016139504
66	0x3c8bab6f	0.01704952
67	0x3cccf804	0.025020607
68	0x3cad6f90	0.021171361
69	0x3cc0e6e6	0.023547601
70	0xbab3c268	-0.0013714554
71	0xbbf87b3c	-0.00758305
72	0x3c80daf1	0.0157294
73	0x3c0a798d	0.0084518315
74	0x3d1b5eef	0.037932333
75	0x3c865ea3	0.016402548
76	0x3a8bbd02	0.0010661187
77	0x3c8f5ed9	0.017501282
78	0x3c8ab0fd	0.016930098
79	0xbb998243	-0.004684718
80	0xbc26fa67	-0.0101915365

bias f4 [3]
0	0x3a7fd105	0.00097586244
1	0x39049865	0.00012645272
2	0x3b2cdfd4	0.002637853

weight f4 [3]
0	0x3ec7831f	0.38967225
1	0x3ec88c86	0.3916971
2	0x3ec7f795	0.39056078

bias f4 [3]
0	0xbc40db47	-0.01177103
1	0x3ce5a46d	0.028032506
2	0xbb655ebb	-0.003499909

running_mean f4 [3]
0	0x3cc8da1e	0.024518069
1	0x3c2b4375	0.010453095
2	0x3ba10143	0.0049134805

running_var f4 [3]
0	0x3acba726	0.0015537485
1	0x3b11b1cb	0.0022231217
2	0x3aa692d0	0.0012708548

weight f4 [3, 3, 3, 3]
0	0x3c762cf2	0.015025364
1	0x3d3a8b69	0.045543108
2	0x3c95d8f2	0.018291924
3	0x3c9ae209	0.01890661
4	0x3d20c248	0.03924778
5	0xbaa9dcda	-0.0012959496
6	0xbc2cc1b4	-0.010544229
7	0x3c7fc126	0.015610015
8	0xbcc60dab	-0.02417644
9	0xbc2215bf	-0.00989288
10	0xbc4493ba	-0.011998111
11	0xbcf309ca	-0.029667754
12	0xbcae2df4	-0.021262147
13	0xbcd2bde2	-0.025725309
14	0xbcf1ee12	-0.029532466
15	0xbcc559b1	-0.02409062
16	0xbce795ea	-0.028269727
17	0xbceafc53	-0.02868477
18	0x3c393452	0.011303978
19	0x3ae4ec58	0.0017465455
20	0xbcd3c867	-0.025852395
21	0xbc06d0f8	-0.008228533
22	0xbbd0b612	-0.0063693607
23	0xbccfdd5e	-0.02537411
24	0xbc1bf4a6	-0.009518778
25	0xbc9c5513	-0.019083535
26	0xbcb5e160	-0.022202194
27	0x3d2d8214	0.04236038
28	0x3d358f1e	0.04432594
29	0x3ccd2866	0.025043678
30	0x3d089dca	0.033353604
31	0x3cba7629	0.022761421
32	0xba5f13a0	-0.0008509699
33	0x3ce37117	0.027763886
34	0x3c072d6d	0.008250576
35	0x3b3ed28a	0.002911719
36	0xbc9bc331	-0.019013973
37	0xbcf92a4d	-0.030415678
38	0xbd00a915	-0.03141125
39	0xbcd775e4	-0.026301332
40	0xbcdf4854	-0.027256168
41	0xbd2af3f3	-0.041736554
42	0xbd0674a0	-0.032826066
43	0xbceb17cd	-0.028697873
44	0xbd2ddc44	-0.04244639
45	0x3b1e0df6	0.0024117208
46	0xbad06094	-0.0015897923
47	0xbbf1ce24	-0.00737931
48	0xbc2c4c0c	-0.010516178
49	0xbc81dedf	-0.015853344
50	0xbc8f68a2	-0.017505948
51	0xbbde85d8	-0.0067908578
52	0xbcbdb7a7	-0.023158861
53	0xbc83c339	-0.0160843
54	0xbaf8d47d	-0.0018984225
55	0x3c238473	0.009980309
56	0x3c8ab144	0.01693023
57	0xbbbea08c	-0.0058174785
58	0x3b1365eb	0.0022491168
59	0x3be83e18	0.0070874803
60	0xbbefc061	-0.0073166345
61	0xbbca1526	-0.006167072
62	0xbafb03e4	-0.001915094
63	0xbc951d28	-0.01820238
64	0xbc91d401	-0.017801287
65	0xbc5b78b2	-0.013395475
66	0xbcc1ed33	-0.023672676
67	0xbcef9b28	-0.029248789
68	0xbcd5d81b	-0.026104024
69	0xbca6fed6	-0.020385187
70	0xbd00144e	-0.031269364
71	0xbcebf745	-0.02880443
72	0x3be12914	0.006871352
73	0xbc8c9fc5	-0.017166028
74	0xbc31eae8	-0.010859229
75	0x3c006d11	0.007838503
76	0xbc8d53fe	-0.017251965
77	0xbc67383a	-0.014112527
78	0x3c646d77	0.013942114
79	0xbc5693cc	-0.013096761
80	0xbc2b50f0	-0.010456309

bias f4 [3]
0	0x3b36492a	0.0027814605
1	0x3b2feb26	0.002684304
2	0xbb37994e	-0.002801496

weight f4 [3]
0	0x3ec8179b	0.3908051
1	0x3ec7f5d7	0.39054748
2	0x3ec892e5	0.39174572

bias f4 [3]
0	0xbc9cc266	-0.019135665
1	0x3c324b3e	0.010882197
2	0x3ca44d29	0.020056324

running_mean f4 [3]
0	0xbcde73e1	-0.027154865
1	0x3c19d0e8	0.009388186
2	0xbdc408eb	-0.095720135

running_var f4 [3]
0	0x3c898665	0.016787717
1	0x3d60fdec	0.05492966
2	0x3d30c2e4	0.043154612

weight f4 [3, 3, 3, 3]
0	0x3c67b24d	0.014141631
1	0x3c92592c	0.017864786
2	0xbbeb5416	-0.0071816547
3	0x3caaf365	0.020868013
4	0x3cb679ce	0.022274878
5	0xbcb23010	-0.021751434
6	0x3ca5bced	0.020231688
7	0x3cb07893	0.02154187
8	0xbd1adeb0	-0.037810028
9	0xbbbfc245	-0.005852016
10	0x3c570b21	0.013125212
11	0xbd2fa611	-0.042882983
12	0xbad462b8	-0.0016203737
13	0x3bd28fc5	0.00642583
14	0xbd54516b	-0.05183546
15	0x3bd2e0a8	0.0064354725
16	0x3c49de1f	0.012321024
17	0xbd6a0f71	-0.057143632
18	0xbd02fcc6	-0.031979345
19	0xbb902860	-0.0043993443
20	0x3cd7ce94	0.026343621
21	0xbd2dd86b	-0.04244272
22	0xbd13fdf4	-0.03613086
23	0x3cca4542	0.024691228
24	0xbd1d06a7	-0.038336422
25	0xbd132f00	-0.035933495
26	0xbbaf05f9	-0.005341288
27	0xbba73756	-0.005103032
28	0xbc51d102	-0.012806179
29	0xba97d963	-0.0011585172
30	0x3b865973	0.0041000186
31	0xbbc67473	-0.0060563623
32	0x3b804a52	0.0039151097
33	0x3c359beb	0.011084537
34	0x3c2d9e5a	0.010596836
35	0x3c3f8fe9	0.011692026
36	0xbbfed78e	-0.007777161
37	0xbc766a85	-0.015040045
38	0xbccba28f	-0.024857787
39	0x3badcc4f	0.0053038965
40	0xbbd8c70c	-0.006615525
41	0xbb192f31	-0.0023374076
42	0x3c86b4b2	0.016443584
43	0x3b473b8d	0.0030400485
44	0x3c1bbfc8	0.009506173
45	0xbbaaa510	-0.0052076653
46	0xbb2b743a	-0.0026161806
47	0xbb833b95	-0.0040049055
48	0xbcb68f7e	-0.02228522
49	0xbc40e7d4	-0.011774022
50	0xbc42c361	-0.011887402
51	0xbd1741f1	-0.03692812
52	0xbcd2a6bb	-0.025714269
53	0xbc0d5668	-0.008626558
54	0x3c8e3732	0.017360304
55	0x3cb4b9d3	0.022061264
56	0x3cd14d12	0.025549445
57	0x3cb49798	0.022044942
58	0x3c1eda1b	0.009695555
59	0x3c02feae	0.007995291
60	0xbbcc346b	-0.0062318346
61	0xbcf3b7d2	-0.029750738
62	0xbc1ae013	-0.0094528375
63	0x3d072390	0.0329929
64	0x3d02cca2	0.031933434
65	0x3a373029	0.00069880724
66	0x3cc11d2b	0.023573479
67	0x3d085435	0.03328343
68	0xbb512f7c	-0.0031919172
69	0x3bb0d58b	0.00539655
70	0xbca4bc10	-0.020109206
71	0xbc8c5cb1	-0.017134042
72	0xbd24d672	-0.040243573
73	0xbd1f28be	-0.038857214
74	0xbd0af484	-0.033924595
75	0xbc8c5ebc	-0.017135017
76	0xbd2a0aa6	-0.04151406
77	0xbd1f8e4e	-0.03895407
78	0x3c8bd6b6	0.017070156
79	0xbbe69bc6	-0.0070376126
80	0xbcdf4a52	-0.027257118

bias f4 [3]
0	0x3b844287	0.004036251
1	0x3b03f693	0.0020135983
2	0x3b804615	0.0039146044

weight f4 [3]
0	0x3ec7c1e1	0.39015105
1	0x3ec86f15	0.3914725
2	0x3ec8587c	0.39130008

bias f4 [3]
0	0xbc5d20a5	-0.013496553
1	0x3bfc16ff	0.007693171
2	0xbc1dfb46	-0.009642428

running_mean f4 [3]
0	0xbc8c4a40	-0.017125249
1	0xbc9e1f34	-0.019301988
2	0xbc4331ea	-0.011913756

running_var f4 [3]
0	0x3abaa14a	0.0014238742
1	0x3a99d6f6	0.0011737037
2	0x3a91a914	0.0011113011

weight f4 [3, 3, 3, 3]
0	0xbc614907	-0.013750321
1	0xbc9c0fc4	-0.019050486
2	0xbc7e5fa4	-0.015525732
3	0xbcbc8575	-0.023012856
4	0xbcbd03e1	-0.023073139
5	0xbca00382	-0.019532923
6	0xbca6745c	-0.020319156
7	0xbc91442a	-0.017732698
8	0xbc5ccc35	-0.013476421
9	0x3aa3bd86	0.0012492395
10	0xbb825abb	-0.003978101
11	0x3b1353a7	0.002248028
12	0xbc76ce16	-0.015063783
13	0xbc626dea	-0.013820151
14	0xbc0b5a22	-0.008505376
15	0xbca66980	-0.020313978
16	0xbc9256a4	-0.01786358
17	0xbc17111f	-0.009220391
18	0xbba50145	-0.0050355517
19	0x3b0c6447	0.0021422075
20	0x3b772cf5	0.0037716005
21	0xbc358385	-0.01107872
22	0x39e47246	0.0004357269
23	0xbb37f105	-0.0028067243
24	0xbc3a412f	-0.01136808
25	0xbb307492	-0.002692495
26	0xbc51f95e	-0.012815801
27	0xbc706400	-0.014672279
28	0xbc646bf4	-0.013941754
29	0xbba56e51	-0.005048551
30	0xbd094808	-0.03351596
31	0xbd092ca3	-0.033489835
32	0xbc164512	-0.009171741
33	0xbd0e0bcd	-0.034679223
34	0xbca4654f	-0.020067839
35	0x3a38ab0b	0.00070445304
36	0xbd0b66c0	-0.034033537
37	0xbd3ca323	-0.046054017
38	0xbd056b1f	-0.03257286
39	0xbd4e8717	-0.0504218
40	0xbd84bfb8	-0.0648188
41	0xbd3bedeb	-0.045881193
42	0xbd38db35	-0.045130927
43	0xbd5fd5bc	-0.054647192
44	0xbd6a9245	-0.0572684
45	0x3ca89474	0.0205786
46	0x3cb9232a	0.022599775
47	0x3cb97339	0.02263795
48	0x3c845192	0.016152177
49	0x3bcb4923	0.006203787
50	0x3b643e96	0.0034827343
51	0x3af25d48	0.0018490935
52	0xbc6471d2	-0.0139431525
53	0xbcc3df38	-0.02391015
54	0x3b88e7ed	0.0041780383
55	0xbc791096	-0.015201708
56	0xbcb3df74	-0.021957137
57	0xbb291703	-0.002580107
58	0xbcb6553d	-0.022257442
59	0xbd04b349	-0.032397542
60	0x3c09a48f	0.00840105
61	0xbc1af4c3	-0.00945777
62	0x3a8f997b	0.0010955775
63	0x3cecfdb9	0.028929578
64	0x3cb0f74b	0.021602293
65	0x3d081cfa	0.03323076
66	0x3c39acff	0.011332749
67	0xbbc460e7	-0.005992997
68	0x3c859701	0.016307356
69	0xb5d64c9c	-1.5966539e-06
70	0x3ae85dc3	0.0017728138
71	0x3c3870ee	0.011257393
72	0x3cc48007	0.02398683
73	0x3ce93faa	0.02847274
74	0x3ce9b584	0.028528936
75	0x3ceb2287	0.028702987
76	0x3cb52d83	0.022116428
77	0x3cde4b26	0.027135443
78	0x3c2ff921	0.010740549
79	0xbbb57e0c	-0.0055387076
80	0x3c3465ff	0.011010646

bias f4 [3]
0	0xbb6c5ed0	-0.0036067255
1	0x3b42c0d6	0.002971699
2	0xba840836	-0.0010073248

weight f4 [3]
0	0x3ec80864	0.39068902
1	0x3ec8b884	0.39203274
2	0x3ec7e77a	0.3904379

bias f4 [3]
0	0xbc975a0f	-0.01847556
1	0x3c80ce20	0.015723288
2	0xbcff5b7d	-0.031171555

running_mean f4 [3]
0	0xbe4e0427	-0.20118771
1	0xbe37579a	-0.17904511
2	0x3e17fab9	0.14841737

running_var f4 [3]
0	0x3d9c439e	0.076300845
1	0x3d90fc45	0.070793666
2	0x3d1bb274	0.038011983

weight f4 [3, 3, 3, 3]
0	0xbb27ad9e	-0.0025585662
1	0x3cb63e7f	0.022246597
2	0x3c23d797	0.010000131
3	0xbc1fa327	-0.009743488
4	0x3cb01fde	0.02149957
5	0x3cb21eeb	0.021743258
6	0xbceceb3e	-0.028920766
7	0x3bf7e5c0	0.00756523
8	0x3c5dc879	0.013536566
9	0xbd106af1	-0.035258237
10	0xbcf897bc	-0.03034579
11	0xbc369e62	-0.01114616
12	0xbd0ceed2	-0.034407444
13	0xbd0b556e	-0.03401702
14	0xbcb34f27	-0.021888329
15	0xbd1dc447	-0.038517263
16	0xbd0cf1a4	-0.034410134
17	0xbce7eeaf	-0.028312055
18	0xbb8221b5	-0.0039713033
19	0xbb9915db	-0.004671795
20	0xbc94ca91	-0.018162997
21	0xbb9936ef	-0.004675738
22	0xbb814638	-0.0039451383
23	0xbca63308	-0.020288005
24	0xbb3d3053	-0.0028867915
25	0x3b8c19c8	0.0042755343
26	0xbaa4163d	-0.0012518835
27	0xbab0232a	-0.0013438214
28	0x3bf9b9a3	0.0076210066
29	0xbc66441e	-0.014054326
30	0xba4f81dc	-0.0007915774
31	0x3c251765	0.0100763785
32	0xbb69e48b	-0.00356892
33	0xbcbf61a6	-0.023361992
34	0xbb3ddd97	-0.002897119
35	0xbc829b4d	-0.015943194
36	0x3c2f999e	0.010717778
37	0x3ce6c0fe	0.028168198
38	0x3c55d011	0.013050095
39	0xbbbcf3ba	-0.005766359
40	0x3be25e81	0.0069082384
41	0x3c1812c7	0.009281821
42	0xbc76e8fc	-0.015070196
43	0xbc2db5c2	-0.0106024165
44	0xbb11baeb	-0.0022236656
45	0xbd1b44d2	-0.03790743
46	0xbd649b29	-0.055812035
47	0xbd3cad78	-0.04606387
48	0xbcb9d371	-0.022683831
49	0xbd1e112c	-0.038590595
50	0xbcc823c8	-0.024431124
51	0xbbd11f95	-0.0063819387
52	0xbcbdc623	-0.023165768
53	0xbc5098ed	-0.012731773
54	0xbcd0748c	-0.025446199
55	0xbcb0bb04	-0.021573551
56	0xbcd7ae80	-0.026328325
57	0xbcc4b2a8	-0.024010971
58	0xbcb39cad	-0.021925295
59	0xbcd02c04	-0.025411613
60	0xbd01eca9	-0.031719837
61	0xbcb5dfa1	-0.022201361
62	0xbcdaeccf	-0.026724247
63	0xbc8be29a	-0.017075825
64	0xbca81066	-0.020515632
65	0xbcb29449	-0.021799223
66	0xbc9c0704	-0.019046314
67	0xbca94f2c	-0.020667635
68	0xbcb4a3fc	-0.02205085
69	0x3b629911	0.0034576098
70	0x3b281925	0.0025649753
71	0xbc438233	-0.011932897
72	0xbae2b624	-0.0017296714
73	0xbbf84e3a	-0.0075776847
74	0xbbd63837	-0.006537463
75	0xbc3b33ab	-0.011425893
76	0xbc76e9ac	-0.01507036
77	0xbc0b5b53	-0.00850566
78	0xbc748c4d	-0.014926028
79	0xbc86665c	-0.01640623
80	0xbc2ed8b9	-0.010671788

bias f4 [3]
0	0xba749597	-0.0009330152
1	0xbb763316	-0.003756707
2	0xb9a2a02e	-0.0003101839

weight f4 [3]
0	0x3ec8589c	0.39130104
1	0x3ec815b0	0.39079046
2	0x3ec885ed	0.39164677
