backup/package/Games/hex/Models/net_1.pt (torch, 159246 bytes, 143 tensors)

weight f4 [3, 3, 3, 3]
00000000: 5f89 883c dd9a 3cbb 44f7 5c3c 3ddb 9f3c
00000010: e791 19bd 940a 953c c735 b8bc f60b 19bd
00000020: 8ea2 953b f39a c33c 9fb8 a33c e2e8 bdbc
00000030: 7530 393c 557c 9a3d eff9 edbc 07fc aa3c
00000040: e75c 803d 4313 5ebb f5dc 13bc 4c29 f5bb
00000050: 5d47 ae3c f6bd 93bb 6e2d 15bd 9221 ae3c
00000060: 0d88 893c e8aa c3bc 6100 cd3b ff49 4dbb
00000070: 9d1a b53c fc9c 693d 12fd 493c 6df7 0b3d
00000080: 45af 003d bf2e 183d 3b16 323c 64b5 c6bb
00000090: 2fb4 a2bc d73a eebb 9fae 64bd 8afc b6bc
000000a0: 07c6 1dbb 95d9 34bd b9cc 04bd f152 293c
000000b0: 3106 a9bc 7fdd 123c 1ced d0bc d79c 8f3b
000000c0: d0c0 183c d64d 04bd d211 3e3c 3020 87bc
000000d0: d0dc 25bd 02d4 b8bb b2d0 89bc e1f2 fd3b
000000e0: 1357 f2bb 2de8 1e3b ed8c 95bc 087c 94bc
000000f0: 41b5 a3bb 3e35 f0bc b5fa 3d3b 9016 363d
00000100: 7f65 efbc cc81 d2bc 0912 553c d005 513c
00000110: 64a1 3bbc a524 41bc f366 203c eb50 0d3b
00000120: aac4 fcbc 6460 0c3c 00fe 563d 865e b3bc
00000130: 024d 9a3b 8f26 0c3d 7d31 973b 0f78 793c
00000140: 8521 7c3c
0.016667066 -0.002877883 0.013486687 0.01951372 -0.03749266 0.01819352 -0.02248658 -0.037364922
0.004566497 0.023877596 0.019985495 -0.023182336 0.011303057 0.07543246 -0.029049842 0.02087213
0.0626772 -0.0033885993 -0.009024848 -0.0074817296 0.021274263 -0.004508729 -0.03642028 0.021256242
0.016788507 -0.023885205 0.0062561487 -0.0031324623 0.022107417 0.057034478 0.012328403 0.03417151
0.03141715 0.037153956 0.010869558 -0.006064104 -0.019861309 -0.007270198 -0.055830594 -0.022337217
-0.0024074332 -0.044152815 -0.0324218 0.010334716 -0.020632835 0.008963942 -0.025503688 0.0043827104
0.009323314 -0.032300793 0.011600928 -0.01649484 -0.040493786 -0.0056405077 -0.016823146 0.0077499007
-0.007395634 0.0024247274 -0.018255675 -0.018125549 -0.0049959724 -0.029322263 0.0028988544 0.04445511
-0.029223202 -0.025696658 0.013004788 0.012757733 -0.011452053 -0.011788522 0.00979017 0.0021563123
-0.030855495 0.008567903 0.052488327 -0.021895658 0.004708887 0.03421646 0.0046140538 0.015226378
0.015388851

bias f4 [3]
00000000: 0d18 563b 22b1 25ba 8c2b 4139
0.0032668144 -0.00063206453 0.00018422137

weight f4 [3]
00000000: 1d1e c83e e16d c93e 8d17 c63e
0.39085475 0.39341643 0.38689843

bias f4 [3]
00000000: c0bb 183c b893 903c 6767 83bc
0.009322107 0.017648563 -0.016040517

running_mean f4 [3]
00000000: 99ac 7b3b edd4 03bd ef27 1d3c
0.0038402437 -0.032185484 0.00959204

running_var f4 [3]
00000000: af00 503b 8dee 753b f9f3 8a3b
0.0031738689 0.003752622 0.0042405096

weight f4 [3, 3, 3, 3]
00000000: 4b39 a0bc d13d 1dbb 35eb 2c3d 6b27 98bc
00000010: 63b6 77bc 772c 373c b2a3 8bba 0698 85bc
00000020: d225 863c b181 14bd e31d a6bc f058 0f3d
00000030: 256f 38bd fcfb bfbc 08fd 003d abb9 ad3b
00000040: 1060 9d3c 2ff9 0e3d 9ac8 c23b 0ed9 b2bb
00000050: 73a7 b5bb d9d2 8f3c 352a 7abc 65b0 03bc
00000060: f0b3 c63b 3b65 3bbc cd54 adbb bdb6 67bc
00000070: 0396 88bb 1e0d 4a3c e95f b1bc 846b debc
00000080: 909c 073c 75f6 96bb 0114 11bc cba1 6dbc
00000090: f739 713a bb20 293d 4628 613c 209d 073d
000000a0: a3d8 233d f535 84bc 65c5 a83d 9232 e23b
000000b0: a2dd b6bc c39f 68bc 185c cfbc b158 513d
000000c0: fb3f c5bc f109 91bc 9456 233d 831e ddbc
000000d0: 0638 863b 5b3d 17bc e0f7 483c 5b52 973b
000000e0: 8749 b9bc c8ac 8ebc e1de 463d a805 dcbc
000000f0: be84 05bd 254f 973c 4177 61bc 37c1 e2bc
00000100: 39d8 ae3c 2d04 233d 3276 9abc 73e4 483d
00000110: 965c a3bb 735e 293c 485d 9cbc f916 3a3a
00000120: e38f 8d3c fc7f aa3c f27a cdbb 3a8f 94bc
00000130: f92f 593c 95f5 6d3c ead5 08bd 52e5 803b
00000140: b9c4 74bb
-0.01955857 -0.0023993144 0.0422165 -0.018573483 -0.015119168 0.011180035 -0.0010653643 -0.016307842
0.016375456 -0.036256496 -0.020277923 0.034996927 -0.04502787 -0.023435585 0.03149131 0.0053016744
0.019210845 0.03490561 0.0059443237 -0.005458004 -0.005543643 0.017556595 -0.015268852 -0.008037661
0.0060639307 -0.011437709 -0.00528965 -0.014142689 -0.0041682734 0.012332229 -0.021652179 -0.027150877
0.0082770735 -0.0046070167 -0.008854867 -0.0145039065 0.0009202058 0.04129098 0.013742512 0.03310883
0.040001523 -0.01613901 0.08240775 0.006903001 -0.02232248 -0.014198246 -0.025312468 0.051109973
-0.02407836 -0.017704936 0.03987749 -0.026992088 0.004096034 -0.009230937 0.012266129 0.004617972
-0.022618068 -0.017416373 0.048552398 -0.026858166 -0.032597296 0.018470356 -0.0137613425 -0.027680023
0.021343337 0.039798904 -0.018855188 0.04904599 -0.0049854023 0.01033746 -0.019087449 0.000709876
0.017280525 0.02081298 -0.0062707597 -0.018134702 0.0132560665 0.014523883 -0.03340713 0.003933587
-0.00373487

bias f4 [3]
00000000: e33e 20bb 1ab3 c6bc 8047 91bd
-0.0024451546 -0.024255324 -0.07093716

weight f4 [3, 3, 3, 3]
00000000: fc51 e73b f0e0 bcbc 245b 5ebc e95e ab3c
00000010: 34d3 7abc 5bc7 08bc 24c8 883c aeae cd3a
00000020: 43fe cf3b 631b b03c 7899 463d 8165 213d
00000030: da5c 333d 9d5f 913c 1db6 e03b 9a03 063d
00000040: 58d8 8c3c 52ee b039 6616 cfbb 6df1 c3ba
00000050: 8c2b 9fbc b63f 2036 ad70 80bb 0ffb efbb
00000060: 6426 853b 4531 163c a4ca 50bb 210a c23c
00000070: 6fbc b9bb 00aa 09bc 6544 fb3c fa8a 98bb
00000080: 201b 543c 630d a23c ef9a b43b e00c 5c39
00000090: ac9c d33c 4566 8d3c d505 0d3c a342 683d
000000a0: 562e a13b 637c 463d 34e1 fe3c 73fd 073d
000000b0: 4e43 ad3c 824a 6f3c 2dee 1e3a ca91 d0bc
000000c0: 34b5 94bc 2474 163c a364 5f3c 9ccb dfbb
000000d0: 4bed 023c 4e76 0c3c ad97 013d 2c22 d7bb
000000e0: 4a2c 25bc 055c cd3c 3054 31bc 4b43 b2bb
000000f0: 23c0 983c 9a64 c9ba f12b 96ba e1b4 e3bb
00000100: 5e5a 3f3d 53ec 4a3d d306 933c 855c 003d
00000110: d498 843c 02e3 803c 39b8 293c 5f52 9b3c
00000120: 11cd 873b 4e9c c33b 196a 9cbb 8a76 25bb
00000130: 28e3 e7bc 69d2 44bc c5bc fabc 0455 543a
00000140: cf04 063c
0.007059334 -0.023056477 -0.013571534 0.02091928 -0.015309144 -0.008348311 0.016696997 0.0015692317
0.006347449 0.021497434 0.048486203 0.039403442 0.043789722 0.017745787 0.006857647 0.03271828
0.017193004 0.00033746898 -0.006319809 -0.001494927 -0.019429944 2.3878943e-06 -0.003919682 -0.0073236297
0.0040634144 0.00916702 -0.0031859064 0.02368647 -0.005668215 -0.008402348 0.030672261 -0.004655239
0.01294592 0.019781774 0.0055116336 0.00020985631 0.025831543 0.01726068 0.0086073475 0.056704175
0.0049188538 0.04845847 0.031113245 0.033200692 0.021150257 0.014605166 0.00060627126 -0.025460143
-0.01815281 0.0091829635 0.0136348335 -0.006829692 0.007991145 0.008573128 0.03163879 -0.006565353
-0.01008136 0.025068292 -0.0108232945 -0.005440151 0.018646305 -0.0015365065 -0.0011457187 -0.0069490527
0.04671704 0.049541783 0.01794759 0.031338234 0.016186155 0.015733246 0.0103588635 0.018960176
0.004144319 0.0059695607 -0.00477339 -0.0025247657 -0.028306559 -0.012013056 -0.03060759 0.00080998265
0.008179857

bias f4 [3]
00000000: aec3 b2b9 c314 49bb 0057 20ba
-0.00034096598 -0.003068254 -0.00061164796

weight f4 [3]
00000000: b85e c63e be02 ca3e c870 c83e
0.3874414 0.39455217 0.39148545

bias f4 [3]
00000000: 267d 443c 5323 a83b c6be c63a
0.011992728 0.005131164 0.0015163056

running_mean f4 [3]
00000000: bfbf 4c3b a702 9f3b c635 943b
0.003124222 0.004852611 0.004523012

running_var f4 [3]
00000000: c2e5 213a de5f 1e3a f731 1c3a
0.0006175899 0.0006041507 0.0005958373

weight f4 [3, 3, 3, 3]
00000000: ee2b 98bb 4e72 5f3c 7466 813c 2dbf 663c
00000010: b7dd 2f3c ab1d 913c d288 073d bd2e 273d
00000020: f24f a43c 0035 613c 012c 253c 619d 943c
00000030: 4d3b 663c 1e02 a83c a20c 363c 3d2c 173d
00000040: 1d53 093d 476a aa3a c84c 043c eaf1 0a3d
00000050: 834c ebbb 6005 933c e919 67bc 6e2f aebc
00000060: a371 d13b c4fb 42bb dc03 e63c de8e e5ba
00000070: 1089 333b 2bad f03b 134d 87bc 610e babc
00000080: 8b96 a5bc 2952 a5bc 2189 8dbc 32e1 233c
00000090: 80d5 4fbc c965 37bb 4a3b faba 360d e7bc
000000a0: f234 8dbc e26f b0bc fb08 cdbc 34cb 3abc
000000b0: e2ea 4ebc bf5a 69bc c0d0 dc3b 52b6 4f3c
000000c0: e245 7fbb 3166 173c ce04 8abc 4081 20bb
000000d0: 61fa b4bc e68a 39bd c733 2a3d 17ba 25bd
000000e0: 3115 17bc 2893 bc3c 737e 1cbd 56ec a9bb
000000f0: 3cc6 cbbb e55a 4bbc 90fd 1b3b 080b 913c
00000100: 0f48 2ebd 92c3 d4ba 6ad7 493c 92d8 afbc
00000110: 4220 d4bb f195 383b d900 293c eac6 e1bb
00000120: 6d7b 92ba 6753 3cbc c1cc ddbb 0f49 2abb
00000130: 47f7 1fbd c1cc a1ba 1ecd 6cbc 81d6 b7bc
00000140: ed46 b93c
-0.0046439087 0.013638092 0.015795924 0.014083666 0.010734013 0.017714342 0.033089466 0.040816057
0.020057652 0.013745546 0.010081292 0.01814145 0.014052224 0.020508822 0.01111141 0.036907423
0.03352653 0.0013001644 0.008074947 0.033922113 -0.0071807518 0.017946899 -0.014105299 -0.02126285
0.0063917204 -0.0029752115 0.028078012 -0.0017513891 0.0027394928 0.007344862 -0.016516244 -0.022711935
-0.020213386 -0.020180779 -0.017277302 0.010002421 -0.01268518 -0.0027984253 -0.0019091156 -0.028204542
-0.01723716 -0.021537725 -0.025028696 -0.011400986 -0.012629243 -0.014242827 0.006738752 0.012677746
-0.0038951566 0.009240673 -0.016847994 -0.0024491102 -0.022092046 -0.04529848 0.041553285 -0.040460672
-0.009221361 0.023019388 -0.03820653 -0.005185644 -0.0062186997 -0.012411808 0.0023802258 0.017705455
-0.04254919 -0.0016232601 0.012319425 -0.021465573 -0.006473572 0.0028165544 0.0103151435 -0.0068901675
-0.00111757 -0.011494494 -0.0067687933 -0.0025983488 -0.03905418 -0.0012344347 -0.014453201 -0.02244115
0.022616828

bias f4 [3]
00000000: f3a9 76ba 144e ad39 e2ed 7bb9
-0.00094094797 0.00033055304 -0.00024025844

weight f4 [3]
00000000: b206 c93e 22aa c73e c6c4 c83e
0.3926292 0.3899699 0.39212626

bias f4 [3]
00000000: 2332 693c 706a 2f3c 2f27 88bb
0.014233145 0.010706529 -0.0041550617

running_mean f4 [3]
00000000: 44a3 163d c99c e2bc 0723 593b
0.036776796 -0.027662652 0.003313245

running_var f4 [3]
00000000: 23ea 463b aab5 113b 00bc 0f3b
0.0030351959 0.0022233524 0.0021932125

weight f4 [3, 3, 3, 3]
00000000: cde5 af3c 7f42 6fba 5993 bbbb 5ff3 d83c
00000010: 1155 933b c5ba b0bc 2cb6 163d 3aa7 bc3a
00000020: bb87 f3bc 7e49 b73b fcde d03b 0e15 9bbb
00000030: 7662 be3b 5c9f 533c c20b ad3b 8f15 b8ba
00000040: 5548 593c 3acc eb3a 8ba3 653c 60a6 093d
00000050: f940 f4bb 9cf7 8d3c 9e56 0e3d 5bfe 97bb
00000060: 2a1b 0d3c 5671 093d da88 68ba e668 6bbc
00000070: f2b2 f7bb 58ee 86bb 8dbd 8dbc 1bb0 cbbb
00000080: a176 d6ba 34c9 b8bc 6353 f1ba 5df3 79bc
00000090: 5885 af3c bbf4 2e3c d23c af3c 9fc9 7d3c
000000a0: 5565 0bbb 09bd b43c 4d25 903b 4b0e 99bc
000000b0: c54c 253c 5b28 99bc 0fb9 acbb b4d8 473b
000000c0: 0352 84bc b6df 05bc c049 9e3b 701a d9bc
000000d0: de56 99bc dfb4 10bc 1d50 89bc cac6 57bc
000000e0: f63e f8ba 636f 98bb cb58 81bc e0c9 93bc
000000f0: 5caa 43bb 981c 8dbc 9bae e3bc 6b79 223c
00000100: c21f 963a f6ea c83b 040b 8db9 572b dd3a
00000110: 9c28 933c da04 813b 6031 513a 4f83 803c
00000120: b3ca 413c 2ffa 5f3b 8576 0b3c a311 a9bb
00000130: 30b3 273c d92a e43c da36 c23a d03b 65bb
00000140: 0858 833c
0.021471882 -0.0009127035 -0.0057243523 0.026483236 0.0044962247 -0.021573434 0.036794826 0.0014393099
-0.029727807 0.0055934777 0.006374238 -0.0047327345 0.0058100773 0.012916412 0.0052809427 -0.0014044511
0.013261874 0.0017989941 0.014016042 0.033605933 -0.0074540344 0.017329983 0.034750573 -0.004638476
0.008612433 0.03355535 -0.000887049 -0.014368271 -0.0075591737 -0.0041177683 -0.017302299 -0.006216062
-0.0016362258 -0.022556879 -0.0018411692 -0.015255776 0.021425888 0.0106784655 0.021391306 0.015489965
-0.0021270115 0.022062795 0.004398978 -0.018683573 0.010089104 -0.018696 -0.005271084 0.0030494155
-0.016152387 -0.008171013 0.004830569 -0.026501864 -0.01871818 -0.0088321855 -0.016761834 -0.013169954
-0.0018939662 -0.00465195 -0.01578941 -0.018040597 -0.002985618 -0.017225549 -0.02779322 0.009916644
0.0011453556 0.006131525 -0.00026901823 0.0016873878 0.0179637 0.003937346 0.0007980075 0.015687613
0.011828112 0.003417622 0.008512144 -0.005159573 0.010235593 0.027852463 0.0014817372 -0.0034978278
0.016033188

bias f4 [3]
00000000: b3ba 3ab9 dbee 2abb 2cfa 25bb
-0.00017807893 -0.002608231 -0.0025326116

weight f4 [3]
00000000: 2f7b c73e aba3 c83e b794 c83e
0.3896117 0.3918737 0.3917596

bias f4 [3]
00000000: a460 d5bb 2afa 423c 595a fe3b
-0.0065117646 0.011900464 0.007762235

running_mean f4 [3]
00000000: 9c53 163c 356d a8bc b4ff 24bd
0.0091752075 -0.020559886 -0.04028292

running_var f4 [3]
00000000: 09e3 f23a 6cbf 623b a828 d53b
0.0018530797 0.003459896 0.0065050907

weight f4 [3, 3, 3, 3]
00000000: 2fe8 5e3c eae7 3d3c f8fb fbbb f9af 1c3c
00000010: 8fda 803b 52ca 93bc 3719 833c a639 413c
00000020: f606 c7bc 347b 97bc c011 85bc 9b28 f0bb
00000030: 182d 15bc f080 fbbb ebac b4bb 00d3 e8bb
00000040: efac 7ebb 7cc1 38bc d35d 323b 68e3 e8bc
00000050: 4cec 17bd a965 bfb9 6049 3ebc 8d12 93bc
00000060: da03 17bc a491 82bc c0ab b6bc 589e 5c3b
00000070: d731 8bbc 9cb9 933b 5974 82bb 217a 8ebc
00000080: 8ac2 873a 5019 00bc c431 b3bc 22f5 393c
00000090: 5435 5e3b 27ba 92bc 1b22 9ebc 424b a53b
000000a0: 2674 90bc 9502 d2bc 9db9 f8bb 16b7 7fbc
000000b0: 6d21 12bd 732a 06bc 432e 97bc 4f4c b2bc
000000c0: e394 b0ba eb46 92bc 99f4 93bc 5657 97b9
000000d0: ce44 b3bc 35d4 b1bc c55a 8d3c e280 e2bc
000000e0: c4ae 21bd eb0d 063d 6b71 a8bc 8fd0 04bd
000000f0: 05b4 3f3d 8b02 3abc d8bc 47bc 8f9c 50bc
00000100: 6ceb 06b8 3395 09bc cb19 e4bb 88d3 1f3c
00000110: de8f 52bb c703 01ba d85b 343c e8e5 67bb
00000120: 8333 eabc 5eef 30bc 2424 3abb de37 c5bc
00000130: 257c 15bb b7e8 cfb8 7415 05bd 4edc 243a
00000140: fb0c 74bb
0.013605162 0.011590937 -0.007689949 0.0095634395 0.003932304 -0.01804081 0.016003234 0.01179353
-0.024295311 -0.018491365 -0.016243815 -0.0073290593 -0.0091049895 -0.0076752827 -0.0055137775 -0.0071052313
-0.00388604 -0.011276599 0.0027216568 -0.028428748 -0.037090585 -0.00036506102 -0.011614174 -0.017953182
-0.009217227 -0.015938587 -0.022298694 0.0033663716 -0.016991539 0.0045082103 -0.003981155 -0.01739222
0.001035766 -0.007818535 -0.021874316 0.011349948 0.0033906298 -0.01791103 -0.019303372 0.005044372
-0.017633509 -0.025635997 -0.007590486 -0.015607616 -0.03567641 -0.008188832 -0.018454676 -0.021764902
-0.0013472106 -0.017856082 -0.01806097 -0.00028866035 -0.021883395 -0.021707634 0.017255196 -0.027649347
-0.03947331 0.032728117 -0.020561894 -0.03242546 0.04680254 -0.011353145 -0.01219102 -0.012732639
-3.2167343e-05 -0.008397388 -0.0069610826 0.009755023 -0.0032129209 -0.00049215223 0.011008225 -0.0035384838
-0.028589016 -0.010799257 -0.002840289 -0.024074491 -0.0022809592 -9.913876e-05 -0.032491162 0.00062889315
-0.0037239182

bias f4 [3]
00000000: 3f17 873a 18b3 58bb 9f48 b8ba
0.001030661 -0.0033065733 -0.0014059729

weight f4 [3]
00000000: 3cd2 c83e 3746 c83e b933 c83e
0.39222896 0.3911607 0.3910196

bias f4 [3]
00000000: 0775 d03c 4b89 033c 8e79 64bb
0.025446428 0.008028339 -0.0034862491

running_mean f4 [3]
00000000: d6b6 e2bc 3a6a e9bc 74c4 e6bc
-0.027675074 -0.028493036 -0.028169848

running_var f4 [3]
00000000: b0e7 b53a f3a8 d83a b9ff ad3a
0.0013878252 0.0016529843 0.0013275064

weight f4 [3, 3, 3, 3]
00000000: f3d4 21bc d42f 93bc c37e 09bc 0e8c 2fbc
00000010: bfc0 05bd 6e95 54bc 63de 01bc ee05 d9bc
00000020: fc37 24bc 1cb9 c5bb 54c1 35bb d7b7 bebb
00000030: a0c3 49bc a5e0 23bc 6244 09bb 5aea 8bbb
00000040: 597b 52bc 5bd2 80bb fb1a 0dbb b9b6 00bb
00000050: 9d3d f93b 0789 4bbc 4774 68bc ff30 75bb
00000060: f195 3dbc 789c 1fbc 65c3 e33b 3e6e 953c
00000070: 4a72 263d 2059 a93c 9f8c 833c 5f7d 063d
00000080: f427 dd3b 1cc3 7f3c 5650 c73c 86d3 8abc
00000090: 3d61 67bc c6fd 97bc e261 403c 66cc efbb
000000a0: f41f 28bc ecf4 a53c be13 9fbc f1dc 20bc
000000b0: 38c0 453c c37e 1ebb 9ac3 f73b 1c87 a13c
000000c0: 7f05 e8bb 3d2d 143c ae46 0c3d 19a9 b8bc
000000d0: 3240 98b9 0e39 643c 9a42 afbc d171 91bc
000000e0: fa63 3abc a9bf 4abc d489 80bc da81 c5ba
000000f0: 1df8 433c 61b6 7abb 6340 1dbc e90c dbbb
00000100: b1b2 8fbb 799c 1aba a05a 39bc 25a5 74bc
00000110: 2fae 6fbb 96fd b8bb 090e 05bc dd1f a3bb
00000120: 7cc9 09bc 441c fabb 9409 dfbb 1431 1cbc
00000130: 0cc5 e5ba 4ebb 2dbb e607 143b a0bf ed3b
00000140: 8ee4 59bb
-0.009877431 -0.017967142 -0.008392039 -0.010714544 -0.03265452 -0.01297508 -0.007926556 -0.026492085
-0.010023113 -0.0060340296 -0.002773364 -0.0058202553 -0.012314707 -0.01000229 -0.00209453 -0.0042698802
-0.012846791 -0.0039313263 -0.0021530974 -0.0019640161 0.007606222 -0.012422807 -0.014187879 -0.0037413237
-0.011571393 -0.009741895 0.006950783 0.018241044 0.04063634 0.02067238 0.016058264 0.032834407
0.0067491475 0.015610483 0.0243303 -0.016946565 -0.0141223045 -0.018553626 0.011742087 -0.0073180674
-0.0102615245 0.02025839 -0.019418593 -0.009818302 0.012069754 -0.0024184443 0.0075611593 0.019717745
-0.0070807333 0.009043989 0.034247093 -0.02254157 -0.00029039528 0.0139296185 -0.021394063 -0.017754467
-0.011376375 -0.012374797 -0.015690722 -0.0015068606 0.01196101 -0.003825568 -0.0095978705 -0.0066848886
-0.0043853153 -0.000589795 -0.011313111 -0.014931952 -0.0036572327 -0.005645464 -0.008121022 -0.0049781636
-0.008409854 -0.007632764 -0.0068065617 -0.0095331855 -0.0017530038 -0.0026509347 0.0022587716 0.0072555095
-0.0033247801

bias f4 [3]
00000000: 39e5 5bb9 175a 29b8 f714 4fb8
-0.0002097086 -4.0376643e-05 -4.937217e-05

weight f4 [3]
00000000: fc41 c83e 32d9 c73e 7e8e c83e
0.39112842 0.39032894 0.39171213

bias f4 [3]
00000000: 0de8 423a a22c 42bc 6215 563c
0.0007435091 -0.011851462 0.0130666215

running_mean f4 [3]
00000000: a806 5ebd 36a6 c13c e250 81bd
-0.054205567 0.023638826 -0.06314255

running_var f4 [3]
00000000: 0cda 933b df94 463b 88ca cf3b
0.004512077 0.0030301136 0.0063412823

weight f4 [3, 3, 3, 3]
00000000: 2e46 53bc 1b34 72bb 07f6 1ebc 993a 91bc
00000010: 4667 8ebc d577 94bc 8ce6 52bc 6486 a2bc
00000020: 95fd 9ebc 1580 343c 3a06 413c 1208 863c
00000030: e5f7 9b39 c2bf 873b 6c1d 69bb 5ec0 d0b9
00000040: 1377 19b9 4ae0 21bc ba21 5ebc a5ca fcbb
00000050: 3675 85bc a581 dcbc b867 76bc d44a 92bc
00000060: 380c 70bc 1e05 21bc bd8e 49bc 1bb3 083b
00000070: 5591 05bd 2013 b9bc 7ff2 733b 1924 debc
00000080: cd65 a2bc 33c9 aebb 4cc5 34bc 8c54 3abc
00000090: 9dc2 2abc bc6d 5f3c 742d dc3c 2181 86bc
000000a0: 8c3b 743c 8b9b 9a3c 8ae7 7fbc 2f1e 6e3c
000000b0: 53d1 253c 48b9 373c 49c6 e1bc dc9a fcba
000000c0: b7dd 6c3b bdb6 c3bc 8f72 e3bb bc25 b7bb
000000d0: 4425 bdbc 7225 77bc 4391 10bc 5028 3cbc
000000e0: cb82 87bc 0741 32bc b0ef 11bc 05a1 cebb
000000f0: 6a14 c23b 16d1 343c 0a08 d33b e9e5 863b
00000100: c2db 7d3c ee7b 8c3c 8736 04bb 3090 213c
00000110: 2dff 913c 7bb8 a9bb 7a04 af3b 5653 aa3c
00000120: 90a8 0bbb 705d 84bc aa7a 7cbc d8ae 03bc
00000130: 78b2 9abc 2bb6 59bc ab9b 0dbc 048f debb
00000140: 3fc2 dabb
-0.01289515 -0.0036957327 -0.009702212 -0.017728137 -0.017383229 -0.018123547 -0.0128723495 -0.019839473
-0.019408027 0.011016865 0.01178127 0.01636127 0.000297486 0.0041427324 -0.0035570515 -0.00039816176
-0.00014635576 -0.009880135 -0.013557846 -0.007714587 -0.016291242 -0.026917288 -0.015039377 -0.017857946
-0.014651351 -0.00982788 -0.012302098 0.0020858708 -0.032609303 -0.022592127 0.0037223396 -0.027116822
-0.019823933 -0.0053340434 -0.011033367 -0.011372697 -0.010422376 0.013637003 0.026877142 -0.016418995
0.014906775 0.018872997 -0.015619168 0.0145335635 0.010120708 0.011213608 -0.02756037 -0.0019272226
0.0036142895 -0.023890847 -0.0069411467 -0.005589215 -0.023089059 -0.015084611 -0.008823696 -0.011484221
-0.01654186 -0.010879762 -0.008907244 -0.006305816 0.0059228437 0.011036178 0.0064401673 0.004116763
0.015494289 0.017148938 -0.0020174102 0.009861037 0.017821873 -0.0051794625 0.00534111 0.02079169
-0.0021310188 -0.016157836 -0.015410105 -0.0080372915 -0.018883929 -0.013288061 -0.008643071 -0.006791951
-0.006675988

bias f4 [3]
00000000: 7653 5b3a 7f39 7d3a fd6b 38b9
0.00083666237 0.00096597517 -0.00017587836

weight f4 [3]
00000000: cd40 c83e 74d4 c83e 6986 c83e
0.3911194 0.3922459 0.39165047

bias f4 [3]
00000000: c8a4 873c c7b8 a13c 209c 513c
0.016558066 0.019741429 0.012793571

running_mean f4 [3]
00000000: 835d f2bc f7dd 9ebc 337f c4bc
-0.029585605 -0.01939295 -0.023986435

running_var f4 [3]
00000000: 24b1 dd3a 272d f23a 18ef b63a
0.0016913754 0.0018476591 0.0013956754

weight f4 [3, 3, 3, 3]
00000000: f009 73bc a449 24bc e27d 983b f780 5dbc
00000010: c213 68bc a99f 44bc 2d59 ab3a 4fd6 3abc
00000020: ff0e 9fbc 1596 83bb a79a 5eba 3ff1 8abb
00000030: d3a4 6abc 6331 9aba 92b9 163b a971 cbbb
00000040: fb01 5d3c ba62 c23c 20e0 c9ba b409 103b
00000050: ed79 93b8 ad24 5bbc cb76 6abc c213 e23b
00000060: f003 e2ba 34db dbba 45a5 debb 1eb7 bfbc
00000070: 520a adbc b543 383b 1d60 0cbd 80e2 6cbc
00000080: bbbf 6f3c 162f 95bc be59 98bb a55f 083d
00000090: 70b3 423c 9b8d 5e3c aab0 663c b947 1f3c
000000a0: fefb ef3b 8be4 fd37 ca7e ec3c 2015 d53c
000000b0: e060 273c 34c8 823c 7a33 2a3c 9700 893c
000000c0: 1ff6 833b e695 0a3c 0a4b e73b 6b94 bb3c
000000d0: 5fc4 753c 0ff8 863c 7981 243d a472 483d
000000e0: aa16 923c e04a 023d b70d 573d 614f 573c
000000f0: 13fb 103c c130 083c 3d8b bdbb 986a 183b
00000100: 7761 3dbc 50c2 f0bb 9ab4 5f3c c25b f2ba
00000110: ca3a 693c e1c2 56bc f0ba 06bd 6da7 7abc
00000120: 1fe5 51bb 178f e3bb 9989 90bb c8eb 223c
00000130: ad16 603c c4cb 3e3c 8afa 49bc fcec c1ba
00000140: ae90 c23a
-0.014833912 -0.010027323 0.0046536783 -0.013519517 -0.014164867 -0.012000957 0.0013072841 -0.011403634
-0.01941633 -0.004015694 -0.0008491673 -0.0042401846 -0.014321524 -0.0011763986 0.0022998792 -0.0062086177
0.013489242 0.023728717 -0.0015401877 0.002197844 -7.032217e-05 -0.013375443 -0.014310549 0.006899328
-0.0017243605 -0.0016773702 -0.006794604 -0.023402747 -0.021123085 0.0028116528 -0.03427135 -0.014458299
0.014633114 -0.018210929 -0.00464937 0.03329434 0.011883602 0.013583566 0.014080206 0.00972169
0.007323741 3.0266374e-05 0.028869051 0.02601105 0.010215968 0.015964605 0.0103882495 0.016723914
0.0040271427 0.00845859 0.007058506 0.02289792 0.015000432 0.016475705 0.040162537 0.048937455
0.017833073 0.031809688 0.052503314 0.013141484 0.008848923 0.008312405 -0.0057844208 0.0023256894
-0.011558882 -0.0073473826 0.013653899 -0.0018490481 0.014235208 -0.013107986 -0.03289312 -0.0152987065
-0.0032027436 -0.006944548 -0.004410934 0.00994391 0.013677281 0.011645261 -0.0123278 -0.0014795358
0.0014844143

bias f4 [3]
00000000: 751e 0fba 4548 8e38 8a58 893b
-0.00054595555 6.784549e-05 0.004191463

weight f4 [3]
00000000: 21f8 c83e 1c22 c83e 25a8 c73e
0.39251807 0.39088523 0.38995472

bias f4 [3]
00000000: d4ef e63b 03dd e83c babd c1bc
0.0070476327 0.0284257 -0.023650039

running_mean f4 [3]
00000000: a19d 5abd ebf3 823d dbd9 ae3d
-0.053372983 0.0639418 0.085376464

running_var f4 [3]
00000000: aa39 aa3b 6be9 003c ba7d 263c
0.0051948624 0.007868151 0.0101618115

weight f4 [3, 3, 3, 3]
00000000: 82e1 d93b 4156 893c 0977 33bc 7242 db3b
00000010: 2a60 423b 3ec6 afbb 05fa 7d3a a934 02bb
00000020: dfee b4bb 1514 17bc 3358 7abc 83fb 4ebc
00000030: fbe8 d13b ce17 93bb a806 06bc 2063 8e3c
00000040: d2a0 883c 621c 823b b6d9 a1bc 90d0 b8bc
00000050: 4ce5 a7bc 9699 27bc dad0 44bc eb42 87bc
00000060: 0c97 b7bb 6f34 a5ba 83db 1abb 908f babc
00000070: c80e 13bd fc94 38bc 9a6a 98bc 95f1 0bbd
00000080: cebf 27bc 0791 84bc c584 e7bc 9843 6abc
00000090: b798 32bc 57f8 063c 3b8a 1c3c baae 06bb
000000a0: f99f bb3c 5ede 833c e375 6f3b 92b0 e03c
000000b0: 40cd c33c d6d4 e6bb 91a0 17bc 0c24 1f3c
000000c0: 25bd 64bc 7bb2 1abc a2b3 353c c20b 07bc
000000d0: be50 b33a 3893 1f3c 6b7a 163c 785e 22bb
000000e0: 8f01 163b 2309 893c 3461 193c 64c8 c93b
000000f0: 1aa1 6f3c 7cae 403c 4ea8 0b3b 0f61 13bc
00000100: 362c a1ba 21ff 9b3b 40f0 3ebc 7919 5cbb
00000110: 7d48 a9bb 61ed 91ba c86e e4ba 8028 fbbb
00000120: 5865 eb3a 08c7 b6bb 24e5 c03b 3b81 79bc
00000130: 50c5 05bc 8b5c 373b 3e6f 2abc 8fdc 1bbc
00000140: 0947 a9bb
0.006649197 0.016764762 -0.010953673 0.0066912705 0.002965937 -0.0053642085 0.000968844 -0.0019867814
-0.0055216397 -0.0092210965 -0.015279817 -0.012633207 0.0064059473 -0.0044889217 -0.008180298 0.01738125
0.016678248 0.0039706687 -0.019757133 -0.022560388 -0.02049508 -0.010229489 -0.012012685 -0.016511401
-0.005602723 -0.0012604127 -0.0023629374 -0.022773534 -0.03590277 -0.011265989 -0.01860552 -0.034165937
-0.010238601 -0.016182436 -0.028261552 -0.014298342 -0.010900668 0.00823792 0.009554441 -0.0020550922
0.02290343 0.016097244 0.0036538772 0.027427945 0.023901582 -0.007044415 -0.009254591 0.009713184
-0.013961111 -0.009441967 0.011090191 -0.008242549 0.0013680679 0.0097396895 0.00918446 -0.0024775546
0.0022889113 0.01672799 0.009361554 0.0061579216 0.014625812 0.01176035 0.0021310034 -0.008995309
-0.0012296501 0.0047606383 -0.01165396 -0.0033584519 -0.005166112 -0.0011133366 -0.0017428035 -0.00766474
0.001795928 -0.0055779256 0.0058866907 -0.015228565 -0.008164719 0.0027978744 -0.010402499 -0.0095130345
-0.0051659388

bias f4 [3]
00000000: 0b1c 873a 0bac 00bb 9e8b 15bb
0.001030804 -0.0019633796 -0.0022818814

weight f4 [3]
00000000: f09f c73e 6b79 c83e 0397 c83e
0.3898921 0.39155135 0.39177713

bias f4 [3]
00000000: c512 3f3c 1fc0 dc3c 211b 4a3b
0.01166219 0.02694708 0.0030838924

running_mean f4 [3]
00000000: d779 86bc 724b 9ebc 7ef6 dabb
-0.01641552 -0.019323085 -0.006682216

running_var f4 [3]
00000000: cdfb 3c3b 044d 023b f651 c63a
0.0028836608 0.001988233 0.0015130627

weight f4 [3, 3, 3, 3]
00000000: 4ea5 a8bc d8db 763c 11f9 a7bc 5895 90bc
00000010: 0536 883c 064a 40bc de19 99bc ddd6 b33b
00000020: c987 87bb 34fe eb3b ba4a 1a3c ccd3 06ba
00000030: 1797 1e3c 6af1 933c 1076 3c3c c368 0b3d
00000040: 1b21 dc3c f37f 033d 85f4 06bc 1f58 423b
00000050: 1a9f abbc d8b4 27bc 0b49 663c ddc8 83bc
00000060: 2b4b 2f3b 1d54 b53c 136b 15bb 9f74 0ebc
00000070: 640a 8cbc 3d73 0939 5833 25bc cb0e f9bb
00000080: 90c1 1ebb 6a08 1cbc d968 abba ddd5 d9b9
00000090: 7b85 b2bc c563 4dbc 074a afbc 2a6c 88bc
000000a0: 641c d8bb 45ec 17bc 2b25 eebb b85d a1bb
000000b0: b9bd 14ba aefe 983b a519 373c 8479 b53b
000000c0: 82dd 453c fc24 e83b 4002 1b3c 8dcf 7e3c
000000d0: 60d5 943c 813f 663c 4017 e3bb c84a 373a
000000e0: cfb0 b33b 7316 1dbb a321 1b3b 4d41 133c
000000f0: b336 45ba 0115 633b 5713 a23b 869d 9cbb
00000100: 99c7 123c 0b0f b9bb 6fef 43bc dbd2 a7ba
00000110: 6451 21bc 4c67 e8bb 5a1b edbb 7926 23bc
00000120: be59 8f3b a571 a33b e43b a23b 4d4f cc3b
00000130: 1a53 813a 6630 313b 51a0 b8ba d327 e5bb
00000140: 9fba 65bb
-0.020586636 0.015067063 -0.020504506 -0.017649338 0.016627321 -0.011736399 -0.018689092 0.00548826
-0.00413606 0.0072019342 0.00941723 -0.00051432545 0.009679577 0.018059451 0.011502758 0.034035455
0.026871255 0.032104444 -0.008237009 0.0029654575 -0.020949889 -0.010235988 0.014055501 -0.01608699
0.0026747684 0.022134835 -0.0022799417 -0.008694797 -0.017094798 0.00013108268 -0.010083042 -0.0076006404
-0.002422426 -0.00952349 -0.0013077512 -0.00041548806 -0.021792164 -0.012535994 -0.021397604 -0.01665314
-0.0065951813 -0.00927264 -0.0072676144 -0.004924502 -0.0005674023 0.004669032 0.011175548 0.0055381674
0.012076737 0.007084487 0.009460986 0.015552414 0.018168151 0.014053226 -0.006930262 0.0006992039
0.0054837237 -0.002396968 0.0023671172 0.008987737 -0.00075231044 0.003464997 0.004946153 -0.0047795204
0.008958721 -0.005647545 -0.011958941 -0.0012803929 -0.009846065 -0.007092392 -0.0072359266 -0.009957903
0.004374712 0.0049879127 0.004950987 0.0062350393 0.0009866685 0.0027036904 -0.0014085864 -0.006993273
-0.0035053862

bias f4 [3]
00000000: ce47 3539 04ee a6b9 5b35 8c3a
0.00017288254 -0.00031839323 0.0010697054

weight f4 [3]
00000000: c3c7 c73e 243f c83e e19b c83e
0.39019594 0.39110672 0.39181426

bias f4 [3]
00000000: 5080 453c 2dc7 3ebc 9c66 4eb9
0.012054518 -0.011644167 -0.00019683916

running_mean f4 [3]
00000000: 64ed 963c a4e7 47bd 7702 a9bd
0.018423744 -0.048804894 -0.08252423

running_var f4 [3]
00000000: 71e4 7a3b 0fd1 ae3b a06b c13b
0.0038283134 0.0053349803 0.0059027225

weight f4 [3, 3, 3, 3]
00000000: d8d0 a4bc 6dec b93c 3abc 283c f4f9 96ba
00000010: 7d39 1f3d ff7f 0e3c 4ff9 4a3a 61d0 373d
00000020: 6684 3b3c b121 aebb f86b 72bc 49d0 bbbc
00000030: ff21 22bc f6e3 b4bc 1185 9cbc 3d9c 40bc
00000040: 44e3 7cbc cf58 c8bc f146 73ba f3d5 0abc
00000050: 43fc debc 6fc9 88bc 748c 06bd 2073 debc
00000060: 38f3 72bc b21d b5bc d108 e1bb fc06 41bc
00000070: aca3 babc 6050 febc 29ce 7ebc 24e6 bebc
00000080: 0e22 afbc 6e69 b6bb b3b2 1dbd 402e b3ba
00000090: fb20 e9bb 84f7 2cbc c56b f0bb 45f8 1bbc
000000a0: 8472 65bc 496f 48bc fe93 6fbc e79e 52bc
000000b0: 5e6e 24bc 00d7 ff3b dea9 d9bb 43a5 133c
000000c0: d780 c9bb 3aee 69bc 4938 34bb 1794 f23b
000000d0: b6ff 5fbb a69f 883b 7506 5c3a 0def 5d3c
000000e0: a22c 843c 1fcd c53b 67cd 183c 1a9a 663c
000000f0: 932e f53b 2ec9 013c 528b dfba cb1a 863c
00000100: 9131 173c 7296 123c cdb5 833c aa45 363c
00000110: 9753 173c 0336 ef3b 4d1f d73b aefb 153b
00000120: f19d cf3b 77c6 8c3b 044b 293c 7dca 683c
00000130: 563b 1a3c f162 ea3a 7641 6a3b 6279 d439
00000140: f17a a037
-0.020119116 0.022695744 0.010298783 -0.0011518584 0.038873184 0.008697509 0.00077428384 0.04487646
0.0114451405 -0.005314075 -0.01479625 -0.022926467 -0.009895801 -0.022081356 -0.01910642 -0.011756
-0.015435044 -0.02445641 -0.00092802854 -0.008473861 -0.027219897 -0.016697614 -0.03284879 -0.027154505
-0.014828496 -0.022108886 -0.006867506 -0.01178145 -0.022783123 -0.031044185 -0.015552082 -0.023303099
-0.021378543 -0.0055667674 -0.0385005 -0.00136704 -0.0071145273 -0.010557059 -0.007337066 -0.009519641
-0.014004353 -0.012233564 -0.014622686 -0.012855268 -0.010036079 0.0078076124 -0.006642564 0.009011569
-0.006149392 -0.014277989 -0.002749937 0.0074029076 -0.0034179515 0.004169422 0.0008393296 0.013545764
0.016134564 0.006036415 0.0093263155 0.014074827 0.0074823587 0.0079215 -0.001705507 0.016370198
0.009228126 0.008947002 0.0160779 0.011125008 0.009236238 0.00730014 0.0065650106 0.0022885608
0.0063359668 0.00429612 0.0103328265 0.014208433 0.009413561 0.001788227 0.0035744584 0.00040526228
1.9130735e-05

bias f4 [3]
00000000: 936b 7ab7 3d94 cfb9 cca1 c338
-1.4926208e-05 -0.00039592563 9.3284616e-05

weight f4 [3]
00000000: ad75 c83e 58ad c83e 04e3 c73e
0.3915228 0.3919475 0.39040387

bias f4 [3]
00000000: 3685 8f3c 7dc5 b63c b8f1 7cbb
0.017519575 0.022310967 -0.0038596224

running_mean f4 [3]
00000000: 5441 8fbc 62a5 70bd fb97 c53c
-0.017487206 -0.05875147 0.024120321

running_var f4 [3]
00000000: c616 113b 6219 893b 4e7a a03a
0.0022138818 0.004183934 0.0012243481

weight f4 [3, 3, 3, 3]
00000000: e91a 58bc 83d2 18bc 670c 2fbc 5ad7 a3bc
00000010: 9651 59bc 5060 9bbc 96b2 9fbc 8ae2 64bc
00000020: 157d 15bc 4356 6bbc fed5 06bc 4f2f 34bc
00000030: 9ae7 6ebc b98f 46bc 6fa0 f0bc 6fbb b5bc
00000040: 9694 92bc 84c1 9dbc b10b f5bb 994d 9dbb
00000050: e9d2 b4ba 959a 2cbc 7747 793a 7059 20bc
00000060: e6b5 e1ba aa8f 8d39 eace fdbb de5e 2bbc
00000070: 02f9 87bc b784 77bc 957c c7bc 6730 a9bc
00000080: 3767 50bc b0f5 93bc 1c04 4dbc 1b95 f4ba
00000090: acc7 b3bb 1218 ef3b b39f 683c e459 67bc
000000a0: 215a ba3b 10ad 773c 26fa 4fba 5c9c 8f3c
000000b0: f062 0b3d 6861 07bd a54a fabc 6c72 81bc
000000c0: ffd2 b9bc 058e 83bc fa48 e1bb f5f4 5bbc
000000d0: 9dfd 1d3b 605b 8f3b 0bca 8bbb 6e94 80bc
000000e0: 04ea 8bbc b824 a43a a8f4 a1bc d650 7dbc
000000f0: f9a5 023c 307c 6fbc 1243 9cbb cbd5 90bc
00000100: 1e88 f4bc b17f b6bc 3a85 d9bc da27 f1bc
00000110: 97c3 ebbc f8f1 b5bc dccc 82bc 7827 e5bc
00000120: fe86 db3c 7b46 853c 9897 ac3c 2879 dd3c
00000130: b91a 823c 7342 6e3c 3987 213d 6bb6 dd3c
00000140: b45d a93c
-0.01319001 -0.009327534 -0.010684109 -0.020000149 -0.0132640805 -0.018966824 -0.019494336 -0.013970027
-0.00912406 -0.014363828 -0.008229731 -0.010997607 -0.014581585 -0.012119227 -0.029373376 -0.022184102
-0.017893117 -0.019257315 -0.0074782004 -0.00480051 -0.0013795766 -0.010534902 0.0009509245 -0.009786949
-0.0017220348 0.00027000654 -0.0077456133 -0.01045963 -0.016598228 -0.015107325 -0.024351398 -0.020652963
-0.012719921 -0.018061489 -0.012513187 -0.001866016 -0.005486449 0.0072965706 0.0141982315 -0.014120553
0.0056870137 0.015116945 -0.00079336984 0.017530613 0.0340299 -0.03305188 -0.030553171 -0.01580163
-0.022683619 -0.016058931 -0.0068751546 -0.0134251015 0.0024107464 0.0043749064 -0.0042660288 -0.015695777
-0.01707936 0.001252315 -0.019769982 -0.015461167 0.007974141 -0.014617011 -0.0047687376 -0.01768007
-0.029850062 -0.022277685 -0.026552785 -0.029437948 -0.028779788 -0.022210106 -0.015966825 -0.027972922
0.026797768 0.01626896 0.02106838 0.02703531 0.015881883 0.01454221 0.0394356 0.027064523
0.020674564

bias f4 [3]
00000000: ce30 cd3a d751 10ba 4151 b23a
0.0015654804 -0.0005505359 0.0013604538

weight f4 [3]
00000000: f81d c83e efdc c73e 45ab c83e
0.39085364 0.39035746 0.39193168

bias f4 [3]
00000000: 1912 c13a db76 693b f64d cd3b
0.0014730125 0.0035623822 0.006265397

running_mean f4 [3]
00000000: 0fa0 e5bd 315e 153b 06ac 81bd
-0.112121694 0.0022791738 -0.06331639

running_var f4 [3]
00000000: 4160 463c d61c 8e3b 9983 443c
0.01210791 0.0043369336 0.011994266

weight f4 [3, 3, 3, 3]
00000000: d0de f0bb 9941 a7bc 0c27 b0bc 43c1 33bc
00000010: c1ba 08bd d97f c9bc dafb 5bbc 6dad aebc
00000020: 8ea5 a8bb 426b 5ebc e812 bd3b 4f70 193b
00000030: 346f 73bc 0941 8a3b bb7e fa39 0efe ebba
00000040: dd93 843c 7b0f 3c3c 7e1f 163c 4398 0bbb
00000050: dcb9 02bd 53ac 3dbc 3bb3 83bc 9e48 15bd
00000060: e5db 23bc 7d3f 5dbc 7769 5dbc 4af5 a839
00000070: 3c3f 74bb c486 33bc 796f a6bb 172c 42bc
00000080: 9649 2bbc 310d b1ba 6619 23bb 51dc bdbb
00000090: 588c 16bd 02a5 07bd a452 abbc 92a1 c0bc
000000a0: 06ad 74bc 10ee 7abc 1e36 1cbc 1174 18bc
000000b0: 34dc 05bc 00f5 363c 90fe 00bc a41e cdbb
000000c0: 00c7 053b e3f6 ffbb 635e 43bc 05a2 033c
000000d0: b491 313c ac40 f33b b40c 113d a84c 203c
000000e0: 3e5a ff3c 035f 0b3d f8c6 733c 50bd af3c
000000f0: a085 c93c 2036 f33b 2239 9e3c 29de 2d3b
00000100: e3ba 733b 0de2 573b e235 aa39 f166 edb9
00000110: 9057 523c 26bb 8dbb 5193 69bc 5826 24bb
00000120: c4b6 eb3c ce0a 1a3b 47b0 1f3c 61ef d43c
00000130: 1746 9e3b 7ee3 3e3c f89f 963c fd17 81bb
00000140: 01f9 583b
-0.00735078 -0.020417022 -0.021502994 -0.01097137 -0.033381227 -0.024597095 -0.013426745 -0.02132293
-0.005146689 -0.013575377 0.005770076 0.0023412888 -0.014858056 0.0042191786 0.00047778137 -0.0018004791
0.016183788 0.0114783 0.009162782 -0.0021300472 -0.03191553 -0.01157673 -0.016076675 -0.036446206
-0.010001157 -0.013503906 -0.013513914 0.00032226212 -0.0037269136 -0.010957424 -0.0050792065 -0.011851332
-0.010454556 -0.001350796 -0.0024886965 -0.005794086 -0.036754936 -0.033116348 -0.02091343 -0.023514543
-0.01493383 -0.015315548 -0.009534387 -0.009305016 -0.008170176 0.011166811 -0.007873192 -0.006259756
0.0020412803 -0.0078114136 -0.011924359 0.008034234 0.010837961 0.007423481 0.035412505 0.009783901
0.03117096 0.034026157 0.014878981 0.021452576 0.02459985 0.0074222237 0.019314352 0.0026530123
0.003719025 0.0032941133 0.00032465073 -0.0004528086 0.012838259 -0.0043252883 -0.014256314 -0.0025047269
0.028773673 0.0023504975 0.009746618 0.025993051 0.0048301327 0.011650918 0.018386826 -0.003939627
0.0033107402

bias f4 [3]
00000000: a898 1eba e88d 77ba 9115 74b9
-0.0006049969 -0.0009443448 -0.00023277687

weight f4 [3]
00000000: 5e73 c83e 4363 c83e 8901 c83e
0.39150518 0.3913823 0.3906367

bias f4 [3]
00000000: aa41 983c df15 033c 5e14 63bb
0.018585999 0.00800082 -0.003464959

running_mean f4 [3]
00000000: 87b2 d7bc 648e 3ebc 59b7 ed3b
-0.026330246 -0.011630628 0.0072545228

running_var f4 [3]
00000000: f987 cc3a 1226 a43a 760d b33a
0.0015604488 0.0012523553 0.0013660628

weight f4 [3, 3, 3, 3]
00000000: c7c6 c7bc 1a37 33bd d836 343c 52d4 90bc
00000010: 1d9b e3bc 992c cb3c ba74 35bc fd84 2dbc
00000020: 0280 0c3d 2207 d0bc 94ff 5ebd f9ed a5bb
00000030: 1beb c8bc 8133 5dbd a86f 993b 71e8 b7bb
00000040: 6fba 0bbd 0799 d63c 6da6 263d e886 153d
00000050: 911d ff3c ae78 8a3c 9d97 d83c dc03 dd3c
00000060: f31d 993c b19f 043d 7709 1d3d 176d 40bc
00000070: d232 63bc 5ee8 3bbc 735f 8fbc 5ff5 82bc
00000080: 25e8 41bc dd1e b5bc ed68 98bc 7e6d 78bc
00000090: 6e61 b5bb 8135 bbbc 8093 9ebb c56f 8cbb
000000a0: 7c25 d2bc 3724 56bc 5c5a 88bc a58a e8bc
000000b0: f568 9abc 0010 733a 55db 483a b367 b4bb
000000c0: 6bfa 263c b1ac 2b3c 4821 ef39 b7fc 18bb
000000d0: 027d 953a c117 cc3b 570c acbc 8ad5 e3bb
000000e0: 96af 10ba bbc8 07bd 6e2f d7bc e177 a8bc
000000f0: a0b3 eabc 95ca c5bc a691 cbbc e303 1bbd
00000100: ec3c 13bd 0170 03bd 9f99 0fbd 21ab 1dbd
00000110: 39b0 04bd dbb2 e4bc 28c1 2ebd 525c edbc
00000120: acc6 9a3b 0560 343c 2f3c 9eb9 3be8 9c3c
00000130: d4e8 b43c 14e3 1ebb 8c58 8e3c 9b87 c23c
00000140: 0272 f03b
-0.024386777 -0.04375372 0.010999404 -0.017679367 -0.027783925 0.02480154 -0.011075193 -0.010590789
0.034301765 -0.025394026 -0.054442957 -0.005063769 -0.02452617 -0.054004196 0.0046825 -0.005612426
-0.034113344 0.026196016 0.04068606 0.03650561 0.031142028 0.016903248 0.026439482 0.02697938
0.018691039 0.032378856 0.038339105 -0.011744759 -0.013867097 -0.011468975 -0.017501568 -0.015986143
-0.011835133 -0.022109443 -0.01860472 -0.015162824 -0.005535296 -0.022852661 -0.0048393607 -0.004285785
-0.02565264 -0.013070158 -0.01664465 -0.028386423 -0.018848876 0.00092720985 0.00076620776 -0.005505526
0.01019154 0.010478185 0.0004561043 -0.002334399 0.0011405053 0.0062284176 -0.021001978 -0.006952946
-0.00055193284 -0.033150416 -0.026267733 -0.020564975 -0.028650105 -0.02414445 -0.024849724 -0.037845504
-0.03594677 -0.032089237 -0.035058614 -0.03849328 -0.03239462 -0.027917316 -0.042664677 -0.028974686
0.0047233906 0.011009221 -0.0003018095 0.019153705 0.022083677 -0.0024244236 0.017376207 0.023746302
0.0073378095

bias f4 [3]
00000000: 1611 8dbb 88fb e738 b9f4 ddb8
-0.0043050153 0.0001106179 -0.00010583684

weight f4 [3]
00000000: 354d c83e 390e c83e 743d c83e
0.39121404 0.3907335 0.39109385

bias f4 [3]
00000000: d43f f33b 3914 d5bb 20c6 10bc
0.0074233804 -0.006502655 -0.008836299

running_mean f4 [3]
00000000: 5655 5e3c 738d 81bd 41cb 60bd
0.01357015 -0.063258074 -0.054881338

running_var f4 [3]
00000000: 68bf d03c 2e66 463c 07b3 053d
0.025481895 0.0121093225 0.032641437

weight f4 [3, 3, 3, 3]
00000000: 316f fabb 6c1a 8fbc 70e9 c2bc 6cbc 5bbb
00000010: d56c 92bc b296 02bd 5928 d1b9 d1bc 76bc
00000020: f803 f9bc 468e cabc 956e 0ebc 0fcb fbbc
00000030: 1033 e7bc 8c05 27bc 7125 f9bc 5689 04bd
00000040: 7509 b4bb 25c2 ccbc cb5f 663c 00ea 68bc
00000050: 0b8f 84bc c42c 373c fd0a c7bc 57f3 15bd
00000060: 8234 1d3c 070d 06bd d361 37bd df91 f6bc
00000070: e8e0 0abd d444 02bd d1fc 07bd c2ed d4bc
00000080: c31c 92bc beb4 31bd fa48 01bd 9c32 b1bc
00000090: 8aa9 08bd 1bfb 27bd 4da9 f6bb 7e79 0bbd
000000a0: 636d 2ebd 56ab c8bb 1d95 f9bc d82b 37bd
000000b0: 63c2 f7bb a2a6 cdbc b9ab 83bb d7c4 fb3b
000000c0: 14e1 28bd eb81 b4ba 4c51 503b ba5d 27bd
000000d0: c086 43bb 3f22 f2bb 2347 a2bb 469b 8d3b
000000e0: 43f5 563c 94d0 1b39 ffda 1f3c ca04 de3c
000000f0: a065 31bc 1d02 a63c 2ba7 fd3c e0b8 acb9
00000100: ec0b 1c3c fd63 1e3c b1eb 143b 052f 873c
00000110: e15a 953c 9f45 4a3c 37e2 5c3c d9f8 483b
00000120: 8bc9 80bc 04cb 99bb f08d 5f3c 6771 53bc
00000130: d86e 97bb 8f74 8b3c a3a4 d5bb af14 f23b
00000140: 6af1 f03c
-0.0076426496 -0.017468654 -0.023792952 -0.0033529056 -0.01787416 -0.031881995 -0.00039893648 -0.015059666
-0.0303974 -0.024726044 -0.008693357 -0.030736474 -0.02822259 -0.010194194 -0.030413361 -0.032357536
-0.0054942914 -0.02499492 0.014060925 -0.014215946 -0.01618149 0.011180107 -0.024297232 -0.03660902
0.009595038 -0.032727268 -0.044771027 -0.030098854 -0.033905894 -0.03180392 -0.03320009 -0.025992278
-0.01783598 -0.04338526 -0.031563736 -0.021630578 -0.03336481 -0.041010957 -0.0075275064 -0.03405141
-0.042584788 -0.0061239405 -0.03046661 -0.044719547 -0.0075610145 -0.02510387 -0.0040182737 0.0076833772
-0.041230276 -0.0013771629 0.0031786738 -0.04086087 -0.0029834956 -0.0073893364 -0.004952328 0.0043214886
0.013119998 0.00014859653 0.009756803 0.027101893 -0.010827452 0.02026468 0.030963501 -0.0003294414
0.009524327 0.009667394 0.002272349 0.016501913 0.018231811 0.0123457005 0.013481668 0.0030665903
-0.015721103 -0.004693391 0.01364468 -0.012905455 -0.004621368 0.017023353 -0.0065198704 0.0073877196
0.02941199

bias f4 [3]
00000000: 5dde 7f3a da61 0439 56df 2c3b
0.0009760613 0.00012624954 0.0026378236

weight f4 [3]
00000000: 19aa c73e 4e88 c83e 0af6 c73e
0.38996962 0.39166492 0.390549

bias f4 [3]
00000000: 80ee 8a3c e163 213c 9e19 43bb
0.016959429 0.009850473 -0.0029769908

running_mean f4 [3]
00000000: 94ce aabc 81d8 c63b 87e0 8d3b
-0.020850457 0.0060682897 0.0043297443

running_var f4 [3]
00000000: e7e8 0f3b 106d 993b 329b 8f3a
0.002195889 0.0046821907 0.0010956286

weight f4 [3, 3, 3, 3]
00000000: c34a d43c 2f91 103d fd25 1c3d eadf ba3c
00000010: d23b 093d b054 053d 3f16 ec3c c735 0e3d
00000020: 7c5f 903c 1b54 0c3d d8cc 123d c8e9 ea3c
00000030: bf01 343d 98b0 1f3d 19e7 e83c 3a25 4f3d
00000040: 045a 263d 4f96 093d 4cf3 92bb 91e1 d9bc
00000050: b6a7 05bd 18dc 00bd 951c 21bd 1d64 11bd
00000060: 15e3 02bd b8ce 1ebd aa0e 01bd 840f a6bc
00000070: 0b25 2ebb 7797 02bd f5b3 56bc 660a 79ba
00000080: a0bb 1fbc 7deb 1dbd dd04 80bc cf89 0ebc
00000090: 88a4 9fbc 1ff3 003b 7639 643b f504 09bd
000000a0: b30b c63b e54b a93c e7cd 35bd 8558 c6bb
000000b0: 8ae9 023c 3189 45bc f7a4 a23b 4ccc b23b
000000c0: bb8e cfbb 7df5 983c 2256 ed3c ee79 35bd
000000d0: 4b69 7fbc 3a8d 24bb 96bd 92bc 0924 95bc
000000e0: a4c9 e3bb 04d1 e1bb e95c 8bbc 6768 25bb
000000f0: 5242 f13b 9056 383b f0dc 603c 1392 c3bc
00000100: c36e a9bc 358a 03bc 4c48 b6bc d81d c3bc
00000110: 248c c7bb 0a69 17bc b4a1 16bc 8d87 1e3c
00000120: 2053 b13b 15ed 933c 0261 c93c 2fd7 013c
00000130: e8f1 ad3c 12e1 b63c 7d93 7c3c 8cf6 653c
00000140: 3f66 8e3c
0.025914555 0.035294708 0.038122166 0.022811849 0.033504315 0.032551467 0.028819202 0.034719255
0.017623655 0.034259897 0.035839885 0.028675929 0.043946978 0.038986772 0.028430508 0.05057261
0.04061319 0.03359061 -0.0044845697 -0.026596816 -0.032630645 -0.031459898 -0.0393339 -0.035495866
-0.031954844 -0.03877136 -0.031508125 -0.02027107 -0.0026572372 -0.03188273 -0.013104429 -0.00095001457
-0.009749323 -0.038554657 -0.015627319 -0.008699848 -0.019487634 0.0019676161 0.0034824288 -0.033451993
0.006043875 0.020666072 -0.044385817 -0.006053033 0.00799025 -0.012056635 0.004963513 0.005456483
-0.0063341535 0.018671745 0.028971735 -0.044305734 -0.015589069 -0.0025108592 -0.017912667 -0.01820566
-0.0069515277 -0.0068913717 -0.017012076 -0.002523923 0.0073626423 0.0028127767 0.013724551 -0.023873365
-0.020682698 -0.008028557 -0.02225127 -0.023817942 -0.006089704 -0.009241352 -0.0091938265 0.0096758725
0.0054115206 0.018057385 0.02458239 0.007924839 0.021233514 0.022324119 0.015416023 0.014035832
0.01738274

bias f4 [3]
00000000: 3549 363b 68eb 2f3b 3099 37bb
0.002781463 0.0026843194 -0.002801489

weight f4 [3]
00000000: 5d63 c83e 449d c73e f4b4 c83e
0.39138308 0.38987172 0.39200556

bias f4 [3]
00000000: 5277 f63b 3283 1dbc 11ec 983c
0.0075215483 -0.009613799 0.018667253

running_mean f4 [3]
00000000: 46c9 223e 9cfd 38bd 60db 86bd
0.15897092 -0.045163736 -0.06584811

running_var f4 [3]
00000000: 3e1e d93d f70d 603c 93d1 bb3c
0.10601471 0.0136752045 0.022927081

weight f4 [3, 3, 3, 3]
00000000: a4ef a53c 3789 0abc e3a7 bc3b 7211 9c3c
00000010: 3564 b0bc 45ce 60bb 854a 0d3c 7e48 78bc
00000020: 2d3e 50bb 6357 dfbb b1bb a93c f2d2 0abc
00000030: c300 883c ac4d c33c 059b 663b 01c2 8b3c
00000040: 80f4 d13c bc9e d0bb a476 b83a 364e 31bc
00000050: eda9 c4bc b11c a1bc 589f bcbc ecc8 b3bc
00000060: 09aa bbbc f28e a4bc 71df 8ebc be87 f93b
00000070: 7d49 863c 1e9c 123a 8b39 3b3c 400d b23c
00000080: e5d3 013c 685c 3c3b 20e1 083c e190 debb
00000090: 13ec e83a dc0b a5bb 8fca e73b 67aa ba3b
000000a0: 1699 23bb 5a90 c03b 92ce 133c f62e a83b
000000b0: 3839 7b3a f463 5fbc 7f65 37bc 2614 26bc
000000c0: ea53 adbc 075e aabc 96d4 9bbc f437 afbc
000000d0: 306c 9dbc 39a8 39bc 1588 ebbc 8c9a d5bc
000000e0: 3cb6 a53c ac04 c8bc f250 8fbc dbf4 e03c
000000f0: da6d d6bc a273 c8bc 4fd0 903c 0df4 21bd
00000100: cd43 ef3b 66f4 46bc 251b d0bc b956 863c
00000110: 3257 21bb 4ccd 3abc 6cd6 a23c 2a89 923c
00000120: 2d69 e13b f112 d23b b6a2 2a3b aab2 72ba
00000130: eff8 843b 9a7d 8fb9 7b1d 3bbb 66b3 a93b
00000140: 747e d3ba
0.020255871 -0.008455566 0.0057573183 0.019051287 -0.021532157 -0.0034302634 0.008623724 -0.015154002
-0.003177534 -0.006815837 0.020719381 -0.008473145 0.016601926 0.023840748 0.0035187614 0.017060282
0.025629282 -0.006366579 0.0014073444 -0.01082187 -0.024006808 -0.019667001 -0.0230252 -0.021946393
-0.022908228 -0.020087693 -0.01744053 0.0076150587 0.016392464 0.0005592721 0.0114272935 0.021734834
0.007924055 0.0028741602 0.008354455 -0.0067921733 0.0017770551 -0.005036814 0.0070737074 0.005696583
-0.0024963073 0.005876583 0.009021418 0.0051325513 0.00095834164 -0.0136346705 -0.011193632 -0.01013664
-0.021158177 -0.020796789 -0.019022267 -0.021388985 -0.019216627 -0.011331611 -0.028751412 -0.02607467
0.020228498 -0.02441629 -0.017494652 0.027460506 -0.026175428 -0.0244692 0.017677454 -0.039539386
0.0073017837 -0.01214323 -0.025403569 0.016398774 -0.0024618623 -0.011401486 0.019877635 0.01788767
0.006878993 0.0064109494 0.0026036925 -0.00092581904 0.0040579955 -0.00027368666 -0.0028551507 0.0051788567
-0.0016135708

bias f4 [3]
00000000: 7e42 843b 9af6 033b 8046 803b
0.004036247 0.0020136 0.0039146543

weight f4 [3]
00000000: d4e6 c83e 7e68 c83e b95a c83e
0.39238608 0.3914222 0.39131716

bias f4 [3]
00000000: 7d87 5a3c e5ee 273c eb05 4ebb
0.013337967 0.010249828 -0.0031436633

running_mean f4 [3]
00000000: e9ff 3cbc c795 e5bc e610 a93c
-0.011535623 -0.028025521 0.02063794

running_var f4 [3]
00000000: d67f 9a3a a1cf 8c3b fbb9 173b
0.0011787366 0.004297212 0.0023151624

weight f4 [3, 3, 3, 3]
00000000: 81c7 59bc 8713 b0bc 3db4 89bc 45d8 9fbc
00000010: 2d1e dfbc 37d4 07bd c139 bcbc 302e e8bc
00000020: a766 12bd 47ce 12bc 0c39 5dbb 9609 b33a
00000030: c467 acbc 9293 47bc 1e1f a13a 11d7 99bc
00000040: 9fbd 0bbc 5deb ba3b 5fdf 94bb f852 c3ba
00000050: 9f13 993b 404b fbbb c50f 14bc bd0e 74bb
00000060: 405e a1bb db6b b2bb 569b c83b 1d31 313c
00000070: 06c7 a1bc 00fd 8ebc 2abc 933c b3e2 1cbc
00000080: 643a 88bc 2ddd b93c 3f2e 833c bca5 c8bb
00000090: a3e7 2bbd edb0 32bd f0d1 29bd 83fb d539
000000a0: af2e 8bbc bcc9 afbc 82eb 543d eac4 243d
000000b0: 752d b5bb 7ec5 c1bc 522b d0bb a15a 29ba
000000c0: 5879 f8bc 4a65 abbc 9d4d 19bc fcd0 fcbc
000000d0: cd7b c2bc b787 57bc ab68 f23c 386e 25bd
000000e0: 7537 09bd a97d 033d 70bf fabc 43e6 44bd
000000f0: 473e d63c c4bb 18bd b535 4bbd 2a88 0abd
00000100: 6d03 27bd f132 57bd 3662 e1bc bdc9 20bd
00000110: 277b 55bd 29d1 e4bc 0bc8 1bbd 3514 47bd
00000120: f6af 803c 9c9b 0a3d 8898 293d 007d 8f3c
00000130: 18fc 1d3d f437 403d 39ff b73c 00ac e23c
00000140: 8176 313d
-0.013292194 -0.021493686 -0.016809577 -0.019512305 -0.027236069 -0.03316137 -0.022976758 -0.028342336
-0.03574243 -0.008960313 -0.0033755926 0.0013659473 -0.021045573 -0.01218118 0.0012292599 -0.01877931
-0.008529096 0.005704327 -0.0045432295 -0.0014902046 0.0046715285 -0.0076688826 -0.009036963 -0.003724023
-0.0049245656 -0.0054449863 0.006122033 0.010814932 -0.019748222 -0.017454624 0.01803406 -0.009575534
-0.016629405 0.022688473 0.016013263 -0.0061232727 -0.041968953 -0.04362576 -0.041459978 0.00040813917
-0.016990034 -0.0214585 0.05198241 0.040226854 -0.0055291005 -0.023653742 -0.0063528204 -0.0006460343
-0.030331299 -0.020922322 -0.009356883 -0.03086137 -0.023740673 -0.0131549155 0.029590925 -0.040388316
-0.033500154 0.03210226 -0.030608863 -0.048071157 0.026152743 -0.037288442 -0.049611766 -0.033821262
-0.04077475 -0.052538816 -0.027512651 -0.039254893 -0.0521194 -0.027931767 -0.038032573 -0.048603255
0.015708905 0.033839807 0.04140523 0.01751566 0.038570493 0.04692836 0.022460567 0.027669907
0.043325905

bias f4 [3]
00000000: bd5e 6cbb afc0 423b 8f07 84ba
-0.003606721 0.00297169 -0.0010073053

weight f4 [3]
00000000: 564c c83e f787 c83e 6eb9 c73e
0.3912074 0.39166233 0.3900866

bias f4 [3]
00000000: dd51 8e3b b99b 0e3c 1ac2 46bc
0.004343255 0.008704119 -0.012131238

running_mean f4 [3]
00000000: 8467 edbe ecde 37bc 902c 8abd
-0.4636804 -0.011222582 -0.06746781

running_var f4 [3]
00000000: 0996 0f3e f72b 5c3c 29ff 023e
0.14022078 0.013438216 0.12792648

weight f4 [3, 3, 3, 3]
00000000: 5bd9 c5bc d114 a4bc 5659 04bb 72ba 6bbc
00000010: e007 ffbc e9a4 1bbc 5961 92bc b2d5 50bc
00000020: 4d50 32ba 74a0 c13b 3751 43bb afbd e6bc
00000030: 3d4b 343d 6476 eb3c bda7 fe3a a00a 063d
00000040: 822b d43c fca0 0eba 4dc6 e6bc 4fbb d5bc
00000050: 3fd6 a8bc 8a71 99bc 32b1 56bc 9cc5 06bb
00000060: da4b 37bc 3859 22bb 717b 15bc d978 47bc
00000070: 7556 c4bc a5b8 e6bc ef7d 8cbc 5f79 7dbc
00000080: a9ee b9bc 073b d9bc 621f 9bbc 4a9f b6bc
00000090: d17a 0a3d 7957 213d df1f d03b 8e4a ef3c
000000a0: 0d7e f23b 2714 b7bc fb1c 21ba 32ef dbbc
000000b0: dc7c 2bbd ee7a 233c b1bc 1c3d c0bd 783c
000000c0: bf91 3f3c ffc0 d73c 18b2 153c 2bf1 7bbc
000000d0: 3a12 393c e8c3 baba f557 a5bb 2905 95bc
000000e0: 89dc c7bc 2191 b2bb eb8f 8bbc 8eef b4bc
000000f0: 1cea 2cbc cbb6 a8bc 0f94 d0bc f4c5 8cbb
00000100: a99a 80bb a50e 883c 4295 063d 2c3c 223d
00000110: b62a 533d e898 023d 1f25 1e3d 92aa 573d
00000120: 1830 803b 45a6 733c 801a 893c 5e7f 0d3c
00000130: e156 fa3c 1686 db3c 9363 ddbb 4ca2 b43b
00000140: 5afc 183c
-0.024151495 -0.020029457 -0.002019485 -0.014387714 -0.031131685 -0.009499767 -0.017868685 -0.012746261
-0.0006802127 0.00590902 -0.0029803046 -0.02816662 0.044017065 0.028742976 0.0019428652 0.032724977
0.025899652 -0.00054408587 -0.028170729 -0.026090292 -0.020609973 -0.018730897 -0.01310377 -0.0020564562
-0.011187518 -0.0024772417 -0.009123669 -0.012174808 -0.023967007 -0.028164217 -0.017149894 -0.015470832
-0.02269681 -0.026517404 -0.018935863 -0.022292752 0.033808533 0.03939006 0.0063514556 0.029210355
0.0074002803 -0.022348477 -0.0006145981 -0.026847456 -0.041867122 0.009978039 0.038265888 0.015181959
0.011692463 0.026337145 0.009136699 -0.015377323 0.011295849 -0.0014249058 -0.0050458857 -0.018190937
-0.024397152 -0.0054494296 -0.017036399 -0.022086885 -0.010553863 -0.020594975 -0.025461225 -0.004296059
-0.003924687 0.016608546 0.032857187 0.039608166 0.051554404 0.031884104 0.03860962 0.052652903
0.003911983 0.014871185 0.016736269 0.008636324 0.030559005 0.026797336 -0.006756255 0.0055125114
0.009337509

bias f4 [3]
00000000: 85a4 74ba 3f33 76bb 99a0 a2b9
-0.00093323766 -0.0037567166 -0.00031018702

weight f4 [3]
00000000: 650c c83e 28b0 c73e 152c c83e
0.39071956 0.39001584 0.39096132

bias f4 [3]
00000000: f90d 1d3c 882d e93b 7405 10bb
0.009585851 0.0071160235 -0.0021975907

running_mean f4 [3]
00000000: 945e a63c 8c6b c5bc d612 4ebb
0.02030877 -0.024099134 -0.0031444333

running_var f4 [3]
00000000: c566 2c3b d187 033b 3fb7 cc3a
0.0026306373 0.0020069967 0.0015618576
