src/Games/TicTacToe/Models/base.pt (torch, 151139 bytes, 143 tensors)

start_block.0.weight f4 [10, 3, 3, 3]
000000 6d 2a a2 3c 34 32 c4 3c 08 cb 46 b9 dd 61 25 3c
       0.01979562 0.02394972 -0.00018958386 0.010094133
000010 87 7e 02 3b 6f 85 e4 ba d5 fc b4 bc 81 c8 36 bc
       0.0019911842 -0.0017434786 -0.022093216 -0.011156202
000020 cb c8 f9 3c 2f e9 42 bc e8 37 0c 3c e6 8d a6 bb
       0.030491253 -0.011896416 0.008558251 -0.0050828336
000030 01 eb c3 bc 7d 16 a8 bc ee 83 79 3c 34 a0 fd 3c
       -0.02391577 -0.020518536 0.015229208 0.03096018
000040 6e 37 56 ba b7 ad a2 bc a0 6d 33 38 24 78 09 bd
       -0.0008171712 -0.019858224 4.2779022e-05 -0.03356184
000050 b3 d5 ec bb 35 c8 a2 3b 16 fa ad 3c ba 3a 9c bc
       -0.0072276234 0.004967714 0.021237414 -0.019070972
000060 d8 50 05 bc c1 f3 ff 3c 61 0f c9 bb 39 59 94 3c
       -0.00813695 0.03124416 -0.0061358665 0.01810895
000070 2e e5 89 bb 4a f2 65 3c 3f f3 ea bc 1a f2 07 ba
       -0.0042082286 0.014034817 -0.028680442 -0.0005185917
000080 d1 0a 1d 3c a8 03 db b9 55 54 c6 39 95 da 44 bc
       0.009585098 -0.0004177366 0.00037828335 -0.012015005
000090 ed 5d 2d 3b 1b 77 c0 bb 06 6a ae bc 26 1a d0 3c
       0.002645369 -0.0058735735 -0.02129079 0.025403094
0000a0 9b ad ab 3c 8c 20 b9 bc 1c 0d 99 3b 0f 0f c7 3b
       0.020956805 -0.022598527 0.004670752 0.006074793
0000b0 e3 6b 01 3c ec b1 31 bd 47 ae 8f bb c1 44 9a bc
       0.007899257 -0.04338257 -0.004384789 -0.018831613
0000c0 c0 b2 d8 bb 09 e3 b2 bc d9 9c 74 bc 91 36 d3 bb
       -0.0066131055 -0.021836774 -0.0149299735 -0.006445714
0000d0 c8 8f 36 3c ea 23 35 bb 6c 27 10 3c 51 e9 c3 bb
       0.011142679 -0.0027639815 0.008798461 -0.005978741
0000e0 32 cd e2 3b 55 32 77 bc b8 5c 13 3c 3c 2e 8c 3b
       0.006921434 -0.015087684 0.008994274 0.0042779725
0000f0 cb 17 ba 3c 13 83 93 3b db a6 13 bc ae 4d 92 3c
       0.022716423 0.0045017092 -0.009011949 0.017859306
000100 d5 b6 9c 3b 7e d3 54 bc 70 a1 cc 3c 07 f7 95 3c
       0.0047825375 -0.012989877 0.024979323 0.018306268
000110 e3 3c 29 bc ee f2 ec bb a5 4a 98 3c 2a c0 bb 3a
       -0.010329458 -0.007231108 0.01859028 0.0014324237
000120 37 46 fb bc 7e 2f 29 bc f7 7f 21 bc ed 33 e3 3a
       -0.03067313 -0.010326264 -0.009857169 0.0017334201
000130 33 c6 ef bc 9b bf ba bb 87 ea 43 bc c9 a0 9e bc
       -0.029269313 -0.0056991107 -0.011957771 -0.019363778
000140 24 4e e0 b9 aa f7 50 3c 39 b4 cc bb 7e 69 1f 3c
       -0.0004278283 0.01275436 -0.00624707 0.009729741
000150 1e 9f 0f bd 80 81 2a bc be 82 47 3c 1c d5 74 3c
       -0.035063855 -0.010406852 0.012177167 0.014943387
000160 ea 41 23 3a 34 43 c4 bc d8 5e 28 3c b1 2e c8 ba
       0.00062277785 -0.023957826 0.010276519 -0.0015272704
000170 e8 c5 c3 bc ad 20 27 3d 2e 59 a5 3c 37 fd 09 bd
       -0.02389808 0.040802646 0.020184126 -0.03368875
000180 00 b6 d5 36 47 cd 26 3c 69 27 ce 3b 9d 28 fc bc
       6.3690823e-06 0.010180778 0.006291319 -0.030781085
000190 e3 0e 34 bb 77 90 f4 bb 48 6b 8f ba 92 c8 79 bc
       -0.0027474693 -0.0074635106 -0.0010942006 -0.015245574
0001a0 d3 eb ba bb 57 5e 7e bc 07 40 f6 bb e5 be 0c bc
       -0.005704382 -0.015525422 -0.007514957 -0.008590435
0001b0 e8 c3 3a 3c 4d a4 23 3c fd a6 1a bc e2 1e a5 3c
       0.011399247 0.009987903 -0.009439227 0.020156328
0001c0 b4 e5 e1 bb 8e 91 73 bb b4 f8 c3 bb c1 e9 92 bc
       -0.006893838 -0.0037165615 -0.0059805755 -0.017933728
0001d0 6a 76 6d 3c 98 56 85 bc 86 8e 23 3c cd 87 50 3b
       0.014493564 -0.016276643 0.009982711 0.0031819225
0001e0 77 b6 05 bd e6 1c 48 bc 22 6b 33 3c 1f 09 9e 3c
       -0.032644715 -0.012213921 0.010950835 0.019291459
0001f0 de 56 89 bc 1f 61 2d bc 45 b3 f6 3c 33 5a 6c bc
       -0.016765054 -0.0105822375 0.03011478 -0.014425802
000200 12 b2 c0 b9 0f 09 83 3c cf ae a2 3c 91 a5 dd ba
       -0.00036753766 0.01599553 0.019858746 -0.0016910305
000210 c8 e6 ef ba a7 2d 08 3d 0c 7d a8 bb 5e d2 9e 3b
       -0.0018303031 0.033246662 -0.00514186 0.004846855
000220 e8 fa 2e 3b b6 da 23 bc f4 63 20 3c 7d c9 da 3b
       0.0026699845 -0.010000875 0.009789456 0.0066768513
000230 c9 26 4e bc 1a 17 5e ba bd 4f 64 bc 59 51 43 3c
       -0.012582489 -0.00084720703 -0.013935027 0.01192125
000240 19 80 68 bc 04 82 6c 3c 30 ce 08 bc 91 73 c8 bc
       -0.014190697 0.014435295 -0.00834994 -0.024469169
000250 4e 02 9d 3a 4c 25 25 3b 44 bd c8 3c 5d 5c fd bc
       0.0011978836 0.0025199233 0.024504311 -0.030927831
000260 4e 96 32 bc 4c e2 bb 3c bd f8 3f bc a8 11 c4 3b
       -0.010900093 0.022935055 -0.011717019 0.00598355
000270 08 84 6d 3b a4 fd 9a bb 41 0c 28 3b df 9b 14 bd
       0.0036242027 -0.0047299433 0.002564207 -0.036281463
000280 31 1a 0f 3d 8e 92 9c bc 95 38 74 bc 21 52 bd bb
       0.034937087 -0.019112851 -0.014906068 -0.005777613
000290 61 db 1b 3c 2f f5 26 bc 32 22 8b 3c 20 dc ca 3c
       0.009512753 -0.010190292 0.016984079 0.024763167
0002a0 44 53 79 3a 50 e4 52 3c a6 99 be bc 4e 2c 19 3c
       0.0009511004 0.012871817 -0.023266625 0.009348942
0002b0 0f 0e 70 bc 96 75 90 3c 0a e4 0e 3d c6 91 e4 bb
       -0.014651789 0.017634194 0.034885444 -0.0069753854
0002c0 24 03 b1 bc 0d 9c 8a bc 1c dd 73 3c ac c7 60 3c
       -0.021607943 -0.016920114 0.01488426 0.0137194805
0002d0 54 f7 e2 3b 32 04 e3 3c 5e 15 9b bb 24 90 a8 bc
       0.0069264565 0.027711961 -0.004732772 -0.020576544
0002e0 a2 fe 50 bc d8 1f b1 3b ce 28 17 3d 76 2f 83 bc
       -0.012756022 0.0054054074 0.03690415 -0.016013842
0002f0 f5 11 a3 3c 44 73 a1 39 37 02 a8 bb c2 86 4c bc
       0.019906024 0.00030794193 -0.005127217 -0.012483301
000300 d5 66 70 bb 54 dc 42 3b 36 c2 74 bc 19 6f f0 3c
       -0.0036682386 0.0029733377 -0.014938882 0.02934985
000310 38 26 97 bb b0 ad 07 bc c8 ff ac 3a 69 fe f1 3b
       -0.0046127103 -0.008281156 0.0013198787 0.0073850644
000320 28 b0 15 3a dc 5c ec bb 17 92 00 3b 14 07 3c 3a
       0.0005710148 -0.007213218 0.0019618326 0.00071726856
000330 a3 14 a5 ba 9d 63 bf bc 3e c7 4e 3c f9 55 95 3c
       -0.0012594651 -0.023362929 0.012620745 0.018229472
000340 28 6b 51 3c 64 ff c7 3c 47 46 90 3c bf f9 9c bb
       0.012781896 0.024413772 0.017611636 -0.0047905142
000350 56 62 96 3c 3b 98 11 bd a7 3d da 3b f3 ed 48 bc
       0.018357437 -0.03554557 0.0066601816 -0.012263763
000360 da 61 50 bc 44 c4 16 3c 7a 52 7e bb 91 24 74 3c
       -0.012718642 0.009202067 -0.0038806484 0.014901296
000370 9c c9 8d 3c 00 32 9d 3b 7a a6 8c bc 36 5e f5 bb
       0.017308049 0.00479722 -0.017169226 -0.0074880375
000380 f4 3d b4 3c 5b fc c6 bc a2 75 81 3b 6d 2e 39 3c
       0.022002198 -0.024290254 0.0039507905 0.011302573
000390 2b b2 f6 bc 2b 84 ae bc 54 3c 5b 3c 99 7e 9d 3c
       -0.030114254 -0.021303257 0.013381083 0.019225406
0003a0 71 71 c4 bc f9 62 56 bb 8d 17 02 3d 5c 86 d4 bb
       -0.023979874 -0.00327128 0.03176074 -0.0064857434
0003b0 cd f1 12 3c 45 74 0b bc b4 c2 8b 3a d7 90 a7 3a
       0.008968783 -0.008511608 0.0010662884 0.0012784255
0003c0 d8 da 0c bc b4 f9 1d 3d 17 35 c9 ba b6 bd 19 3d
       -0.008597098 0.038568214 -0.0015350905 0.037534438
0003d0 80 38 b5 bb 3e 55 80 3b a0 df 17 3d e6 2d 4b bc
       -0.005530417 0.0039164117 0.0370785 -0.01240108
0003e0 75 e0 d2 bb 11 2c cb 3b 72 63 5c bb 66 d4 42 3c
       -0.006435449 0.0062003215 -0.003362861 0.01189146
0003f0 c6 d6 ab bc 87 07 50 3c 5e 5c 0b 3d bc 8f 17 bd
       -0.020976435 0.012697107 0.034023635 -0.03700231

start_block.0.bias f4 [10]
000000 e1 16 12 b8 36 f9 14 b8 64 11 b4 38 b8 cf cb b6
       -3.483042e-05 -3.5518045e-05 8.586308e-05 -6.074053e-06
000010 01 57 3b 38 a9 d7 be 38 5e 1e af b8 2a 50 9f b7
       4.4665303e-05 9.100076e-05 -8.3503066e-05 -1.8991606e-05
000020 0a 70 ce b6 6c e4 70 b7
       -6.1523215e-06 -1.4358298e-05

start_block.1.weight f4 [10]
000000 2f 7d c1 3e 1e 7d c2 3e d3 cd c1 3e 71 7c c2 3e
       0.3779082 0.37986082 0.37852344 0.37985566
000010 03 7f c1 3e 62 8e c2 3e b3 3e c2 3e 2a a1 c2 3e
       0.37792215 0.37999254 0.3793846 0.38013583
000020 ee 21 c3 3e c6 2a c2 3e
       0.38111824 0.3792326

start_block.1.bias f4 [10]
000000 c0 d2 18 3c 7e dc c7 3a 8f b9 82 bb 0c 26 6d bb
       0.00932759 0.0015248207 -0.0039894055 -0.0036186008
000010 51 2e df 3a 87 fc 0d bb ca ce 64 bb 72 55 c8 bb
       0.0017027353 -0.002166541 -0.0034913295 -0.0061137015
000020 fc b3 d4 3b 58 5b eb 39
       0.0064911824 0.0004489075

start_block.1.running_mean f4 [10]
000000 49 56 56 ba be c5 d3 bc 8a ee 2f bc a8 57 bc bc
       -0.00081763096 -0.025851127 -0.0107380245 -0.022991017
000010 67 54 1c 3c 90 71 0b bc 30 2d 87 3c 94 df 04 3c
       0.009541607 -0.008510962 0.01650104 0.008109946
000020 cb 27 ca 3b 15 29 1d 3d
       0.0061692945 0.038369257

start_block.1.running_var f4 [10]
000000 bf 3d cf 3a 94 dd 92 3a 63 08 b1 3a ae 6f 97 3a
       0.0015811248 0.0011204951 0.0013506528 0.0011553669
000010 da bf a3 3a 47 50 83 3a 78 7f c7 3a b7 82 89 3a
       0.0012493089 0.0010018431 0.0015220484 0.0010491227
000020 da 16 a8 3a bc f6 9d 3a
       0.0012824193 0.0012051682

start_block.2.weight f4 [10, 10, 3, 3]
000000 4d 14 85 3c e7 67 29 3c 61 f1 5b 3c 63 96 ba 3c
       0.016245032 0.010339714 0.013424248 0.022776788
000010 2a 79 0a ba b0 e6 d8 3a 7f e8 d2 bc f7 e0 05 3c
       -0.0005282337 0.0016548242 -0.025745628 0.008171312
000020 a4 08 95 bc 7b 33 03 3c 58 40 1c 3c a3 0d 8e 3c
       -0.018192597 0.008007879 0.009536825 0.017340487
000030 ce 14 22 bc 05 09 f5 3c 28 4f a3 39 8c 20 01 3b
       -0.009892656 0.029911527 0.0003114876 0.0019703237
000040 bb 7f 6b bc 31 89 d6 3b a1 2a b9 3b 43 7b a5 3a
       -0.014373715 0.006547116 0.0056508337 0.0012625236
000050 f0 16 27 3c 0f 56 75 bc 79 81 8b 3c 5e 56 cb 3b
       0.01019834 -0.014974131 0.01702951 0.006205364
000060 d3 80 38 3c 6d 42 75 bc e8 e4 87 3c 77 44 bd 3b
       0.011261183 -0.01496945 0.016588643 0.005775984
000070 58 f6 30 bb 03 7a fc 3b 98 20 bb bb e6 11 f2 3c
       -0.00270023 0.0077049746 -0.0057106726 0.02954955
000080 be 9a dc 3b 62 64 31 3c 0c 2d 2a bc ce 37 37 3c
       0.006732314 0.010827156 -0.010386717 0.0111827385
000090 0d 89 24 3c 07 73 97 bb c6 b6 80 ba 1c 5e 9a 3c
       0.010042441 -0.0046218666 -0.0009820096 0.018843703
0000a0 18 23 15 bc 97 17 34 bc 57 a6 c3 bc ce 8b c5 3c
       -0.009102605 -0.010991952 -0.023883028 0.024114516
0000b0 9f bd 9c bc 34 80 64 3c 97 83 cd bc 47 49 05 3c
       -0.019133387 0.013946582 -0.025087161 0.008135146
0000c0 f7 7d 2c 3c d3 53 07 bb b6 8d 5e bc d3 a6 b3 bc
       0.010528079 -0.0020649328 -0.013583591 -0.021930134
0000d0 79 b9 d4 3c 80 98 62 bc 3e bc df bb 17 ac 6d 3c
       0.025967347 -0.013830304 -0.00682786 0.014506361
0000e0 7d 93 8f 3a 29 c2 13 bc c2 35 04 bc 9d 15 82 3c
       0.0010953989 -0.009018459 -0.0080694575 0.015879447
0000f0 c6 23 b9 3c 79 1b 33 bc e9 58 f9 3c 48 76 71 3b
       0.022600066 -0.010931843 0.030437903 0.0036844183
000100 83 4d 0b bd ee ed 46 bc 7f 4b 4a bb 82 a1 00 bb
       -0.034009468 -0.012141688 -0.0030867753 -0.0019627516
000110 62 77 85 bc 80 a7 a2 b7 ea 40 39 3c 51 e8 e5 bb
       -0.016292278 -1.9389903e-05 0.011306981 -0.0070162197
000120 00 94 a7 3b be 3e 5d bb d2 45 43 3c fd 27 36 3c
       0.0051140785 -0.003375932 0.011918502 0.011117932
000130 76 5a 98 bc 99 2e b8 ba 25 98 db bc d9 d3 a8 3c
       -0.018597823 -0.0014051973 -0.026805947 0.02060883
000140 7f a8 53 bc 7c 62 1a bb 48 ce e0 3c 2c ab 08 bc
       -0.012918591 -0.0023557236 0.027442113 -0.008341592
000150 b4 ee 3a 3b 7c 96 c1 3b ff ec 1c bc e9 c7 02 bc
       0.0028523626 0.0059078317 -0.009577989 -0.007982233
000160 55 56 40 bb 3b 5b d8 bc 7a 8c 4e 3c 8f 47 7d 3a
       -0.0029348333 -0.02641069 0.012606734 0.0009661847
000170 ab a3 cb bb 6b 19 9d 3b 54 86 8f bb f8 a5 3a bc
       -0.006214579 0.00479429 -0.004380027 -0.011392109
000180 ba 65 01 bb 22 62 2a 3c 41 38 94 3b 8e d2 de bb
       -0.0019744472 0.010399373 0.0045233076 -0.0068000024
000190 3d 0c e5 bb a1 38 f3 3b 5b 56 db ba 50 c0 6a 3b
       -0.0069899843 0.007422522 -0.001673411 0.0035820194
0001a0 8d 86 9b 3b fe f6 9e 3b f9 82 2f 3c e8 ec 8a 3b
       0.0047462643 0.004851221 0.010712379 0.004239667
0001b0 85 0a b2 bb da 04 10 3b 36 c3 25 3c 28 6c b7 ba
       -0.005433383 0.0021975548 0.010117343 -0.0013994025
0001c0 34 77 af 3b 90 4d a6 3b 2c fb f1 3b 95 af 89 3c
       0.0053547863 0.005075164 0.0073846783 0.016807357
0001d0 2c 7a 0b 3c a9 3e 50 bc 88 80 86 bb 7b ac 2a 3c
       0.008513015 -0.012710252 -0.0041046776 0.010417099
0001e0 c4 b8 53 bb d8 46 e7 38 a0 4f af 3b 62 b1 0a 3c
       -0.0032306174 0.00011028134 0.005350068 0.008465143
0001f0 53 e7 4a 3c 98 1e c8 3b 60 f4 0c 3c ac e4 bb 39
       0.012384254 0.0061071627 0.008603185 0.00035837793
000200 a8 e7 4d 3a 4f c9 70 3b d2 b5 29 bc 2c c8 e1 bb
       0.0007854649 0.0036741083 -0.010358291 -0.0068903174
000210 50 0f 56 bb da be 14 bb ed da 9d bb 2e c3 e1 ba
       -0.0032662936 -0.0022696764 -0.0048173578 -0.0017224306
000220 70 6a d0 bb ac e3 8d 3a 35 59 85 b9 10 29 23 bc
       -0.0063603446 0.0010825298 -0.000254342 -0.0099585205
000230 fa 9e 22 bb 42 33 ed bb ac f6 c5 ba 5f 94 e9 bb
       -0.0024813996 -0.0072387764 -0.0015103421 -0.007128283
000240 f9 8d 17 bb ac 53 d6 38 79 3c c6 bb 06 5f 1b 3a
       -0.0023125394 0.000102199 -0.0060496894 0.00059269404
000250 3e e3 57 3c 53 5e 90 3b 06 f4 4f 3c fa d7 97 bb
       0.013176737 0.0044057756 0.012692457 -0.0046339007
000260 89 40 c5 bb 9b e8 f2 bb cd e5 05 ba a7 4a de 3b
       -0.006019656 -0.0074129826 -0.00051077903 0.0067838016
000270 a6 e2 86 bb c6 02 99 bb ed 19 05 3b df 49 1f bc
       -0.004116374 -0.00466952 0.0020309642 -0.009722202
000280 50 43 64 bb 53 55 14 bc bc a4 d7 3b a8 ca 06 bb
       -0.003483016 -0.009053546 0.006580917 -0.002056757
000290 4f 5d ea bb e4 34 69 3b ea 5f 48 bb 69 18 28 bb
       -0.0071522365 0.0035584504 -0.0030574747 -0.0025649315
0002a0 4e 50 e3 bb 08 b1 2b bc b6 c6 a4 bb d2 34 1f 3b
       -0.0069370633 -0.010479219 -0.005028571 0.0024292958
0002b0 ac b1 66 3c 73 f8 3e 3b 23 ae 61 3b 89 5d a6 3a
       0.014080446 0.0029139786 0.003443607 0.001269267
0002c0 fe 9f eb 3a 0e df 84 bb c2 14 b3 3b 00 24 e9 3b
       0.0017976759 -0.0040549105 0.005465121 0.0071148872
0002d0 ef 46 a9 3c a2 29 c0 ba 0c 4d 3d bc 16 7d db ba
       0.020663707 -0.0014660845 -0.011554014 -0.0016745653
0002e0 a7 d4 24 3c 38 cc b5 3a 24 b7 1e bc a4 48 25 3c
       0.010060466 0.0013870066 -0.009687219 0.01008812
0002f0 f1 1e 55 bc 64 e6 52 3a 6f f6 0d bb 20 94 3e b8
       -0.013007865 0.0008045195 -0.0021661778 -4.5437482e-05
000300 b4 f4 c2 bb da 79 f9 3b fc 38 a0 3b e9 ea b2 3a
       -0.005949581 0.007613403 0.0048896056 0.0013650331
000310 64 9c 6b bc 0a 91 76 ba 0f 3a 7f 3a ad c2 2a bc
       -0.014380548 -0.0009405768 0.00097361294 -0.010422391
000320 5c c4 1f 3c 12 6a 31 bc d0 07 c2 b8 1a ca 84 3c
       0.009751406 -0.010828512 -9.252096e-05 0.01620965
000330 dc e5 0d 3c dc 61 a6 bc 04 dd 9c 3b 63 eb 39 3b
       0.00866076 -0.020310335 0.0047870893 0.0028369061
000340 06 08 e2 ba 7a 24 09 3c 19 e9 14 3b d8 cc 30 bb
       -0.0017244823 0.008370513 0.0022721945 -0.0026977565
000350 5e 30 b8 3b 92 62 79 3c 26 d2 c1 bc 44 15 0f 3b
       0.005621 0.015221255 -0.023659777 0.0021832744
000360 b1 67 96 3c c0 7c 43 ba e5 82 8a bb 5b 82 7f 3c
       0.01835999 -0.0007457249 -0.0042270296 0.015595044
000370 02 9e 80 3b 97 b1 31 bc 5c 32 cc bb d7 ae a6 3c
       0.003925086 -0.010845563 -0.0062315892 0.020347042
000380 b6 55 1c bc b7 6a 5d 3c 1a 15 94 bc b2 bd a4 3b
       -0.009541919 0.013514212 -0.018076468 0.0050274963
000390 bb 3d 60 3c 60 28 69 bb e8 5a b7 3a cf 39 82 bb
       0.013686593 -0.0035577044 0.0013988884 -0.0039741765
0003a0 a7 01 af 3c d7 09 0b bc 94 89 a5 bc 44 b1 88 3c
       0.021363093 -0.008486233 -0.020207204 0.01668609
0003b0 70 2b 52 3a 30 18 98 ba 0d bb dc bb 5d b4 3a bc
       0.0008017337 -0.0011603888 -0.0067361654 -0.011395541
0003c0 26 f2 2e 3c 4e 77 12 bc 0b 8b 6d 3c 75 11 21 3c
       0.01067785 -0.008939577 0.014498482 0.009830822
0003d0 0e 64 83 bc 52 d5 1c 3c b7 ad 14 3c 20 84 93 3a
       -0.01603892 0.009572344 0.00907462 0.0011254586
0003e0 1e eb 2b 3a ae 08 73 3c a4 79 7b 3b b2 22 b1 bb
       0.00065581675 0.014833612 0.0038372064 -0.0054057473
0003f0 dd 1e 0d 3b 2e f7 af 3b 88 30 7e 3b ca 30 ce 3b
       0.0021533289 0.0053700423 0.003878625 0.006292437

start_block.2.bias f4 [10]
000000 71 01 d5 3c 5e 60 af bc 59 f3 80 bc 1c c8 22 bb
       0.026001664 -0.021408256 -0.015741037 -0.0024838513
000010 f8 e9 35 3b 79 24 d2 3b d9 3b 96 3c 80 fe 64 b9
       0.0027757864 0.0064130393 0.018339084 -0.00021838583
000020 71 1c 94 3c ff bd 90 bb
       0.018079968 -0.0044171805

backBone.0.conv1.weight f4 [10, 10, 3, 3]
000000 c3 fb 1e 3a 70 7e 64 3c d7 91 e3 bb 69 0f 19 3c
       0.0006064737 0.013946161 -0.0069448757 0.009342053
000010 9e d9 4f ba 1b de e0 3b 58 c6 f5 3b b3 48 29 3c
       -0.0007928851 0.0068624145 0.007500451 0.010332274
000020 74 30 4c bb a9 39 dc 3b b1 41 42 3b b3 9f 31 bb
       -0.003115681 0.006720741 0.0029641206 -0.0027103245
000030 0f 2a 77 3c 9e 15 ad 3b b8 88 85 39 37 cf 53 3b
       0.015085711 0.005282118 0.000254696 0.0032319555
000040 8c cc 0a 3a ec fc 9f ba ba d6 ab 3c 24 fc 1f 3b
       0.0005294762 -0.0012206114 0.020976413 0.0024411762
000050 ca 9e e2 bc c3 43 8b 3c 76 86 f5 39 fa 07 e9 bb
       -0.027663607 0.017000085 0.00046830223 -0.0071115466
000060 70 76 76 3c f2 a4 a9 3c fb 45 1b 3b 90 a3 fe 3c
       0.015042886 0.020708535 0.0023692835 0.031083852
000070 e8 fb 03 3b 88 64 c7 bc 80 81 ef 3c 73 70 30 3b
       0.0020139161 -0.02433993 0.029236555 0.0026922494
000080 87 b8 4c bc 96 de cb 3a 52 e2 35 3c 34 f3 d0 bb
       -0.012495167 0.0015554007 0.011101322 -0.0063766483
000090 70 ba 5c 3c 89 63 83 3c 89 6f 40 bc 20 50 4c 3a
       0.013472185 0.016038673 -0.011745342 0.0007793922
0000a0 9e 1a e9 3a c3 be 17 bb 01 6e 99 3b cf 75 34 3c
       0.0017784422 -0.0023154474 0.004682303 0.011014416
0000b0 b2 66 60 bb 72 68 21 bc 73 73 57 bc c4 aa 67 bc
       -0.0034240899 -0.009851562 -0.013150084 -0.014139835
0000c0 77 a2 15 3c 0b 66 55 bc 8d 6f 73 bc 6c f6 08 39
       0.009132973 -0.013024817 -0.014858139 0.0001306177
0000d0 f2 39 f6 bb c2 7c 84 bb 1c 78 56 3c fd da bf 3b
       -0.007514232 -0.0040431926 0.01309016 0.005854963
0000e0 da a5 40 3a f5 3b 56 3c 73 0d e2 3b a4 d2 74 bc
       0.00073489326 0.013075818 0.006898576 -0.014942799
0000f0 db 45 d4 bb 2a 08 5c 3b e5 04 ed bb cb 83 45 bb
       -0.006478054 0.0033574202 -0.0072332495 -0.003013837
000100 fe 94 02 bc f3 12 6c 39 a3 66 44 bb 9c d9 bf ba
       -0.007970093 0.00022513773 -0.0029968403 -0.0014636996
000110 f0 ea 3b bb 8b 4d f6 bb df f7 b0 ba 3a 5c 22 bb
       -0.002867397 -0.007516568 -0.0013501606 -0.002477421
000120 6b 16 4b 3c da 54 a2 3b d8 9e 9c bc 8d 4a 80 3c
       0.012395482 0.0049539628 -0.019118711 0.015660549
000130 3a 55 28 bc 6c 54 9b bb 2b d7 1b 3c ac d6 5c 3c
       -0.010274226 -0.0047402885 0.009511749 0.013478916
000140 5e 67 3c ba 8c d6 dd 3b f3 7a 2a 3b c2 4b 6c bb
       -0.0007187034 0.0067699607 0.0026013225 -0.0036055897
000150 98 c2 f1 3a 6c e3 ab 3a 0d c1 bf 3a bb f4 2b 3b
       0.0018444834 0.0013114042 0.0014629677 0.00262384
000160 ab aa aa 3a 1a df 8c b9 0c f7 03 3d b5 e2 cc bb
       0.0013020834 -0.00026869104 0.032218024 -0.0062526115
000170 3d 5f 09 3c 66 aa 96 3b 36 a9 a7 3c d4 67 22 bc
       0.008384523 0.00459795 0.020466428 -0.00991245
000180 06 7e 10 3c c1 73 c4 bc 0f 4c a9 3b 05 75 c0 3a
       0.008819109 -0.023980977 0.0051665376 0.0014683312
000190 b3 e3 55 ba fa e1 3d bb d6 04 9c 3b 58 12 f5 3b
       -0.0008159235 -0.0028973804 0.0047613187 0.0074789934
0001a0 55 42 56 bb e9 02 2b bb b3 4f 58 ba 40 54 7d b7
       -0.0032693346 -0.0026094264 -0.0008251622 -1.5099591e-05
0001b0 43 fb 04 3c dc 43 1d bb 61 11 08 3c 35 65 da bb
       0.008116546 -0.0023996746 0.008304925 -0.006664897
0001c0 18 bf 60 bc f0 88 f2 bb ca 17 bb 3a 7e b9 c1 bc
       -0.013717435 -0.007401578 0.0014274057 -0.02364802
0001d0 70 e5 fc 3a df f8 1c 3d e3 57 99 bb c1 6a e1 3b
       0.0019294452 0.03832328 -0.0046796664 0.006879181
0001e0 32 77 a6 3a 96 eb 14 bc 4e 50 78 bc 37 94 c2 bc
       0.0012700318 -0.009089371 -0.015155865 -0.023752315
0001f0 67 d9 9d 3b 09 50 ea bb 45 82 04 bb 6b f8 f0 ba
       0.004817176 -0.007150654 -0.0020219248 -0.0018384581
000200 6c 35 9f 39 fa 84 12 3c 41 11 b5 bb ff 0e 1a bc
       0.00030366646 0.008942837 -0.0055257385 -0.009402989
000210 bd bb f5 bb 53 61 79 bc a3 a1 4a bc 23 a7 0e 3d
       -0.007499187 -0.015220958 -0.012367639 0.034827363
000220 6e 1f 93 3c e2 ce 06 3b e4 3b ba 3c 4c 71 24 3c
       0.017959323 0.002057009 0.022733636 0.010036778
000230 1c 4b a6 ba a6 f8 24 3c 81 87 ab 3b f3 4d 79 3c
       -0.0012687179 0.010069048 0.005234659 0.015216338
000240 60 fc 52 3c 3c 24 4b 3c 40 69 86 bb cc db 47 bc
       0.012877554 0.012398776 -0.0041019022 -0.0121984
000250 7b 18 d9 3a 14 3e 81 3b 54 92 04 bc 7a f6 59 ba
       0.0016563082 0.003944168 -0.008091528 -0.0008314621
000260 1f 17 98 3a 22 5f 88 3b 24 21 03 3b 42 e3 31 bc
       0.001160357 0.0041617313 0.0020008767 -0.010857405
000270 37 c0 83 3c 69 d0 8a 3c 04 21 0e 3c b7 fa 6d 3c
       0.016082866 0.01694508 0.008674864 0.014525107
000280 7f 07 6b 3c 98 12 8f b9 fb d2 8e 3c 03 a6 6d bc
       0.014345049 -0.0002728894 0.017434588 -0.014504912
000290 e8 ff 41 bb 1d d0 a6 bb 1b 7f 3c 3b 0b ac 5f bb
       -0.0029601995 -0.005090727 0.0028762284 -0.0034129645
0002a0 95 52 2c bc ac cd 66 bc d5 7b 96 3a 0a 15 76 3b
       -0.010517736 -0.014087122 0.0011480997 0.0037549161
0002b0 76 82 37 bb dc 55 f7 bb 93 d8 22 3c 1f df 82 3b
       -0.0028001345 -0.007548077 0.009939331 0.0039938833
0002c0 a7 c5 c6 bb 00 9b e9 ba a5 fa a9 3a 49 8d 1a ba
       -0.0060660425 -0.0017822683 0.0012968375 -0.0005895687
0002d0 35 ab 0f 3d 1f e9 23 3c 17 76 6d bc 34 1a 3d 3d
       0.035075385 0.010004311 -0.014493487 0.046167567
0002e0 8e d5 2b 3c 7d 8b 49 3c 5a 7d 22 3d 9a fd 0f bc
       0.010487927 0.012301323 0.039670326 -0.008788491
0002f0 52 56 8b 3b 56 6a e7 3b b8 f3 c5 3b 1a 8e 3b bb
       0.0042522335 0.007062237 0.0060410164 -0.0028618635
000300 b0 34 fd 3b 2c 56 cf ba a2 51 20 bb 6e 65 b1 bb
       0.007727228 -0.0015818528 -0.002446272 -0.0054137027
000310 b4 eb 2b bc fa 07 34 bc fd e8 cb 3c 22 e9 f8 3b
       -0.010493208 -0.01098823 0.02489137 0.007596151
000320 90 bd 47 bc 79 0e 08 3c 27 47 21 3a b9 4b 0e bb
       -0.012191191 0.008304232 0.0006152265 -0.0021712615
000330 33 2a 0e 3c d4 65 44 bc 6c bd 0a 3b a4 9d af bb
       0.008677053 -0.011987168 0.0021170033 -0.0053593684
000340 78 d1 2c 3c 51 48 aa bc 51 c4 46 bc d4 88 0f bc
       0.010547988 -0.020786436 -0.012131766 -0.00876065
000350 49 e9 95 3b be 5b 91 bc ec c4 8d bc ef c6 be 3b
       0.004574929 -0.017743941 -0.017305814 0.0058220546
000360 19 10 75 bc 04 fa 69 bc 76 f9 81 bc ed 49 1c 3c
       -0.014957451 -0.0142808 -0.015866023 0.00953911
000370 d0 60 52 bb 8c 45 c4 bb b4 55 62 b9 43 7a 0b bc
       -0.0032101162 -0.005989736 -0.00021584966 -0.008513036
000380 68 3f e0 bb 8a 56 e8 3c 64 a3 0e 3d bf 74 63 3c
       -0.006843496 0.028361578 0.03482379 0.013882815
000390 86 fe e9 3c b1 8e 40 3c 7e 0b a0 3c c5 82 2d 3b
       0.028563749 0.01175277 0.01953673 0.002647565
0003a0 48 31 54 bc c2 ec 18 3c 93 e3 8b ba be 7a ad bc
       -0.012951203 0.009333791 -0.0010672681 -0.021176692
0003b0 c1 73 4b bc 6c 8a 00 3b 35 73 86 bc 04 05 16 bc
       -0.012417735 0.0019613756 -0.016412357 -0.009156469
0003c0 27 65 12 bc 32 c0 25 3b 24 9b 2c 3c 00 7c 5d 3c
       -0.008935249 0.002529156 0.010535035 0.013518333
0003d0 c9 c7 8c bb 2e 6b 8e bc 3c 90 14 3c cb d5 40 3c
       -0.004296277 -0.017385092 0.009067591 0.011769722
0003e0 31 67 45 bb e9 3f 51 3c 78 42 86 3c e9 66 d2 bb
       -0.0030121321 0.012771585 0.016389117 -0.0064209593
0003f0 9c 13 16 3d 70 8d 1e b9 4c c7 03 bc be 27 1f 3c
       0.036639795 -0.00015120744 -0.008043122 0.009714065

backBone.0.conv1.bias f4 [10]
000000 61 7c f0 b6 e0 4f 13 b8 64 9d ea 37 1c 0e a1 b5
       -7.167037e-06 -3.512192e-05 2.7968264e-05 -1.1999541e-06
000010 b8 e9 8c b6 db 33 2a 37 09 a6 44 b7 25 74 65 36
       -4.1995336e-06 1.0144863e-05 -1.1721168e-05 3.4191264e-06
000020 8a 5b 2d 36 0b 4d c4 37
       2.5832292e-06 2.3400897e-05

backBone.0.bn1.weight f4 [10]
000000 58 21 c2 3e 7a e2 c1 3e 4d 6d c3 3e 91 e3 c1 3e
       0.37916064 0.378681 0.38169327 0.37868932
000010 32 83 c2 3e 5d e6 c1 3e 29 f3 c1 3e 1f 11 c2 3e
       0.3799072 0.37871066 0.3788083 0.37903687
000020 b1 d4 c1 3e c8 41 c2 3e
       0.37857583 0.37940812

backBone.0.bn1.bias f4 [10]
000000 4a 3b 3f bc 69 0c a7 3b 5f 7d 1d 3c 91 0b 1a bc
       -0.01167185 0.005097915 0.00961241 -0.009402172
000010 f2 30 7c ba d1 f7 c3 3b 9a a1 b5 bb e7 4f 6d 3c
       -0.00096203305 0.0059804698 -0.005542946 0.014484382
000020 fb fa 51 3c f8 88 8a bb
       0.012816186 -0.0042277537

backBone.0.bn1.running_mean f4 [10]
000000 27 78 1c 3b 1e 9e 42 39 c0 20 c0 3b 98 95 ad bb
       0.0023875327 0.00018560185 0.005863279 -0.005297374
000010 fb 8a b8 ba 1c 93 95 bb af e0 ce b9 30 86 3e bb
       -0.0014079505 -0.004564656 -0.00039458784 -0.0029071681
000020 8b 0e 00 bb 00 80 99 bb
       -0.0019539918 -0.0046844482

backBone.0.bn1.running_var f4 [10]
000000 53 41 9f 38 fb 06 4e 38 f6 04 67 38 c5 99 5a 38
       7.5938784e-05 4.912073e-05 5.5079312e-05 5.211846e-05
000010 18 f6 6a 38 eb d0 fe 37 8f 17 72 38 14 d4 c0 38
       5.601914e-05 3.0376445e-05 5.7719237e-05 9.194776e-05
000020 0c 0d 93 38 3e cf 48 38
       7.0119364e-05 4.7876725e-05

backBone.0.conv2.weight f4 [10, 10, 3, 3]
000000 58 eb af 3a 84 d8 7f 3b c9 e3 3b bc 23 ae be bb
       0.0013421578 0.0039038965 -0.011467882 -0.0058190986
000010 9d c9 05 3c 49 ac 59 3c b1 a4 10 bb 46 9b 44 ba
       0.008165744 0.013285705 -0.002207082 -0.0007499944
000020 2a a9 b0 bb 84 46 a4 bb 43 a4 e7 ba 6a ff 84 3b
       -0.0053912597 -0.005013289 -0.0017672855 0.004058768
000030 51 0f 05 3b d4 ad af 3b da 91 ae 3a 8e 3e 90 3b
       0.0020303319 0.005361298 0.0013318614 0.0044019883
000040 84 bc ed bb a7 b3 b0 3c 16 05 df 3b c4 c4 2d 3b
       -0.007255139 0.02157004 0.006806026 0.0026514987
000050 c6 0f 44 3c f6 b2 45 bc 20 30 a8 3a 15 c6 01 3d
       0.011966651 -0.012066593 0.0012831725 0.031683046
000060 ab 4d 2a bc 1b ed d1 3c e8 31 57 3b 44 14 04 3b
       -0.010394494 0.025625756 0.0032836143 0.002015368
000070 3a 4f c7 ba 79 e1 1b bc aa 7d bd bb 35 9a b3 3b
       -0.0015206106 -0.009514206 -0.0057828026 0.0054810294
000080 1c 57 6b 3b 86 c3 f1 3a 04 51 23 bc ba 83 73 3c
       0.0035910076 0.0018445111 -0.009968046 0.014862949
000090 50 30 8d bb 31 e5 90 3b a8 26 74 3b 12 ab e1 3b
       -0.004308738 0.004421853 0.0037254486 0.0068868482
0000a0 dc 16 93 39 0f 7d 8a 3a 26 84 bd bb b8 ee a7 3b
       0.00028055056 0.0010565835 -0.0057835756 0.005124893
0000b0 4e 87 d9 3b 84 70 24 3c bb 68 56 bc b6 87 6c 3c
       0.006638444 0.010036591 -0.013086493 0.014436653
0000c0 16 91 fc bb cd 31 09 bd 12 01 99 3c 2b fe ae ba
       -0.0077077253 -0.03349476 0.018677268 -0.0013350894
0000d0 e5 03 d5 3a 0b 50 31 bc 0d 4f 95 bb 75 a6 4f 3b
       0.0016251771 -0.010822306 -0.0045565427 0.003168491
0000e0 4f 70 d2 3a 3a b1 89 3b 3c 37 5a ba e5 c6 7d 3c
       0.0016055199 0.0042020353 -0.00083242706 0.015489315
0000f0 d0 bb 36 bb 12 e4 96 bc 51 aa 8d 3c 34 47 16 3c
       -0.002788294 -0.0184193 0.017293127 0.00917225
000100 a0 27 bb b9 7a bd 68 3c 17 cb c8 3b 52 96 13 3c
       -0.00035696942 0.014205331 0.006127726 0.009008007
000110 7b 9c a5 3b 85 ed db bc 9c ac 72 3c df 1b 83 bc
       0.0050540543 -0.026846657 0.014811661 -0.0160045
000120 86 53 d3 3b 3c 2b 2e 3c 42 07 81 bc 09 fd 3a 3c
       0.0064491658 0.010630425 -0.015750531 0.011412867
000130 70 95 f1 3b 37 d7 02 bc e8 39 81 3b fe 92 5b bb
       0.0073725507 -0.0079858815 0.0039436705 -0.0033504362
000140 9b 59 fa 3c d5 95 87 bb 91 85 1d bb 72 96 60 b9
       0.030560305 -0.0041377344 -0.002403591 -0.0002141835
000150 fc 87 79 bb a6 53 86 3c c5 e8 6f bc 7f ed 54 bc
       -0.0038075438 0.016397309 -0.014642899 -0.012996077
000160 23 0b c9 bb c2 9e 9e 3a ab 37 24 3c 64 da 08 bc
       -0.006135361 0.0012101757 0.010023038 -0.00835285
000170 6c 7f 62 bc 2e 22 d3 bb 96 cb 7f bc 11 f1 77 bc
       -0.013824325 -0.0064432835 -0.0156125035 -0.015133158
000180 4d 29 21 3b 54 aa e3 ba f2 c9 06 b9 1a 82 49 3c
       0.0024591268 -0.0017369487 -0.00012854466 0.012299085
000190 59 37 2b 3b b0 d6 41 bc fa d1 5b b9 52 c8 05 bc
       0.002612552 -0.011830971 -0.0002096369 -0.008165436
0001a0 7e af 64 bc 63 9b ee ba 60 17 02 b8 c5 30 0f 3c
       -0.013957856 -0.0018204268 -3.1016185e-05 0.008739655
0001b0 e9 48 3e ba 01 6b b2 3a d8 45 87 38 02 07 b8 bc
       -0.0007258789 0.0013612212 6.450311e-05 -0.02246428
0001c0 2b 10 ec bc 0d 26 9b bc bc a5 c1 bc ce 45 a3 3b
       -0.028816303 -0.018939042 -0.023638599 0.0049826866
0001d0 6b ce 8f bb 61 49 9e ba 0a d9 99 bc c9 00 2e bc
       -0.0043886206 -0.0012076312 -0.01878025 -0.010620304
0001e0 b2 ea ff 3b e5 48 35 bb 1d 1b b0 bc 00 f4 31 35
       0.0078099603 -0.0027661857 -0.021497304 6.6292705e-07
0001f0 bc 8f d4 3a db f9 45 bc ea b2 b6 bc eb 6a 9e bb
       0.0016217153 -0.012083496 -0.02230211 -0.004834523
000200 57 2a 61 3c 33 20 67 bc 93 e3 ab bc 2b 01 e7 bb
       0.013743005 -0.014106798 -0.02098254 -0.0070497
000210 8f 52 aa bb 51 72 01 bc c4 97 13 bc ac a5 6d bc
       -0.00519783 -0.00790079 -0.009008352 -0.014504831
000220 2f 55 ee bc 92 a1 5f bc ad 83 ad bc e0 12 45 bc
       -0.029093353 -0.013649361 -0.021180952 -0.012028426
000230 76 eb f6 ba 4a 9f 9d b9 28 79 3e 3c 62 65 a5 3a
       -0.0018838483 -0.00030064053 0.011625566 0.0012618715
000240 f4 6a 40 bc 88 7e 8b b9 2c 80 76 3b 4e 50 e7 bc
       -0.01174425 -0.0002660642 0.0037613017 -0.028236534
000250 8a 1b e9 bc 0c 8f 73 bc 4c 19 6e bb bd 73 33 bb
       -0.028455514 -0.014865648 -0.0036330996 -0.0027382218
000260 88 4c 0d 3b f5 3f 8c bc 95 61 43 bc 76 1b a1 bb
       0.0021560509 -0.01712034 -0.011925121 -0.0049166037
000270 eb 40 43 bc b8 5a 9d bc d2 14 41 bc 32 0e da ba
       -0.011917333 -0.019208297 -0.011784749 -0.0016636311
000280 c5 d2 c1 3b 94 32 8a bb ff a3 78 3c 78 7a 5f ba
       0.0059150183 -0.004217455 0.015175818 -0.0008525024
000290 e3 3e 36 bc c5 4a e1 3c b3 7a 9c 3c 63 2f a4 bc
       -0.011123392 0.027501473 0.019101476 -0.020042127
0002a0 d2 b7 9c bb 98 22 d4 b8 15 35 aa 3b 3c 1c b8 bb
       -0.0047826553 -0.00010115391 0.005194316 -0.0056186
0002b0 c2 40 8e bc 76 7f ad bc 58 28 7b 3c 40 69 35 3c
       -0.017364863 -0.021178942 0.015329443 0.011072457
0002c0 07 00 ac bb 3f 54 55 3c 17 14 9e 3c e4 65 79 3b
       -0.0052490267 0.013020574 0.019296689 0.0038055116
0002d0 87 1f 38 bc d5 37 52 bb 49 b9 5d bc ef ce 00 39
       -0.011237985 -0.0032076736 -0.013532945 0.0001228412
0002e0 bc 3d d5 bb 17 0b 02 bd ce 5d 58 ba 7f 2c 07 bc
       -0.0065076035 -0.031748857 -0.0008253724 -0.008250355
0002f0 d0 91 7b bc 82 f9 69 3c 06 74 12 3c ca d3 d1 3c
       -0.015354589 0.014280679 0.008938795 0.025613684
000300 82 6d d4 3c 60 90 44 3c c8 40 4b bc b5 7f a0 3c
       0.025931124 0.011997312 -0.012405582 0.019592145
000310 39 8e cb bb ac f1 2e bc 60 a8 c6 38 91 24 ce 3b
       -0.0062120226 -0.010677736 9.472738e-05 0.00629098
000320 ef e3 89 3c b8 09 1d 3d c3 5b 8c 3c 7d 59 c2 3b
       0.01683232 0.038339347 0.0171336 0.005931078
000330 a2 49 1d 3d b0 d5 8a bc ad 86 49 bc e3 0d 21 bc
       0.0384003 -0.016947597 -0.012300176 -0.009829971
000340 8e 75 5b 3c 2b f1 ba 3c 32 75 18 3c 3c 1e af 3c
       0.013394726 0.022820076 0.009305285 0.021376722
000350 d0 5d 69 bc 47 0d a8 3c ec 9d a8 3b 8c 27 4d bc
       -0.014243558 0.020514144 0.005145779 -0.012521636
000360 cc 31 d8 3b 64 0b e0 bb f2 9f 41 3c d7 b1 2b bc
       0.006597733 -0.0068372954 0.011817919 -0.010479412
000370 3d c3 44 3b 60 fb 0c 3b 78 08 03 bc 71 99 1d 3c
       0.0030023598 0.0021512136 -0.007997625 0.009619103
000380 fa 26 38 bc 73 14 17 bd 3e 72 b4 3c ec e2 34 bc
       -0.0112397615 -0.036884736 0.022027131 -0.0110404305
000390 ba 05 f5 bb e2 ed 50 3b 36 ba 1b 3c 2e 9c 21 bc
       -0.0074774893 0.003188007 0.009504845 -0.009863896
0003a0 d5 77 d3 bb f3 a0 3d ba 20 e6 9a 38 d8 ce 7c bc
       -0.006453494 -0.0007233761 7.386156e-05 -0.015430175
0003b0 4a 8e b8 bc 1f 40 de bc 7c 58 b1 bb 44 b2 5f bb
       -0.022528786 -0.027130185 -0.0054121595 -0.0034133354
0003c0 58 21 f8 3b 30 2c bc bc 39 d3 bc 3c a8 f5 cc bc
       0.0075723343 -0.022970289 0.023049938 -0.025019482
0003d0 fc 43 ee bc f9 0a 02 3b 73 ff 8c bc 68 74 b7 bc
       -0.029085152 0.0019842966 -0.017211651 -0.022394374
0003e0 b7 f3 81 3c f0 64 2e b9 77 dc 10 bc f4 20 5e 3a
       0.015863283 -0.00016631535 -0.008841625 0.00084735383
0003f0 ff 7a 5f 3c 95 14 a6 3c 04 02 82 3c e2 80 4b 3c
       0.013640164 0.020273486 0.015870102 0.012420865

backBone.0.conv2.bias f4 [10]
000000 54 33 89 b5 56 3b 60 b6 dc ff 7b b6 c4 c8 ec b7
       -1.0222234e-06 -3.341314e-06 -3.7550844e-06 -2.8226881e-05
000010 65 f7 9f 37 ab 23 fa b7 28 10 81 34 93 8a 28 37
       1.906948e-05 -2.9818932e-05 2.4039878e-07 1.0045845e-05
000020 1c e7 9f b7 92 31 d5 35
       -1.9061896e-05 1.5884164e-06

backBone.0.bn2.weight f4 [10]
000000 cf 3b c2 3e e5 a8 c1 3e 5a ca c2 3e cc df c2 3e
       0.37936255 0.3782417 0.38045007 0.38061368
000010 e9 f3 c1 3e e8 a7 c1 3e d2 3f c2 3e c0 f2 c1 3e
       0.378814 0.37823415 0.37939316 0.37880516
000020 25 74 c2 3e 38 1e c4 3e
       0.37979236 0.38304305

backBone.0.bn2.bias f4 [10]
000000 a1 5e 92 bb cf ef c4 3b 21 3f 0c 3c c0 0c 92 ba
       -0.004466847 0.0060100327 0.008559973 -0.0011142716
000010 74 3c 20 ba a1 50 55 bb 52 c7 db 3b bc 9a d7 b9
       -0.0006112524 -0.003254928 0.0067071104 -0.00041123282
000020 20 0d ca 3b 5a cd 4b bb
       0.0061661154 -0.003109774

backBone.0.bn2.running_mean f4 [10]
000000 79 13 8b 3c 60 c7 65 bd da 30 27 bc e9 07 a9 bb
       0.016977059 -0.056098342 -0.010204518 -0.0051584137
000010 b1 32 7b 3c 30 b1 4d 3c 85 9e 04 3d 08 7f a6 b8
       0.01533191 0.012554452 0.03237774 -7.939158e-05
000020 98 e9 90 3b 71 9d a5 3c
       0.004422378 0.020216675

backBone.0.bn2.running_var f4 [10]
000000 15 8a 96 3a 48 8b ad 3a 6a e9 d4 3a 25 08 cd 3a
       0.0011485243 0.0013240362 0.0016243879 0.0015642686
000010 1e c5 3c 3a a8 d6 9a 3a 4f ec d9 3a 0e 69 da 3a
       0.00072010036 0.001181324 0.0016626212 0.0016663389
000020 60 da dc 3a 73 3e 15 3a
       0.0016849749 0.00056932046

backBone.1.conv1.weight f4 [10, 10, 3, 3]
000000 ca 1c e7 bb fc 6c 52 bc c4 f6 ce 39 6b e6 44 3c
       -0.0070529925 -0.012843367 0.00039475237 0.012017827
000010 dc 9f 65 3c 4b be 2a bc 25 6e 3a bc 11 01 a4 bc
       0.014015164 -0.010421346 -0.0113788 -0.02002004
000020 df 65 9b bc 29 fa 02 ba 1d bc f1 b9 51 d3 0b 3c
       -0.018969474 -0.0004996383 -0.00046107257 0.0085342685
000030 a6 2b 06 bc 0b 7c b9 ba 7c 2e 8d 3b 59 60 63 3b
       -0.008189118 -0.0014151348 0.00430852 0.003469488
000040 45 78 85 bb 12 00 e6 bc 0b 32 1b bb 23 de e2 bb
       -0.004073175 -0.028076205 -0.002368095 -0.0069234534
000050 ac dd e4 bb 5d 5a 0a bc b4 8c 07 bc 7d 19 2f 3c
       -0.006984433 -0.008444396 -0.008273292 0.010687229
000060 08 b7 a2 3b 8a c7 b1 3c e7 be 67 3d 5a c5 99 ba
       0.0049656667 0.021701593 0.056578543 -0.0011731789
000070 8e a1 18 3c 37 70 2f 3c 48 d3 38 bc b0 b1 dc 3b
       0.009315861 0.010707906 -0.011280842 0.006735049
000080 f1 d4 60 bc 60 ab 32 bb 8a d8 b3 bb 59 e8 61 bc
       -0.013722644 -0.0027262792 -0.00548846 -0.013788306
000090 4a 69 11 3c e6 0d 2c 3c 46 da 51 3c 66 90 a8 3b
       0.0088752005 0.0105013605 0.012808388 0.0051441668
0000a0 73 98 b6 3c 7f 18 29 3b 9d a9 1f bc 0c 70 93 bc
       0.02228949 0.0025801954 -0.009745029 -0.017997764
0000b0 68 08 d1 bc d2 b5 62 bb b7 29 79 3c 9a 5f a2 3c
       -0.025516704 -0.0034593237 0.0152076995 0.019820977
0000c0 6d 5a 39 bb cc f7 63 3c 2b 18 95 bb 38 13 92 bb
       -0.0028282658 0.01391406 -0.00455 -0.0044578575
0000d0 a9 4c 11 3c 69 c8 b6 bc 3f 82 17 ba 03 72 c1 3c
       0.008868375 -0.02231236 -0.0005779601 0.023613935
0000e0 8f 0f 29 3c f8 40 c2 ba 51 6a ba 3b 3d 45 a0 bc
       0.010318651 -0.0014820388 0.0056889434 -0.019564265
0000f0 24 33 04 bc 34 a6 03 bc 0f 36 b5 bc ae 4a 93 3b
       -0.0080688335 -0.008035231 -0.022120504 0.0044949865
000100 5a 7c a2 3a 5a df fa bb 9d 9b d4 bb c1 d3 49 bc
       0.0012396679 -0.00765602 -0.006488277 -0.0123185525
000110 a5 3b a4 bc 52 e5 92 3b c1 d8 b0 bb bd a6 ea bc
       -0.020047972 0.0044829035 -0.005396933 -0.02864396
000120 b6 94 51 3b 5f ba ab 3c 22 7c 44 3c ab da 11 3c
       0.0031979508 0.020962892 0.011992486 0.008902232
000130 4b a7 3c 3c 5b 2c fc bb 42 dc 6b 3b e0 6f 68 bc
       0.011514495 -0.0076957173 0.0035989438 -0.014186829
000140 46 dc f1 3b 58 69 e2 39 c0 da a2 3c 3c 83 82 3b
       0.007380995 0.00043184566 0.019879699 0.0039829295
000150 15 9d 4c 3c ad 7a 56 3c 77 58 2c 39 82 c3 6b 3c
       0.012488623 0.013090772 0.00016436154 0.014389874
000160 d0 74 0a 3c 23 50 1f bc 18 e2 6e bc b8 be 2f bb
       0.008450702 -0.009723696 -0.014580272 -0.0026816558
000170 ef 1a 93 bb ee 04 51 3b aa b1 8c 3b 49 ab 66 3a
       -0.0044892947 0.0031893807 0.00429364 0.0008799327
000180 32 2b a9 3c 5d 2a 9a 3b 7f b8 74 3c 3d f2 7d bb
       0.02065048 0.004704757 0.014936565 -0.0038749122
000190 32 7d c1 bb c6 1b 04 bb 58 a0 0c 3b 45 2a 16 bb
       -0.005904817 -0.0020158156 0.0021457877 -0.0022913378
0001a0 98 c0 03 bc 96 8d 6a bb 35 dd e2 bb 63 c2 28 bc
       -0.008041523 -0.0035789958 -0.0069233426 -0.010300252
0001b0 21 88 14 3b 14 6f 3c 39 6b 31 37 b9 90 53 18 3c
       0.0022664147 0.00017970457 -0.0001747065 0.009297267
0001c0 db 73 25 ba 40 9c f3 3b c3 ee 1e 3c 55 bf 40 3c
       -0.00063115143 0.007434398 0.00970048 0.011764367
0001d0 cf 70 05 3c ca 70 5c bc 58 96 fd bb 88 23 27 3b
       0.008144571 -0.013454625 -0.0077388696 0.0025503356
0001e0 ba 6f af bb 82 45 25 bc 77 d2 49 3c 0b 59 d0 3b
       -0.005353895 -0.010087373 0.012318245 0.006358271
0001f0 b9 79 31 bb 32 08 99 3c 02 73 58 bc e7 4d 26 bc
       -0.002708061 0.018680666 -0.013211014 -0.010150409
000200 52 90 54 bb d8 5b 9b 3b 0a 2e bd bb ff ad 04 3c
       -0.0032434654 0.0047411732 -0.0057733105 0.0080981245
000210 92 f1 26 3b 8b 4c 1b 3b 2c 2a 40 3c 78 71 8d bc
       0.0025473577 0.0023696746 0.011728805 -0.01726602
000220 59 bd d5 bb 1d 97 8f 3b da 1f 88 bc be c0 5d bc
       -0.006522816 0.004382028 -0.01661675 -0.013534723
000230 bb aa f3 3b 63 be 74 bc ac 35 5b bc de e2 bc 3b
       0.007436124 -0.01493797 -0.013379496 0.0057643494
000240 ba 86 94 bc 74 9c 0b bc 8e 5f 88 3b be 0c 80 bc
       -0.018130649 -0.008521188 0.0041617816 -0.015631076
000250 2f b5 84 bc b2 1e 03 3c 80 a2 51 bb cf 44 eb bb
       -0.016199676 0.008002924 -0.0031987727 -0.0071798335
000260 c5 d0 73 3c 91 38 a5 bb 9d b7 84 bb b3 7e a8 3b
       0.0148813175 -0.0050421436 -0.0040502087 0.005142057
000270 12 65 18 bc 82 91 3f 3b 24 d5 18 bb 3f 79 73 bb
       -0.009301441 0.0029231017 -0.00233204 -0.0037151126
000280 71 b2 b1 3c 12 a7 a7 3b 86 c5 73 bc 40 ff f6 bb
       0.021691533 0.005116352 -0.014878636 -0.0075377524
000290 e0 16 13 bb 22 3e a2 bb b7 40 9f bc 30 7d 16 3c
       -0.0022444054 -0.0049512545 -0.019440038 0.00918512
0002a0 63 99 be 3b 1a 05 c1 3b d0 e6 07 3c 26 2c 63 bc
       0.005816625 0.0058905007 0.008294776 -0.013865506
0002b0 f5 76 83 bb b1 d6 37 3b 14 83 94 bc 1b 92 88 bb
       -0.0040119835 0.002805155 -0.01812891 -0.0041678078
0002c0 ba 4c 97 3b d7 e7 b3 bc fd e7 09 bc dc b2 c0 ba
       0.004617301 -0.021961136 -0.008417127 -0.0014701742
0002d0 b5 c4 8b bb 11 ed 29 3c 6f 76 c9 3b 3f 11 59 3b
       -0.0042653927 0.010371462 0.0061481516 0.0033121852
0002e0 f3 45 1c bc 57 5c 29 3a fd 08 a7 bc cd a8 89 bc
       -0.009538162 0.0006460598 -0.020390028 -0.016804123
0002f0 0f df b2 ba 81 d2 37 3b 53 e4 48 bb 96 1a 0b 3a
       -0.0013646799 0.0028049054 -0.003065367 0.0005306391
000300 15 b2 8e bb c6 0e 4f 3b 3b 3d c8 3b cd cd c7 3a
       -0.004354725 0.00315945 0.006110815 0.0015243829
000310 ca be 0c 3b e6 7c 34 3c b9 9d a8 bb fb 89 6c 3c
       0.0021476024 0.011016106 -0.005145755 0.014437194
000320 09 5e bf 3b 9b cd 93 ba 74 7d cb bb 38 1d 46 3c
       0.0058400673 -0.0011276485 -0.0062100235 0.012091927
000330 41 c5 33 bc 5f 0c 2a bc c2 43 c6 bc 9e c4 83 bc
       -0.010972322 -0.010378926 -0.024202231 -0.016084965
000340 e9 e0 db 3b d6 e0 59 3c ac 80 e7 bb 11 bd b1 bb
       0.006710161 0.013298234 -0.0070648994 -0.00542415
000350 0c 3c 87 3b aa f8 09 bc c3 5f 97 bc f1 ae a6 bc
       0.004127031 -0.008421103 -0.01847828 -0.02034709
000360 b4 83 2c bc d0 5b 24 bc 58 6d 5a 3c b1 90 18 bc
       -0.010529447 -0.010031655 0.013331734 -0.009311841
000370 ca 5c 0e bc 7a 11 80 3b c1 29 ff bb d8 84 8c bc
       -0.008689115 0.0039083334 -0.00778696 -0.017153189
000380 b1 2e 6e bc 67 71 ff bb 78 0e 71 bc dd d4 c2 bb
       -0.014537499 -0.007795501 -0.014712922 -0.0059457854
000390 06 2c 3f bc 1b d0 f7 3b 35 9c 38 3c ce 82 95 bb
       -0.011668211 0.00756265 0.011267711 -0.0045627123
0003a0 15 88 d8 bb 75 2f 54 3b 1f a7 91 bc 70 05 5c ba
       -0.006608019 0.003237692 -0.017779885 -0.0008393144
0003b0 76 b7 dd 3b be df 01 bc 28 4a 6c b9 91 c6 24 3c
       0.006766255 -0.007926879 -0.00022534339 0.010057108
0003c0 41 c4 19 bc c2 3c 96 bc 92 c6 12 bc b8 4f 9c bb
       -0.0093851695 -0.018339518 -0.008958476 -0.0047702454
0003d0 60 da 29 3c 13 b4 94 3b 0c fa 89 bb 53 a6 0e 3c
       0.010367006 0.004538068 -0.004210716 0.008706647
0003e0 6d 93 59 3b 77 e2 c0 bc b7 4d cb bc 40 4f 2f bc
       0.0033199445 -0.023545487 -0.02481733 -0.010700047
0003f0 1f 5a 70 bc 34 a2 da 3b b6 dd 38 3c 74 14 16 bc
       -0.014669924 0.006672168 0.011283329 -0.00916015

backBone.1.conv1.bias f4 [10]
000000 22 88 3d b5 ae 09 8f 36 00 8a 57 b7 bf 3b f9 b6
       -7.0606086e-07 4.262859e-06 -1.2847129e-05 -7.4277336e-06
000010 04 03 3c b5 d4 f3 a2 37 74 16 7b b7 e2 93 b8 37
       -7.0039846e-07 1.9425446e-05 -1.4965994e-05 2.2003373e-05
000020 28 12 19 36 58 91 c1 37
       2.2809345e-06 2.3075074e-05

backBone.1.bn1.weight f4 [10]
000000 e8 5c c2 3e c0 08 c2 3e 64 0a c2 3e 5b 70 c2 3e
       0.37961507 0.378973 0.37898552 0.37976345
000010 27 c1 c1 3e 2a f5 c1 3e cf 18 c2 3e cc 48 c2 3e
       0.37842676 0.37882358 0.37909552 0.37946165
000020 90 28 c2 3e 32 45 c2 3e
       0.37921572 0.37943417

backBone.1.bn1.bias f4 [10]
000000 5f c0 f7 3b 9b 84 07 bb a2 39 41 bb 42 cb ca bb
       0.007560774 -0.0020678404 -0.0029483815 -0.006188781
000010 aa 46 b7 ba a9 c0 a4 ba c0 1e 70 bb af 28 ba 3b
       -0.0013982852 -0.0012569624 -0.0036639422 0.0056811194
000020 ee c8 12 bc b7 e7 58 3b
       -0.008959038 0.0033097097

backBone.1.bn1.running_mean f4 [10]
000000 d2 45 fd bb b3 9e 14 bc 4a 7b e6 bc 77 90 4e bd
       -0.0077292705 -0.00907104 -0.02813496 -0.05043074
000010 1b dc 1c bd d0 7d ed 3b a0 e7 62 bc a6 0e d5 bc
       -0.038295846 0.007247664 -0.013849169 -0.026007961
000020 84 76 c1 bb ff 2b 11 bd
       -0.0059040207 -0.03544235

backBone.1.bn1.running_var f4 [10]
000000 f6 d1 9d 3a 75 a9 4a 3a bc b8 85 3b ba 2d 8a 3a
       0.0012040723 0.00077309395 0.00408086 0.0010542192
000010 a0 d2 24 3a 3b c4 8b 3a 1e 90 dc 3a e8 96 1a 3b
       0.0006287489 0.001066334 0.0016827618 0.0023588482
000020 8c 50 bb 3a c5 e7 28 3b
       0.0014290973 0.002577291

backBone.1.conv2.weight f4 [10, 10, 3, 3]
000000 d6 9c 91 ba ea d3 48 b9 63 49 44 3c 56 fc 75 3a
       -0.0011109363 -0.0001915243 0.011980387 0.0009383609
000010 24 92 2d 3b 3a ec a7 b8 e9 4f a2 3b 42 52 d6 3b
       0.0026484812 -8.007181e-05 0.0049533737 0.0065405676
000020 22 f6 db bb f0 a2 14 bc 92 02 b7 bb a7 07 36 3a
       -0.006712691 -0.00907205 -0.005585023 0.00069438893
000030 d0 35 c4 38 05 bc e0 3b d9 0e 5d bc 45 9e c3 3b
       9.356032e-05 0.006858351 -0.0134923095 0.005969795
000040 9f 27 27 3b 48 99 af ba ee b3 96 bb 46 30 32 3b
       0.0025505794 -0.0013397122 -0.004599086 0.0027189418
000050 78 98 fb 3a d7 7b fc bb c8 49 cd bb 00 13 06 3b
       0.001919522 -0.0077051925 -0.006264899 0.0020458102
000060 52 64 33 bc 5f 16 1f bc 88 18 01 bb 57 1e 0c bb
       -0.010949211 -0.0097099235 -0.001969846 -0.0021380389
000070 56 e0 86 3b a2 c4 b9 ba 34 25 59 3b 6e e7 d7 3a
       0.0041160984 -0.0014172981 0.0033133747 0.001647217
000080 a4 a7 bb 3a 11 c6 34 b9 19 85 29 bb 44 f1 e8 3b
       0.0014316929 -0.00017239923 -0.0025866686 0.007108839
000090 4d f2 bf 3a bd 09 8e bb ef 4e 4f bb de 46 cf 3a
       0.0014644355 -0.004334657 -0.0031632741 0.0015813967
0000a0 d6 81 27 3a bd 18 53 ba 76 0e 96 bb f4 46 db ba
       0.00063898915 -0.00080526975 -0.0045793606 -0.001672952
0000b0 af 08 78 3c 9b 4d 14 bc 83 7c 5e bb 1c 3b d5 39
       0.015138789 -0.009051706 -0.0033948726 0.00040670566
0000c0 aa fc 83 bb 99 41 71 bc b1 fc bb 3b a0 8c 64 3b
       -0.0040279226 -0.014725112 0.0057369103 0.0034873858
0000d0 d3 4e 8b 3b e5 ab 51 bb 1a 05 9f b9 71 33 36 3c
       0.00425134 -0.0031993326 -0.00030330644 0.011120663
0000e0 23 76 1c bc 03 7f 1e 3c 25 08 a2 3c 77 b5 6d bc
       -0.00954965 0.009673837 0.019779274 -0.014508597
0000f0 65 42 ab 3c 8e c9 38 bc f6 60 c5 bb 25 f5 a5 bb
       0.020905683 -0.011278523 -0.0060235215 -0.005064624
000100 a3 3f 22 bc 6e 99 aa 3a dd 62 d8 bb bc 97 f3 b9
       -0.0099028675 0.0013015696 -0.0066035823 -0.00046461623
000110 b3 d1 1d bc 89 f6 f4 3a b7 36 9f bb ae 86 57 bb
       -0.009632516 0.0018689196 -0.0048588174 -0.0032886672
000120 54 05 98 3b 78 d2 d3 3a 7f e6 7f ba 2c 65 01 3c
       0.004639307 0.0016160747 -0.00097618246 0.007897656
000130 30 00 4e 3a 5d de 8f 3c cf 6a 96 3b 2e 60 2a 3c
       0.00078583043 0.017562086 0.0045903693 0.010398908
000140 bb 3c ad ba d6 f2 c2 bb 6b eb a1 bb e5 e3 5f 3b
       -0.0013216952 -0.0059493585 -0.004941394 0.0034162935
000150 4f c6 e4 bb 3d f0 38 bc 67 5a 62 39 5b ba d0 bb
       -0.006981648 -0.011287746 0.00021586717 -0.0063698716
000160 4b c2 fd bb fe d2 01 3c fa fe 19 bc c8 82 b5 bc
       -0.007744109 0.00792384 -0.00939917 -0.022157088
000170 65 0e 32 bc e2 8f 43 bc a6 70 1d bc e7 95 91 3b
       -0.01086769 -0.01193616 -0.009609377 0.0044429186
000180 bf 4e a6 3b 56 26 40 3c 76 03 7c 3c bc e5 b9 3b
       0.0050753052 0.01172789 0.0153816845 0.0056731384
000190 91 0b a3 39 e4 23 e6 3b f6 79 c6 3b 08 a6 39 3c
       0.000310984 0.0070233215 0.0060570193 0.011331089
0001a0 9e 65 aa 3c 95 b0 99 3b df f1 00 3b 71 35 e7 3b
       0.020800408 0.0046902397 0.0019675416 0.0070559313
0001b0 09 88 fc bb 52 1f 00 bc d8 de aa bb 38 62 88 bc
       -0.0077066463 -0.007819967 -0.0052145533 -0.016648397
0001c0 ae 8d 6b bc bb 1d 8d bb 6d 97 da 3c 52 b0 96 3c
       -0.014377041 -0.0043065227 0.026683534 0.018394623
0001d0 af 74 da 3a 74 6d 3e bb a7 f0 16 bb 82 2b e4 3b
       0.0016666854 -0.0029056938 -0.0023031624 0.0069631943
0001e0 df 7a 03 38 23 a1 22 3c e6 29 ef 3c 94 cf 6b 39
       3.1347266e-05 0.009926113 0.029194783 0.00022488675
0001f0 9c 86 53 bc 43 a1 76 3c 7a 52 7b bb c0 97 a1 3a
       -0.012910511 0.015053096 -0.003834872 0.001232855
000200 46 ac 40 3c bd 76 c8 ba 92 54 10 bc 37 2c 69 bc
       0.011759823 -0.0015294176 -0.008809226 -0.014231733
000210 01 32 59 bb 28 99 0c bb 6b 07 b5 3a 34 42 4f bb
       -0.0033141377 -0.0021453593 0.0013811415 -0.0031625153
000220 c8 55 01 bc e1 df 78 bc a1 a5 4e 3b 88 1f 05 bb
       -0.007893987 -0.015190096 0.0031531828 -0.0020312984
000230 1a 42 f8 b9 63 a3 7c 3b ea c7 fa 3b 39 c6 54 3c
       -0.00047351496 0.0038549535 0.007653226 0.012986713
000240 06 ed 66 bc f3 e1 35 bc 44 0c 9c 3a e3 2d ba bb
       -0.014094597 -0.011101234 0.0011905511 -0.0056817397
000250 e9 56 05 3a db ed f4 ba 2c 72 e3 3c c4 7b 86 3c
       0.0005086498 -0.0018686609 0.027764402 0.016416438
000260 1e 38 37 3c 14 de 16 bc 23 d4 16 bc 58 9f 8e bc
       0.011182813 -0.009208221 -0.009205851 -0.017409965
000270 58 ab bf 3a 4f 10 c1 3c 80 ac f1 3b 83 4f fa 3b
       0.0014623208 0.023567347 0.0073753 0.007638873
000280 23 09 93 3c 9c 38 67 3c 1c b4 0c bb bc 23 e5 bb
       0.017948693 0.014112618 -0.0021469658 -0.0069927853
000290 2d de 69 bc 68 cf 0a 3b a8 12 19 bb be a6 2d 3c
       -0.014274162 0.0021180753 -0.0023357067 0.0105988365
0002a0 d8 85 2c 3b b6 19 1d 3b 90 42 71 3c b5 f0 2c bc
       0.0026324894 0.0023971624 0.014725342 -0.010555436
0002b0 ce d2 05 bc b3 9b 2a bc 76 0a b1 3b a7 bc b3 3c
       -0.008167936 -0.010413098 0.0054028584 0.021940542
0002c0 ca c2 9b 3a ba b5 16 3c 27 aa a5 3c 85 66 0d 3c
       0.0011883613 0.0091986 0.020222737 0.0086304
0002d0 08 39 17 3d 21 74 a6 3c 1c a2 c2 3c a7 08 30 3d
       0.036919624 0.020319046 0.02375894 0.042977
0002e0 ff 70 9f 3c a6 ac 55 3c bd 7c d4 3c 03 42 ce ba
       0.01946306 0.013041651 0.025938386 -0.0015736226
0002f0 49 d1 ab bc 2a 85 96 bb 11 ce 88 bc 2e d5 7e bc
       -0.020973818 -0.004593511 -0.016699823 -0.015553756
000300 4d 0a 00 bc 0e 81 3c bc 8a 96 75 bc f6 8c 46 3b
       -0.007814956 -0.011505378 -0.014989505 0.0030296422
000310 2c 48 4c bb d8 ae b4 bb b9 d9 90 3c b7 1c d0 3a
       -0.0031170947 -0.005514007 0.017681943 0.0015877698
000320 62 3a bd bb 6e 52 9f 3b e4 3b ff bb f4 69 c3 bb
       -0.005774782 0.0048621213 -0.007789122 -0.0059635583
000330 39 9b 76 bc 26 26 20 bc db c9 90 bb 64 5e 7e ba
       -0.015051656 -0.00977472 -0.0044185943 -0.00097033964
000340 3b 77 c8 bb c9 80 81 3a 90 98 92 3a 12 56 75 bb
       -0.006117729 0.00098803 0.0011184383 -0.0037435335
000350 04 ab cd bb 6e 20 1b 3c ef 3b 1c 3c 20 c4 38 3c
       -0.00627649 0.009468181 0.009535774 0.011277229
000360 34 7d 85 bc 0c d0 87 bc d8 7b 28 bc 8b f3 47 bc
       -0.016295053 -0.016578697 -0.010283433 -0.012204061
000370 50 42 b7 bb 6f 27 53 bb 5f ae 9c 3c f5 0d 74 3c
       -0.005592622 -0.003221955 0.019126115 0.014895906
000380 7c 83 18 3c 52 28 f1 bb 32 c9 5a 3a df ad bb 3b
       0.009308692 -0.007359543 0.00083460205 0.005727514
000390 7a 8f 8d bc cd c7 45 3a 5f f2 aa 3b e1 ea 0e bc
       -0.017280329 0.0007544726 0.005216881 -0.008722992
0003a0 cf ec 0f bb 50 2e 45 bb 70 84 65 3c df 7e d4 bb
       -0.0021961217 -0.003008742 0.014008626 -0.006484851
0003b0 9e 38 3c bb 9f a5 c8 3b 36 86 4c bc 21 d3 89 bc
       -0.002872027 0.006123259 -0.01248317 -0.016824307
0003c0 26 3f 5d 3b 55 1d 86 bb ea 6e 30 bb d8 97 ae 39
       0.0033759563 -0.004092852 -0.0026921579 0.00033301
0003d0 f4 2f 73 bb 77 2e 89 bc 3b 3a 2a bc 9e f5 b3 bc
       -0.003710744 -0.016745789 -0.01038986 -0.021967705
0003e0 a7 b7 c7 bc f8 4b 35 bc 6b 4d 73 bc 0c a6 26 bc
       -0.024379564 -0.011065476 -0.014850001 -0.010171425
0003f0 be a2 05 3c e0 b2 dd 3c 30 d6 e9 3c ae 9c 62 3c
       0.008156477 0.027062833 0.028544515 0.013831301

backBone.1.conv2.bias f4 [10]
000000 40 e1 e8 b6 f2 94 b3 b7 5b bb 9e 37 63 43 82 37
       -6.9403613e-06 -2.140782e-05 1.8922312e-05 1.5528587e-05
000010 7e 60 04 b6 6e 45 43 37 7a 6d a1 b7 35 f3 a0 35
       -1.9725699e-06 1.1639071e-05 -1.9243675e-05 1.1991712e-06
000020 80 94 2f b3 c7 b4 a9 37
       -4.0880423e-08 2.0230551e-05
